output/auto_evolution_angle_autoencoder16_20260205_002638/model/auto_evolution_angle_autoencoder16_20260205_002638_best_chromosome.pth (torch, 24198 bytes, 2 tensors)

weight f4 [128]
0	0x3c1078a9	0.00881783
1	0xbe5fa77e	-0.21841237
2	0x3e6ca6c9	0.23110498
3	0xbe30c3f4	-0.1726225
4	0xbeda9920	-0.4269495
5	0x3e7f4f3f	0.24932574
6	0xbeb6195e	-0.3556623
7	0x3eb16e40	0.34654427
8	0x3d96493f	0.07338189
9	0x3e3c5ac0	0.18393993
10	0x3e88927c	0.2667426
11	0xbdf16989	-0.11787707
12	0xbecb0731	-0.39653924
13	0x3eb207df	0.3477163
14	0xbd544a99	-0.051828954
15	0x3e59aecd	0.21258087
16	0xbe1b6e9a	-0.1517891
17	0x3eda2e31	0.42613366
18	0x3c696aa4	0.0142466165
19	0x3ed34594	0.4126402
20	0xbe325325	-0.1741453
21	0xbcc23c73	-0.023710465
22	0x3e610b04	0.21976858
23	0xbd230ed5	-0.039809067
24	0x3e10ceef	0.14141439
25	0xbd589004	-0.05287172
26	0x3d83c958	0.06434888
27	0x3ee5ad66	0.44858855
28	0x3e6c4058	0.2307142
29	0xbe1e9f15	-0.15490372
30	0xbe2265d8	-0.15859163
31	0xbee02410	-0.43777514
32	0x3e4d145f	0.20027302
33	0xbecd03e6	-0.40042037
34	0x3e983d80	0.2973442
35	0x3c55146c	0.013005357
36	0xbe7b3e4c	-0.24535483
37	0xbef4cf83	-0.4781457
38	0xbeef26ef	-0.4670939
39	0x3eda5905	0.42646042
40	0xbecdd35f	-0.40200326
41	0xbedc7569	-0.43058327
42	0x3d4feca6	0.050762795
43	0xbe8079a4	-0.25092804
44	0x3ed88fc2	0.42297179
45	0xbed04798	-0.40679622
46	0x3ebf9474	0.37417948
47	0xbe41d071	-0.1892717
48	0x3ece6924	0.4031459
49	0xbc4b110c	-0.012394201
50	0xbec66db6	-0.38755578
51	0x3e642352	0.22279099
52	0x3cb37fb7	0.021911485
53	0xbe1ea132	-0.15491179
54	0x3ed62597	0.41825554
55	0x3e8245ff	0.25444028
56	0x3eaf6a70	0.34260893
57	0xbe31ee19	-0.17375983
58	0xbd6b1d6f	-0.057401117
59	0xbe594390	-0.2121718
60	0xbeb77ba9	-0.35836533
61	0x3e33b9c9	0.1755134
62	0xbe5dfc7f	-0.21678351
63	0x3d853e10	0.06505978
64	0xbf0703cb	-0.5274016
65	0xbed9a368	-0.42507482
66	0xbebb2133	-0.36548766
67	0xbefe976b	-0.49724898
68	0x3c9e3ee2	0.019317094
69	0xbe93fd6e	-0.2890429
70	0xbd56592e	-0.052331142
71	0xbe00868f	-0.1255133
72	0xbce46c76	-0.02788375
73	0xbebe0c98	-0.37118983
74	0xbe3b2c42	-0.18278602
75	0xbcb9f54f	-0.02269998
76	0xbe6f09fa	-0.2334365
77	0x3e06df5c	0.13171142
78	0x3e9fb5a7	0.31193277
79	0xbd0683be	-0.032840483
80	0x3e94d1f5	0.29066435
81	0x3ed6ca83	0.4195138
82	0x3ef544ae	0.4790396
83	0xbe765e8f	-0.24059509
84	0xbed32bf2	-0.41244465
85	0x3eb4852c	0.35257852
86	0xbe5328eb	-0.20621078
87	0x3e735620	0.23763323
88	0xbe529922	-0.20566228
89	0x3e39afec	0.18133515
90	0x3eaaa10d	0.33325997
91	0x3dedde95	0.1161472
92	0x3e5b5bf1	0.21421792
93	0xbdd76035	-0.10516397
94	0x3ed51ec2	0.4162503
95	0x3efad4ad	0.48990384
96	0xbecc90c8	-0.3995421
97	0x3ec5f21a	0.3866127
98	0x3efa34bf	0.48868367
99	0x3d3191c4	0.043351904
100	0x3e6ff9d6	0.23435149
101	0x3d083a35	0.033258636
102	0xbdab2a18	-0.08357638
103	0xbf0785bc	-0.5293844
104	0xbec086cc	-0.37602842
105	0xbe5b7958	-0.21433008
106	0x3f006896	0.50159585
107	0x3e181635	0.14852221
108	0xbe9f5908	-0.31122613
109	0x3e1e2a9d	0.15445943
110	0x3df383df	0.11890387
111	0x3e4090a0	0.1880517
112	0xbeb4e007	-0.3532717
113	0xbecaa9a3	-0.39582548
114	0x3e7b9a17	0.245705
115	0xbe01360a	-0.1261827
116	0x3c9a8c18	0.01886563
117	0xbee271b8	-0.44227386
118	0xbdccc5cc	-0.09998664
119	0x3eea86dd	0.45806018
120	0x3ee4a598	0.44657588
121	0x3c1d9bc1	0.009619654
122	0xbe8fa8c0	-0.28058434
123	0x3dabd080	0.083893776
124	0xbe59bd90	-0.21263719
125	0xbe1469e7	-0.14493524
126	0x3e1ca82b	0.15298526
127	0xbea3318f	-0.31873748

_weights f4 [128]
0	0x3c1078a9	0.00881783
1	0xbe5fa77e	-0.21841237
2	0x3e6ca6c9	0.23110498
3	0xbe30c3f4	-0.1726225
4	0xbeda9920	-0.4269495
5	0x3e7f4f3f	0.24932574
6	0xbeb6195e	-0.3556623
7	0x3eb16e40	0.34654427
8	0x3d96493f	0.07338189
9	0x3e3c5ac0	0.18393993
10	0x3e88927c	0.2667426
11	0xbdf16989	-0.11787707
12	0xbecb0731	-0.39653924
13	0x3eb207df	0.3477163
14	0xbd544a99	-0.051828954
15	0x3e59aecd	0.21258087
16	0xbe1b6e9a	-0.1517891
17	0x3eda2e31	0.42613366
18	0x3c696aa4	0.0142466165
19	0x3ed34594	0.4126402
20	0xbe325325	-0.1741453
21	0xbcc23c73	-0.023710465
22	0x3e610b04	0.21976858
23	0xbd230ed5	-0.039809067
24	0x3e10ceef	0.14141439
25	0xbd589004	-0.05287172
26	0x3d83c958	0.06434888
27	0x3ee5ad66	0.44858855
28	0x3e6c4058	0.2307142
29	0xbe1e9f15	-0.15490372
30	0xbe2265d8	-0.15859163
31	0xbee02410	-0.43777514
32	0x3e4d145f	0.20027302
33	0xbecd03e6	-0.40042037
34	0x3e983d80	0.2973442
35	0x3c55146c	0.013005357
36	0xbe7b3e4c	-0.24535483
37	0xbef4cf83	-0.4781457
38	0xbeef26ef	-0.4670939
39	0x3eda5905	0.42646042
40	0xbecdd35f	-0.40200326
41	0xbedc7569	-0.43058327
42	0x3d4feca6	0.050762795
43	0xbe8079a4	-0.25092804
44	0x3ed88fc2	0.42297179
45	0xbed04798	-0.40679622
46	0x3ebf9474	0.37417948
47	0xbe41d071	-0.1892717
48	0x3ece6924	0.4031459
49	0xbc4b110c	-0.012394201
50	0xbec66db6	-0.38755578
51	0x3e642352	0.22279099
52	0x3cb37fb7	0.021911485
53	0xbe1ea132	-0.15491179
54	0x3ed62597	0.41825554
55	0x3e8245ff	0.25444028
56	0x3eaf6a70	0.34260893
57	0xbe31ee19	-0.17375983
58	0xbd6b1d6f	-0.057401117
59	0xbe594390	-0.2121718
60	0xbeb77ba9	-0.35836533
61	0x3e33b9c9	0.1755134
62	0xbe5dfc7f	-0.21678351
63	0x3d853e10	0.06505978
64	0xbf0703cb	-0.5274016
65	0xbed9a368	-0.42507482
66	0xbebb2133	-0.36548766
67	0xbefe976b	-0.49724898
68	0x3c9e3ee2	0.019317094
69	0xbe93fd6e	-0.2890429
70	0xbd56592e	-0.052331142
71	0xbe00868f	-0.1255133
72	0xbce46c76	-0.02788375
73	0xbebe0c98	-0.37118983
74	0xbe3b2c42	-0.18278602
75	0xbcb9f54f	-0.02269998
76	0xbe6f09fa	-0.2334365
77	0x3e06df5c	0.13171142
78	0x3e9fb5a7	0.31193277
79	0xbd0683be	-0.032840483
80	0x3e94d1f5	0.29066435
81	0x3ed6ca83	0.4195138
82	0x3ef544ae	0.4790396
83	0xbe765e8f	-0.24059509
84	0xbed32bf2	-0.41244465
85	0x3eb4852c	0.35257852
86	0xbe5328eb	-0.20621078
87	0x3e735620	0.23763323
88	0xbe529922	-0.20566228
89	0x3e39afec	0.18133515
90	0x3eaaa10d	0.33325997
91	0x3dedde95	0.1161472
92	0x3e5b5bf1	0.21421792
93	0xbdd76035	-0.10516397
94	0x3ed51ec2	0.4162503
95	0x3efad4ad	0.48990384
96	0xbecc90c8	-0.3995421
97	0x3ec5f21a	0.3866127
98	0x3efa34bf	0.48868367
99	0x3d3191c4	0.043351904
100	0x3e6ff9d6	0.23435149
101	0x3d083a35	0.033258636
102	0xbdab2a18	-0.08357638
103	0xbf0785bc	-0.5293844
104	0xbec086cc	-0.37602842
105	0xbe5b7958	-0.21433008
106	0x3f006896	0.50159585
107	0x3e181635	0.14852221
108	0xbe9f5908	-0.31122613
109	0x3e1e2a9d	0.15445943
110	0x3df383df	0.11890387
111	0x3e4090a0	0.1880517
112	0xbeb4e007	-0.3532717
113	0xbecaa9a3	-0.39582548
114	0x3e7b9a17	0.245705
115	0xbe01360a	-0.1261827
116	0x3c9a8c18	0.01886563
117	0xbee271b8	-0.44227386
118	0xbdccc5cc	-0.09998664
119	0x3eea86dd	0.45806018
120	0x3ee4a598	0.44657588
121	0x3c1d9bc1	0.009619654
122	0xbe8fa8c0	-0.28058434
123	0x3dabd080	0.083893776
124	0xbe59bd90	-0.21263719
125	0xbe1469e7	-0.14493524
126	0x3e1ca82b	0.15298526
127	0xbea3318f	-0.31873748
