output/mnist_69_pca_train_angle_pca16_20260203_225428/model/train_angle_pca16_20260203_225428_trained_qcnn.pth (torch, 2618 bytes, 2 tensors)

weight f4 [123]
000000 da f0 c1 3e cb 6e 71 3c 11 ac 9d bc 18 e7 70 3f
       0.37879068 0.014735888 -0.019247087 0.9410262
000010 5a 7e ae be 48 18 b1 3e 2f c8 9b bf b6 af 3b bf
       -0.34080774 0.34588838 -1.2170466 -0.7331499
000020 08 c1 29 bf 5e 3a 38 3f 1d 3a ed bc a3 c3 07 be
       -0.6631017 0.7196406 -0.028958375 -0.13258223
000030 10 97 24 bf e9 e9 c6 3e 48 ab b8 be 52 32 82 3e
       -0.64293003 0.38850334 -0.36068177 0.25429016
000040 80 a4 a2 3e b2 c7 16 bf 96 e4 03 bf 7e be bb 3e
       0.3176613 -0.5889846 -0.5152067 0.36668772
000050 d6 a3 3d bc d4 55 3c 3f fe 09 a6 3c 94 d9 23 3f
       -0.011574706 0.73568463 0.020268437 0.6400387
000060 d6 38 9e be 91 2f d9 bf 9d 90 de bf 75 c9 2b 3f
       -0.30902737 -1.6967641 -1.7387882 0.67104274
000070 3d 5c 34 3f 8c 83 84 3f 82 42 33 3e dd 46 28 bf
       0.70453244 1.0352645 0.1750584 -0.6573313
000080 16 a3 09 bf c6 81 92 bc 7a 5b d8 3e e3 e7 1c bf
       -0.53764474 -0.017884146 0.4225729 -0.6129133
000090 54 a4 e1 3d 22 e4 18 bc 54 e7 00 3f 79 b5 36 bf
       0.11017671 -0.009331735 0.5035298 -0.71370655
0000a0 1a 17 8a 3d a1 b3 9d be 66 b1 d4 be 7a 85 4a bf
       0.067426875 -0.30801108 -0.41541594 -0.7910992
0000b0 29 eb bf 3d b0 f9 4e 3e fb e4 c5 3f 77 b3 c3 bf
       0.09371025 0.20212436 1.5460504 -1.5289143
0000c0 15 00 04 3f 5f ad 19 3e 73 65 a3 be fb 18 88 3f
       0.51562625 0.15007542 -0.31913337 1.0632623
0000d0 be e4 11 be 61 b5 c6 3e d0 8b 8f be 49 06 8b be
       -0.14247414 0.38810256 -0.28036356 -0.27153233
0000e0 a4 be 08 3f cd 20 99 3d 78 bd 0c 3e 52 46 b1 3e
       0.53415895 0.074769594 0.13744152 0.34623963
0000f0 56 77 39 3f e4 bf 62 3d 49 bc b3 3c b7 71 87 3f
       0.7244772 0.055358782 0.021940367 1.0581578
000100 0d 53 e6 be 88 b9 99 3e e1 3a 3a 3d 3d 2a 11 3e
       -0.44985238 0.30024362 0.045466308 0.14176269
000110 c9 34 c1 be b2 dc 91 be 45 fb 14 3d 20 b6 43 bc
       -0.37735584 -0.2848869 0.03637244 -0.011945277
000120 cf 3e 77 be 37 ef db 3c 94 0d 8b be 9b ff a3 bd
       -0.24145053 0.026847465 -0.27158797 -0.08007737
000130 f1 51 a6 be 9a 8a d3 3e cd 50 7a 3f 99 12 e7 3d
       -0.3248439 0.41316682 0.9777954 0.11282844
000140 d1 b0 33 be 77 cb 16 3f 6c 4a 81 bd c0 f1 aa 3d
       -0.17547919 0.5890421 -0.06313023 0.083468914
000150 56 7c 94 3e 24 46 be bd 5e 64 23 3f 18 31 8d bf
       0.2900111 -0.09290722 0.63825023 -1.1030607
000160 70 d3 c1 bd 70 5f 1f bf f8 ed b7 be db 2e 88 be
       -0.09464157 -0.62255 -0.35923743 -0.26598248
000170 75 09 95 be ba c9 e9 3e c3 8c f7 3d df 98 b9 bd
       -0.29108778 0.45661718 0.12087395 -0.09062361
000180 cc 7f 97 be ad 60 1b be e7 ed 04 bf 79 fd d4 be
       -0.2958969 -0.15173598 -0.5192551 -0.41599634
000190 d7 2e a4 bd d8 c9 e3 be 2f f1 8a be 00 98 bb bd
       -0.080167465 -0.44489932 -0.27137133 -0.09159851
0001a0 4f e0 ff bd b2 f9 a1 3e 83 7d 1d 3f 4a d9 c2 bc
       -0.12493955 0.31635815 0.6151964 -0.023785252
0001b0 fb ea 1f bf 9a 8d 73 3f 42 6f ae 3f 3b d5 6c 3e
       -0.62467927 0.9513794 1.3627703 0.23128216
0001c0 c3 83 00 bd 06 f2 61 3d 35 67 b5 bd eb c6 43 bf
       -0.031375658 0.055162452 -0.08857576 -0.764754
0001d0 c9 f9 92 be 60 1a e0 bd eb ba 27 3f 30 b9 73 bf
       -0.28706196 -0.10942531 0.6551959 -0.9520445
0001e0 e4 65 65 bd 51 05 63 3f ee 75 0f bf
       -0.056005374 0.8867999 -0.5603932

_weights f4 [123]
000000 da f0 c1 3e cb 6e 71 3c 11 ac 9d bc 18 e7 70 3f
       0.37879068 0.014735888 -0.019247087 0.9410262
000010 5a 7e ae be 48 18 b1 3e 2f c8 9b bf b6 af 3b bf
       -0.34080774 0.34588838 -1.2170466 -0.7331499
000020 08 c1 29 bf 5e 3a 38 3f 1d 3a ed bc a3 c3 07 be
       -0.6631017 0.7196406 -0.028958375 -0.13258223
000030 10 97 24 bf e9 e9 c6 3e 48 ab b8 be 52 32 82 3e
       -0.64293003 0.38850334 -0.36068177 0.25429016
000040 80 a4 a2 3e b2 c7 16 bf 96 e4 03 bf 7e be bb 3e
       0.3176613 -0.5889846 -0.5152067 0.36668772
000050 d6 a3 3d bc d4 55 3c 3f fe 09 a6 3c 94 d9 23 3f
       -0.011574706 0.73568463 0.020268437 0.6400387
000060 d6 38 9e be 91 2f d9 bf 9d 90 de bf 75 c9 2b 3f
       -0.30902737 -1.6967641 -1.7387882 0.67104274
000070 3d 5c 34 3f 8c 83 84 3f 82 42 33 3e dd 46 28 bf
       0.70453244 1.0352645 0.1750584 -0.6573313
000080 16 a3 09 bf c6 81 92 bc 7a 5b d8 3e e3 e7 1c bf
       -0.53764474 -0.017884146 0.4225729 -0.6129133
000090 54 a4 e1 3d 22 e4 18 bc 54 e7 00 3f 79 b5 36 bf
       0.11017671 -0.009331735 0.5035298 -0.71370655
0000a0 1a 17 8a 3d a1 b3 9d be 66 b1 d4 be 7a 85 4a bf
       0.067426875 -0.30801108 -0.41541594 -0.7910992
0000b0 29 eb bf 3d b0 f9 4e 3e fb e4 c5 3f 77 b3 c3 bf
       0.09371025 0.20212436 1.5460504 -1.5289143
0000c0 15 00 04 3f 5f ad 19 3e 73 65 a3 be fb 18 88 3f
       0.51562625 0.15007542 -0.31913337 1.0632623
0000d0 be e4 11 be 61 b5 c6 3e d0 8b 8f be 49 06 8b be
       -0.14247414 0.38810256 -0.28036356 -0.27153233
0000e0 a4 be 08 3f cd 20 99 3d 78 bd 0c 3e 52 46 b1 3e
       0.53415895 0.074769594 0.13744152 0.34623963
0000f0 56 77 39 3f e4 bf 62 3d 49 bc b3 3c b7 71 87 3f
       0.7244772 0.055358782 0.021940367 1.0581578
000100 0d 53 e6 be 88 b9 99 3e e1 3a 3a 3d 3d 2a 11 3e
       -0.44985238 0.30024362 0.045466308 0.14176269
000110 c9 34 c1 be b2 dc 91 be 45 fb 14 3d 20 b6 43 bc
       -0.37735584 -0.2848869 0.03637244 -0.011945277
000120 cf 3e 77 be 37 ef db 3c 94 0d 8b be 9b ff a3 bd
       -0.24145053 0.026847465 -0.27158797 -0.08007737
000130 f1 51 a6 be 9a 8a d3 3e cd 50 7a 3f 99 12 e7 3d
       -0.3248439 0.41316682 0.9777954 0.11282844
000140 d1 b0 33 be 77 cb 16 3f 6c 4a 81 bd c0 f1 aa 3d
       -0.17547919 0.5890421 -0.06313023 0.083468914
000150 56 7c 94 3e 24 46 be bd 5e 64 23 3f 18 31 8d bf
       0.2900111 -0.09290722 0.63825023 -1.1030607
000160 70 d3 c1 bd 70 5f 1f bf f8 ed b7 be db 2e 88 be
       -0.09464157 -0.62255 -0.35923743 -0.26598248
000170 75 09 95 be ba c9 e9 3e c3 8c f7 3d df 98 b9 bd
       -0.29108778 0.45661718 0.12087395 -0.09062361
000180 cc 7f 97 be ad 60 1b be e7 ed 04 bf 79 fd d4 be
       -0.2958969 -0.15173598 -0.5192551 -0.41599634
000190 d7 2e a4 bd d8 c9 e3 be 2f f1 8a be 00 98 bb bd
       -0.080167465 -0.44489932 -0.27137133 -0.09159851
0001a0 4f e0 ff bd b2 f9 a1 3e 83 7d 1d 3f 4a d9 c2 bc
       -0.12493955 0.31635815 0.6151964 -0.023785252
0001b0 fb ea 1f bf 9a 8d 73 3f 42 6f ae 3f 3b d5 6c 3e
       -0.62467927 0.9513794 1.3627703 0.23128216
0001c0 c3 83 00 bd 06 f2 61 3d 35 67 b5 bd eb c6 43 bf
       -0.031375658 0.055162452 -0.08857576 -0.764754
0001d0 c9 f9 92 be 60 1a e0 bd eb ba 27 3f 30 b9 73 bf
       -0.28706196 -0.10942531 0.6551959 -0.9520445
0001e0 e4 65 65 bd 51 05 63 3f ee 75 0f bf
       -0.056005374 0.8867999 -0.5603932
