output/train_angle_autoencoder16_20260207_103331/model/train_angle_autoencoder16_20260207_103331_trained_qcnn.pth (torch, 2738 bytes, 2 tensors)

weight f4 [123]
00000000: 97d6 21bb 6347 b5be ec0c 8bbf 2fb5 6f3e
00000010: eeb1 4ebe c25c 2dbf f072 2a3f 2bfb b5be
00000020: 5f0b ebbd fc5b 8c3c 8e08 03be cef9 093f
00000030: d677 45be b55d bc3d 7b97 7ebd 8501 19be
00000040: a137 c33e 0c53 b53f 4637 2ebe 2bde 4d3e
00000050: 6630 bd3e ee4c f0be 4d30 fb3e 5af1 053e
00000060: f516 f33e f418 f4be bcf4 0a3e 6055 b23e
00000070: 8d8f b9be d1a3 3a3e 548b be3e 153f a4be
00000080: 066f c6be 18a1 943e 0eb0 ebbe 574c 58bf
00000090: d7cf b9bd f360 273f d72e 57be e41d f73e
000000a0: 5f85 31bf 31af 683e f969 3abe a47b bf3a
000000b0: 9820 09be 9fee 353e f541 cc3e 85e7 8a3d
000000c0: 936d 2ebf ca82 773f da54 e5be d6db adbf
000000d0: 7edc 2bbf c736 fb3d 0ed3 a9be e657 6f3f
000000e0: e7d6 b73e 3e79 00bf cf9c 00bf 465a ed3d
000000f0: 7851 11bf 3058 70bd ea3a 23bf 2013 353f
00000100: b6c5 0f3e 80aa 7fbd 5097 26be 6f4b 93be
00000110: fd21 343f 2fec 6a3e b3c9 b2bd 458d 0abf
00000120: ce68 2dbe 5dea 023f 7db2 823e b332 8e3f
00000130: 989c 54bf 8aaa fabe b014 a9be 0cc5 943d
00000140: 537b b3be 4bda 97be 502e 8b3e a5d4 f33e
00000150: dd17 683e be03 2fbd f62e 02bd 3ce6 57be
00000160: 5a5c 953d 06d6 063e 4711 6c3e a5bd 753f
00000170: b176 fabe a5f3 99bf 23d0 b83e 8891 81bf
00000180: 5fde 1e3f d0ad 343e 7864 413a 9734 303f
00000190: 7197 9a3e 592e bf3e 4a11 163d 4b89 a13e
000001a0: 19a7 1dbd 130e 5dbf b4c2 adbe e176 073f
000001b0: 6b38 253f 6594 8cbf 58e6 7c3f 0777 66bf
000001c0: ad47 73bc 50c9 9fbe 3798 18bf 606c 2b3f
000001d0: 21f9 6abf 6b56 b63e 1aa9 14be 74d8 813e
000001e0: 7685 71be 5cb0 a13d 99a3 3fbe
-0.0024694556 -0.35406026 -1.0863318 0.2340896 -0.20185062 -0.6771966 0.6658163 -0.35543188
-0.11476778 0.017133705 -0.12796232 0.53896797 -0.19283995 0.09197561 -0.06215618 -0.14941986
0.3812838 1.4165969 -0.17013273 0.20104282 0.36950988 -0.46933693 0.49060288 0.1308035
0.47478452 -0.47675288 0.13569921 0.3483076 -0.36242333 0.18226553 0.37215674 -0.32079378
-0.3875658 0.29029155 -0.46032757 -0.84491485 -0.090728454 0.6538231 -0.21013962 0.48264992
-0.69344133 0.2272308 -0.18204488 0.0014608991 -0.1339134 0.17766808 0.3989407 0.0678244
-0.68135947 0.96683943 -0.447913 -1.3582714 -0.6713332 0.12266307 -0.33168834 0.934935
0.35906145 -0.50185 -0.5023927 0.11589484 -0.56764936 -0.058677852 -0.6376177 0.7073231
0.14040264 -0.06241846 -0.16268659 -0.2876849 0.7036436 0.2294166 -0.08729877 -0.5412181
-0.16934511 0.5113886 0.255268 1.1109222 -0.83051443 -0.48958236 -0.33023596 0.07264146
-0.35055026 -0.29658732 0.2718377 0.47623172 0.22665353 -0.04272818 -0.031783067 -0.21083921
0.07293005 0.13167581 0.23053466 0.959925 -0.4891868 -1.202748 0.36096296 -1.0122538
0.6205806 0.17644429 0.0007377337 0.68830246 0.30193666 0.37340048 0.036637582 0.3155006
-0.038489435 -0.863496 -0.3393761 0.5291577 0.6453921 -1.0982786 0.98788977 -0.9002537
-0.014848632 -0.31208277 -0.5960726 0.6696224 -0.9178639 0.35612807 -0.14517632 0.25360453
-0.23586068 0.07894966 -0.18714751

_weights f4 [123]
00000000: 97d6 21bb 6347 b5be ec0c 8bbf 2fb5 6f3e
00000010: eeb1 4ebe c25c 2dbf f072 2a3f 2bfb b5be
00000020: 5f0b ebbd fc5b 8c3c 8e08 03be cef9 093f
00000030: d677 45be b55d bc3d 7b97 7ebd 8501 19be
00000040: a137 c33e 0c53 b53f 4637 2ebe 2bde 4d3e
00000050: 6630 bd3e ee4c f0be 4d30 fb3e 5af1 053e
00000060: f516 f33e f418 f4be bcf4 0a3e 6055 b23e
00000070: 8d8f b9be d1a3 3a3e 548b be3e 153f a4be
00000080: 066f c6be 18a1 943e 0eb0 ebbe 574c 58bf
00000090: d7cf b9bd f360 273f d72e 57be e41d f73e
000000a0: 5f85 31bf 31af 683e f969 3abe a47b bf3a
000000b0: 9820 09be 9fee 353e f541 cc3e 85e7 8a3d
000000c0: 936d 2ebf ca82 773f da54 e5be d6db adbf
000000d0: 7edc 2bbf c736 fb3d 0ed3 a9be e657 6f3f
000000e0: e7d6 b73e 3e79 00bf cf9c 00bf 465a ed3d
000000f0: 7851 11bf 3058 70bd ea3a 23bf 2013 353f
00000100: b6c5 0f3e 80aa 7fbd 5097 26be 6f4b 93be
00000110: fd21 343f 2fec 6a3e b3c9 b2bd 458d 0abf
00000120: ce68 2dbe 5dea 023f 7db2 823e b332 8e3f
00000130: 989c 54bf 8aaa fabe b014 a9be 0cc5 943d
00000140: 537b b3be 4bda 97be 502e 8b3e a5d4 f33e
00000150: dd17 683e be03 2fbd f62e 02bd 3ce6 57be
00000160: 5a5c 953d 06d6 063e 4711 6c3e a5bd 753f
00000170: b176 fabe a5f3 99bf 23d0 b83e 8891 81bf
00000180: 5fde 1e3f d0ad 343e 7864 413a 9734 303f
00000190: 7197 9a3e 592e bf3e 4a11 163d 4b89 a13e
000001a0: 19a7 1dbd 130e 5dbf b4c2 adbe e176 073f
000001b0: 6b38 253f 6594 8cbf 58e6 7c3f 0777 66bf
000001c0: ad47 73bc 50c9 9fbe 3798 18bf 606c 2b3f
000001d0: 21f9 6abf 6b56 b63e 1aa9 14be 74d8 813e
000001e0: 7685 71be 5cb0 a13d 99a3 3fbe
-0.0024694556 -0.35406026 -1.0863318 0.2340896 -0.20185062 -0.6771966 0.6658163 -0.35543188
-0.11476778 0.017133705 -0.12796232 0.53896797 -0.19283995 0.09197561 -0.06215618 -0.14941986
0.3812838 1.4165969 -0.17013273 0.20104282 0.36950988 -0.46933693 0.49060288 0.1308035
0.47478452 -0.47675288 0.13569921 0.3483076 -0.36242333 0.18226553 0.37215674 -0.32079378
-0.3875658 0.29029155 -0.46032757 -0.84491485 -0.090728454 0.6538231 -0.21013962 0.48264992
-0.69344133 0.2272308 -0.18204488 0.0014608991 -0.1339134 0.17766808 0.3989407 0.0678244
-0.68135947 0.96683943 -0.447913 -1.3582714 -0.6713332 0.12266307 -0.33168834 0.934935
0.35906145 -0.50185 -0.5023927 0.11589484 -0.56764936 -0.058677852 -0.6376177 0.7073231
0.14040264 -0.06241846 -0.16268659 -0.2876849 0.7036436 0.2294166 -0.08729877 -0.5412181
-0.16934511 0.5113886 0.255268 1.1109222 -0.83051443 -0.48958236 -0.33023596 0.07264146
-0.35055026 -0.29658732 0.2718377 0.47623172 0.22665353 -0.04272818 -0.031783067 -0.21083921
0.07293005 0.13167581 0.23053466 0.959925 -0.4891868 -1.202748 0.36096296 -1.0122538
0.6205806 0.17644429 0.0007377337 0.68830246 0.30193666 0.37340048 0.036637582 0.3155006
-0.038489435 -0.863496 -0.3393761 0.5291577 0.6453921 -1.0982786 0.98788977 -0.9002537
-0.014848632 -0.31208277 -0.5960726 0.6696224 -0.9178639 0.35612807 -0.14517632 0.25360453
-0.23586068 0.07894966 -0.18714751
