output/train_angle_autoencoder16_20260205_065852/model/train_angle_autoencoder16_20260205_065852_trained_qcnn.pth (torch, 2738 bytes, 2 tensors)

weight f4 [123]
0	0xbcf628f1	-0.03004882
1	0xbdba4e91	-0.090970166
2	0x3ca4966c	0.020091258
3	0xbc07a0b3	-0.00827806
4	0x3e852fa9	0.26012924
5	0xbf29fcd9	-0.6640144
6	0x3e5e51fb	0.2171096
7	0x3ef8227f	0.48463818
8	0x3eff448b	0.49856982
9	0xbe9278be	-0.28607744
10	0xbe4ce0c1	-0.20007612
11	0xbe58dd95	-0.21178277
12	0x3d90c0f5	0.07068054
13	0xbe9d5e2f	-0.3073592
14	0xbdf4f18f	-0.11960136
15	0xbee7f2aa	-0.45302325
16	0x3e124283	0.14283185
17	0xbeaea937	-0.34113476
18	0xbe13283e	-0.1437082
19	0x3ed11f3f	0.4084415
20	0x3e013c60	0.12620687
21	0x3e9ff5e1	0.31242278
22	0xbb8f25c4	-0.0043685157
23	0xbe8ea7b3	-0.2786232
24	0x3e0c00dd	0.13672204
25	0xbe0ab9e9	-0.13547482
26	0xbd09cf96	-0.033645235
27	0xbe2114c8	-0.15730584
28	0x3eafdf64	0.3435012
29	0x3ed6e091	0.41968206
30	0x3e6148f3	0.22000484
31	0x3eed5086	0.46350497
32	0xbca93191	-0.020653518
33	0xbd0fbd62	-0.03509272
34	0x3e550297	0.20801769
35	0xbea4d1b0	-0.3219123
36	0x3ea2f3e1	0.3182669
37	0x3ef3cfa0	0.47619343
38	0xbeac9524	-0.33707535
39	0x3de0701d	0.10958884
40	0xbe83997e	-0.25703043
41	0x3c51b6fc	0.0127999745
42	0x3cc0deb1	0.023543688
43	0xbe3efd3d	-0.1865129
44	0xbec815cc	-0.3907913
45	0x3e60d013	0.21954374
46	0xbe7cf830	-0.24704051
47	0xbe3a49ac	-0.18192166
48	0xbead6d07	-0.33872244
49	0x3e186641	0.14882757
50	0xbe104d60	-0.14092016
51	0xbe3a254d	-0.18178292
52	0x3e2acfc5	0.1668082
53	0x3eb935bc	0.3617381
54	0xbe9993d5	-0.299956
55	0x3ee8e149	0.4548438
56	0x3ed5212c	0.4162687
57	0x3e58cb3e	0.2117128
58	0x3eacc311	0.33742574
59	0xbb54f9ad	-0.0032497451
60	0x3ea761f5	0.32691923
61	0xbec48125	-0.3837978
62	0x3c2c69c2	0.0105232615
63	0x3d68bebe	0.05682253
64	0xbdfeed83	-0.124476455
65	0x3f089668	0.533545
66	0xbdb2d816	-0.08732621
67	0xbd5880bc	-0.052857146
68	0x3ee456fb	0.4459761
69	0x3ecbe09c	0.398198
70	0x3def5ae7	0.1168726
71	0x3e3aea6a	0.18253484
72	0x3e3d83ea	0.18507352
73	0x3e346099	0.17614974
74	0xbd66dd53	-0.056363415
75	0x39f3a5fc	0.0004647224
76	0xbd9228de	-0.07136701
77	0xbed7ba59	-0.4213436
78	0xbec10ae5	-0.37703624
79	0xbd8eb72b	-0.0696853
80	0x3eb6431f	0.35598084
81	0x3ee53fff	0.44775388
82	0x3dd79d24	0.10528019
83	0x3eecccbd	0.46249953
84	0xbe741c16	-0.23838839
85	0xbe6313f0	-0.22175574
86	0xbd69b0cc	-0.057053372
87	0xbd2de130	-0.042451084
88	0x3d991012	0.07473768
89	0xbe93e6cf	-0.2888703
90	0xbb74ea13	-0.0037370964
91	0xbe50b689	-0.20382132
92	0x3e407e7a	0.18798247
93	0xbdcfbf97	-0.10143965
94	0x3e33722e	0.17524025
95	0xbedfa4a3	-0.43680295
96	0xbe44607a	-0.19177428
97	0x3edb4bff	0.42831418
98	0xbe2a69d2	-0.1664193
99	0xbea42688	-0.32060647
100	0x3df019a6	0.11723642
101	0x3d01aec1	0.0316608
102	0xbeac74d1	-0.33682874
103	0x3e5b8367	0.21436845
104	0xbdc5fa36	-0.096668646
105	0x3eab8a09	0.3350375
106	0x3ecc8c02	0.39950567
107	0xbe871ea5	-0.26390567
108	0xbb8113ee	-0.0039391434
109	0xbe420bb0	-0.18949771
110	0xbe0c804b	-0.13720815
111	0xbe34eb2e	-0.17667839
112	0xbe01f206	-0.12689981
113	0x3e51353e	0.20430467
114	0xbe93b068	-0.28845525
115	0x3e2eace4	0.1705814
116	0x3da522bd	0.080632664
117	0x3e26b109	0.16278471
118	0xbe2dc3d3	-0.16969232
119	0xbdf5201b	-0.11969014
120	0x3ea9e254	0.33180487
121	0xbd6c52bc	-0.05769609
122	0x3db95355	0.090490974

_weights f4 [123]
0	0xbcf628f1	-0.03004882
1	0xbdba4e91	-0.090970166
2	0x3ca4966c	0.020091258
3	0xbc07a0b3	-0.00827806
4	0x3e852fa9	0.26012924
5	0xbf29fcd9	-0.6640144
6	0x3e5e51fb	0.2171096
7	0x3ef8227f	0.48463818
8	0x3eff448b	0.49856982
9	0xbe9278be	-0.28607744
10	0xbe4ce0c1	-0.20007612
11	0xbe58dd95	-0.21178277
12	0x3d90c0f5	0.07068054
13	0xbe9d5e2f	-0.3073592
14	0xbdf4f18f	-0.11960136
15	0xbee7f2aa	-0.45302325
16	0x3e124283	0.14283185
17	0xbeaea937	-0.34113476
18	0xbe13283e	-0.1437082
19	0x3ed11f3f	0.4084415
20	0x3e013c60	0.12620687
21	0x3e9ff5e1	0.31242278
22	0xbb8f25c4	-0.0043685157
23	0xbe8ea7b3	-0.2786232
24	0x3e0c00dd	0.13672204
25	0xbe0ab9e9	-0.13547482
26	0xbd09cf96	-0.033645235
27	0xbe2114c8	-0.15730584
28	0x3eafdf64	0.3435012
29	0x3ed6e091	0.41968206
30	0x3e6148f3	0.22000484
31	0x3eed5086	0.46350497
32	0xbca93191	-0.020653518
33	0xbd0fbd62	-0.03509272
34	0x3e550297	0.20801769
35	0xbea4d1b0	-0.3219123
36	0x3ea2f3e1	0.3182669
37	0x3ef3cfa0	0.47619343
38	0xbeac9524	-0.33707535
39	0x3de0701d	0.10958884
40	0xbe83997e	-0.25703043
41	0x3c51b6fc	0.0127999745
42	0x3cc0deb1	0.023543688
43	0xbe3efd3d	-0.1865129
44	0xbec815cc	-0.3907913
45	0x3e60d013	0.21954374
46	0xbe7cf830	-0.24704051
47	0xbe3a49ac	-0.18192166
48	0xbead6d07	-0.33872244
49	0x3e186641	0.14882757
50	0xbe104d60	-0.14092016
51	0xbe3a254d	-0.18178292
52	0x3e2acfc5	0.1668082
53	0x3eb935bc	0.3617381
54	0xbe9993d5	-0.299956
55	0x3ee8e149	0.4548438
56	0x3ed5212c	0.4162687
57	0x3e58cb3e	0.2117128
58	0x3eacc311	0.33742574
59	0xbb54f9ad	-0.0032497451
60	0x3ea761f5	0.32691923
61	0xbec48125	-0.3837978
62	0x3c2c69c2	0.0105232615
63	0x3d68bebe	0.05682253
64	0xbdfeed83	-0.124476455
65	0x3f089668	0.533545
66	0xbdb2d816	-0.08732621
67	0xbd5880bc	-0.052857146
68	0x3ee456fb	0.4459761
69	0x3ecbe09c	0.398198
70	0x3def5ae7	0.1168726
71	0x3e3aea6a	0.18253484
72	0x3e3d83ea	0.18507352
73	0x3e346099	0.17614974
74	0xbd66dd53	-0.056363415
75	0x39f3a5fc	0.0004647224
76	0xbd9228de	-0.07136701
77	0xbed7ba59	-0.4213436
78	0xbec10ae5	-0.37703624
79	0xbd8eb72b	-0.0696853
80	0x3eb6431f	0.35598084
81	0x3ee53fff	0.44775388
82	0x3dd79d24	0.10528019
83	0x3eecccbd	0.46249953
84	0xbe741c16	-0.23838839
85	0xbe6313f0	-0.22175574
86	0xbd69b0cc	-0.057053372
87	0xbd2de130	-0.042451084
88	0x3d991012	0.07473768
89	0xbe93e6cf	-0.2888703
90	0xbb74ea13	-0.0037370964
91	0xbe50b689	-0.20382132
92	0x3e407e7a	0.18798247
93	0xbdcfbf97	-0.10143965
94	0x3e33722e	0.17524025
95	0xbedfa4a3	-0.43680295
96	0xbe44607a	-0.19177428
97	0x3edb4bff	0.42831418
98	0xbe2a69d2	-0.1664193
99	0xbea42688	-0.32060647
100	0x3df019a6	0.11723642
101	0x3d01aec1	0.0316608
102	0xbeac74d1	-0.33682874
103	0x3e5b8367	0.21436845
104	0xbdc5fa36	-0.096668646
105	0x3eab8a09	0.3350375
106	0x3ecc8c02	0.39950567
107	0xbe871ea5	-0.26390567
108	0xbb8113ee	-0.0039391434
109	0xbe420bb0	-0.18949771
110	0xbe0c804b	-0.13720815
111	0xbe34eb2e	-0.17667839
112	0xbe01f206	-0.12689981
113	0x3e51353e	0.20430467
114	0xbe93b068	-0.28845525
115	0x3e2eace4	0.1705814
116	0x3da522bd	0.080632664
117	0x3e26b109	0.16278471
118	0xbe2dc3d3	-0.16969232
119	0xbdf5201b	-0.11969014
120	0x3ea9e254	0.33180487
121	0xbd6c52bc	-0.05769609
122	0x3db95355	0.090490974
