output/train_angle_raw_20260210_130907/model/train_angle_raw_20260210_130907_hybrid_e2e.pth (torch, 840277 bytes, 20 tensors)

encoder.0.weight f4 [16, 1, 3, 3]
00000000: 6b5f c1bc 808d 0dbe bbb0 8cbe f6eb 093e
00000010: e6e7 a2bd ded5 00be b87f 7bbe 5bba 073e
00000020: 6037 5bbe 6efd 533e 2b40 06bd ae45 2ebe
00000030: 0bf7 943e 13a2 773e b73d 9bbe a010 e2bd
00000040: 9eb2 a5be d8c7 093e 203f 193d a85c a33e
00000050: 80da 2ebc 7020 b93d ce4f 653e 8cee 84be
00000060: d613 75bd bf2c a73e 5b2b f33d 937a 51be
00000070: 2303 37be 7c3e 923e abbc f53d 0ccf 963e
00000080: 7644 d8bd 7b07 913e 23a0 92be c698 5bbe
00000090: 6665 993e fb22 903e 7314 3f3e a670 703e
000000a0: e7a3 833e 1b1a 843d 08ed 97be 960b a63d
000000b0: bbf4 9c3e 7699 543d 56dd f3bc ebed 9c3c
000000c0: 40d5 4a3d 5439 823e 0ba1 4a3e 3c30 923e
000000d0: 66b4 3abe cbf3 9dbe 868e 5abe c6b9 613e
000000e0: ae44 8dbe ccfd a73e aefb 833e 607b 093e
000000f0: 5888 6cbe 2b0e a7bc 9e19 063e bb04 fdbd
00000100: 9b51 bbbd fbc3 043e 56ae eb3d fe12 a2be
00000110: e6f0 413e 78f7 403e fbfb 29be b69b 3ebd
00000120: 5048 2b3e 6e9e 4abe fcf3 8cbe 56ff 19be
00000130: 7645 6b3d 00b3 8b3c 564b 743b 1021 8ebe
00000140: 88ad 38be d001 8ebd 9b5e 8b3d de96 65be
00000150: 1647 b8bd 8be2 8b3d 4077 963c cb50 a9bd
00000160: cb90 f73d faee 8f3e 367c 0d3d a3b9 46be
00000170: 3085 ba3d dc07 88be 0e8d a43e 5fdd 983e
00000180: ebb6 eebd 8e07 9ebe 68b6 583e 50a8 80bd
00000190: 3ec4 49be e3c0 183e 0083 9f3e 0078 8c3d
000001a0: 70ce 153e 7fd1 8b3e 8e64 213e 40d3 febc
000001b0: 1edd 7a3e 7ec9 67be f647 013d 6601 c63d
000001c0: 60fb 453e b6c1 ccbd f012 95bd 5399 a7be
000001d0: 0071 ef3d 40c9 96bc eba6 f93d 7054 953e
000001e0: a0d4 eebd 6bc4 0a3e ce04 263e 53e9 40be
000001f0: 808b b9bd c070 163d dbba 3bbe 2067 63be
00000200: 96f9 9c3e 0476 913e ab58 0dbd eb5a 063d
00000210: c0dc e7bd e685 e8bd 0f0a 8e3e 52af a43e
00000220: fe92 85be 5097 cf3d a642 a23d cecf a3be
00000230: 7e32 3a3e 9057 cb3d 1b58 ddbd 6b30 503e
-0.02360507 -0.13823509 -0.27478585 0.13468918 -0.07954387 -0.12581584 -0.2456044 0.13254683
-0.21407843 0.20702145 -0.03277604 -0.17018768 0.2909473 0.2418292 -0.30320522 -0.11038327
-0.32362837 0.1345514 0.037413716 0.3190663 -0.010672212 0.0903939 0.22393724 -0.25963247
-0.05983337 0.32651326 0.11873504 -0.20456915 -0.1787229 0.28563297 0.11998876 0.2945484
-0.10559933 0.2832602 -0.286378 -0.21444997 0.29960173 0.28151688 0.18660145 0.23480472
0.25710985 0.06450292 -0.29673028 0.081076786 0.30655465 0.051904164 -0.029768627 0.019156417
0.049519777 0.25434363 0.19787996 0.28552425 -0.18232879 -0.30850062 -0.21343431 0.22043523
-0.2759146 0.3281082 0.25777954 0.1342597 -0.23098886 -0.020392498 0.1309571 -0.12354418
-0.091464244 0.12965386 0.11507861 -0.31655115 0.18939552 0.18844402 -0.16600029 -0.046535216
0.16726804 -0.19786999 -0.27529895 -0.15038809 0.05743929 0.017053127 0.003727635 -0.277596
-0.18034947 -0.069339395 0.06805154 -0.22420833 -0.089979336 0.06830319 0.01836741 -0.08267363
0.12088164 0.28112012 0.034542285 -0.19406752 0.09107435 -0.26568496 0.32138866 0.29856393
-0.116559826 -0.3086514 0.21163332 -0.06282103 -0.19703767 0.1491733 0.31154633 0.06858826
0.14629531 0.2730827 0.15761015 -0.031106591 0.24498412 -0.22635457 0.031562768 0.096682355
0.19334173 -0.09997885 -0.07279003 -0.32734165 0.11691475 -0.01840651 0.1219004 0.29165983
-0.11661649 0.1355149 0.1621277 -0.18839006 -0.09059811 0.03672862 -0.18332998 -0.22207308
0.3065917 0.2841035 -0.03450839 0.03280155 -0.113214016 -0.11353664 0.2774205 0.3216501
-0.2608871 0.101362824 0.079228684 -0.3199448 0.18183324 0.099288106 -0.108078204 0.2033097

encoder.0.bias f4 [16]
00000000: b0f4 a7be 88ff a1be de55 263e 237f 1d3e
00000010: 364f 22be 9f0b 8e3e 0662 83bd 3804 373e
00000020: 4b8d eebd fe0a 45be 7075 48be 5cef 88be
00000030: c0f4 f6bd c6cc 63be 2b12 a0bd 9c6d 9dbe
-0.3280387 -0.31640267 0.16243693 0.1538053 -0.15850529 0.2774324 -0.06415181 0.17872703
-0.11648043 -0.19242474 -0.19576049 -0.26745117 -0.12058401 -0.22246084 -0.07815965 -0.30747688

encoder.1.weight f4 [16]
00000000: 0000 803f 0000 803f 0000 803f 0000 803f
00000010: 0000 803f 0000 803f 0000 803f 0000 803f
00000020: 0000 803f 0000 803f 0000 803f 0000 803f
00000030: 0000 803f 0000 803f 0000 803f 0000 803f
1.0 1.0 1.0 1.0 1.0 1.0 1.0 1.0
1.0 1.0 1.0 1.0 1.0 1.0 1.0 1.0

encoder.1.bias f4 [16]
00000000: 0000 0000 0000 0000 0000 0000 0000 0000
00000010: 0000 0000 0000 0000 0000 0000 0000 0000
00000020: 0000 0000 0000 0000 0000 0000 0000 0000
00000030: 0000 0000 0000 0000 0000 0000 0000 0000
0.0 0.0 0.0 0.0 0.0 0.0 0.0 0.0
0.0 0.0 0.0 0.0 0.0 0.0 0.0 0.0

encoder.1.running_mean f4 [16]
00000000: 2ab8 1ebf 6040 aebe 821d e03e df64 1b3e
00000010: 8c9a ab3e c691 ca3e 93e7 5b3d 24e2 0b3e
00000020: 20f0 d1be 1f35 22be a059 2ebe 0803 b03c
00000030: fbe0 0bbe 6a0f ddbd 49e0 ad3b e8c1 4fbe
-0.6199976 -0.3403349 0.43772513 0.15175198 0.33516347 0.3956434 0.053687643 0.13660485
-0.41003513 -0.15840577 -0.17026377 0.02148582 -0.13660042 -0.107939556 0.005306278 -0.20288813

encoder.1.running_var f4 [16]
00000000: 849e 903d e31d 663c af92 943d cb32 c33b
00000010: 1a7a 533e f3e7 9c3c c309 9d3c fb5b 0f3c
00000020: c074 943d 2c84 f13b 8aeb a53c 8eb2 8c3d
00000030: 56ee b73b 974b e13c 4164 833c 3952 963c
0.070614845 0.0140452115 0.0725454 0.0059569827 0.20652047 0.01915357 0.019169694 0.008749957
0.07248831 0.0073704924 0.020253915 0.06869994 0.0056131287 0.027501864 0.016039016 0.018349754

encoder.3.weight f4 [32, 16, 3, 3]
00000000: e268 8fbd 7099 1bbd 9053 cb3c 6616 6bbd
00000010: 63c4 113d 0088 4cbb 9a05 823d 0611 943d
00000020: ab01 253b ec19 933d 861e a3bd 5685 523c
00000030: 8bf3 0a3d 7063 643d ab46 833b 96f8 9f3b
00000040: 737e 3a3d 235e 883d 00d0 c239 a085 a73d
00000050: 94cd 94bd b855 a3bd f607 9cbd 9a83 933d
00000060: 7b2c 54bd eb34 ce3c 704d 70bd 4fba 8dbd
00000070: d742 a03d c034 03bd 7651 2b3c eba1 86bd
00000080: a389 5d3d e092 073c eb8c 15bd 10ff cbbc
00000090: f680 6ebd 8ba3 2f3c 93ac a03d d61a d53b
000000a0: 33b1 193d c6dd 41bd 43ba 70bd fb2a f9bc
000000b0: 23c2 44bd fb32 c2bc 2b93 b8bb 4b3a 403c
000000c0: b729 8a3d cbad 4dbd 3076 133d 2013 35bd
000000d0: 1319 53bd ea32 96bd ec17 89bd 0b40 0d3d
000000e0: 34e2 903d 4842 a2bd 2be3 54bc 22ed a7bd
000000f0: 003c fd3c 4b3c e3bc c0f6 613c 40f0 013c
00000100: 8840 1fbd 567a 39bc 18cf 293d ae28 0cbd
00000110: 1034 e4bc 86ef 803d d795 80bd 80e2 b4bb
00000120: 10d4 b1bc 7b84 70bd 6053 5f3c 56a6 493d
00000130: 9e1d 053d 634a 833d 00e0 7db8 269e 33bd
00000140: 0bee 6fbc 480b 173d 80e6 a9bb 76eb 43bc
00000150: 0838 083d 3646 953d 1679 583d 002e d7bb
00000160: 878e a5bd 0a35 8b3d 0b4f 26bc 2be0 5cbc
00000170: b30f 5cbd 564b 30bd 1b26 21bd 861a 2c3d
00000180: 1ed9 343d 6614 f5bc bbe8 91bd b79f a6bd
00000190: 96b3 efbc 0b37 dc3c 97e4 9ebd b2a6 853d
000001a0: abb1 613d ff10 a1bd d301 5c3d 6e22 9abd
000001b0: fe78 77bd e05a f1bc 674f 9fbd 8bca da3c
000001c0: 7bfa 7a3d 00aa 2c3c 9669 db3c c4cf 92bd
000001d0: 561a d1ba 489d 74bd e0de 05bc 605b 6cbc
000001e0: d757 9dbd 960f 70bd 0cfd 9bbd b2cf a13d
000001f0: abd4 17bd 6097 69bd 8672 193d 8e66 69bd
00000200: 560d 67b9 9699 05bc e89c 4f3d 90c0 8ebc
00000210: 977d 8fbd 44e3 88bd a693 c63c 731a 883d
00000220: 1b0b 533d f03c 753d 8e90 3dbd 4638 cebc
00000230: 5675 03bd 961f e4bb 9b0c 483d abd5 c23c
00000240: 73b9 04bd 78c6 3abd 4b31 363c b385 903d
00000250: 2022 55bc 3663 df3c 1b73 f4bc 7304 833d
00000260: f7ed a7bd 28d7 26bd 6023 05bd 9e14 39bd
00000270: 0f53 a0bd 5b33 9a3c 0620 37bd e0df 6d3c
00000280: 76cd 83bc 367b 2fbd c3f4 80bd 5310 7cbd
00000290: ee25 633d 604f d63c 7c95 933d d618 6a3d
000002a0: 90eb 963c 6857 75bd 8629 48bd 1b78 083d
000002b0: e6b7 85bd f673 6f3c ffd0 82bd b07a 90bc
000002c0: c8e0 0f3d 3080 ef3c 8015 79bc d7d7 81bd
000002d0: 6b34 613d 3cd1 9d3d 00fd a63c e088 cf3c
000002e0: 803e 463b 963a fb3c 5f5e 87bd 4ec8 9f3d
000002f0: 5e1e 4abd 0ec2 15bd 93ff 4c3d a808 55bd
00000300: 1611 3e3c 1b7e 143d c0f4 98bb f034 e5bc
00000310: ab8f 673c f0e2 943c 00a9 513d 903a cc3c
00000320: 4088 cbbb c008 de3b 0006 8f3d 78f6 0f3d
00000330: d664 e73c 76cd 983d 56c3 dc3b abaa 1b38
00000340: ab18 a3bc fb92 463d 13a5 2fbd 8bda 513c
00000350: 5378 1b3d 3eeb 2ebd 56b0 bfba 1669 a3bc
00000360: c3f3 40bd e3c2 7dbd f0f2 fbbc b657 cb3c
00000370: ce3e 4a3d 63ac a9bd c6ee 3ebd 2658 933c
00000380: 36ca 36bd 80ca 1c3c 969f 4d3c db6b b8bc
00000390: 10ea 4cbd 806b 31bc f6da 48bd 1b82 f83c
000003a0: 161a a13b a31f 5f3d 3cd8 a1bd b686 283c
000003b0: 1693 663d 80da 10bd 7c66 8bbd 00dd a63d
000003c0: b885 a7bd a661 4d3d ebaa 4e3c 760e 443d
000003d0: 48ec 0a3d 343d 923d d07f 7bbd e413 8bbd
000003e0: f66b 083c 648c a13d 76ff 4cbd 7092 6d3d
000003f0: 14af 8b3d d4ab 9ebd c335 4f3d 8b06 3a3d
-0.07002427 -0.037988126 0.02482012 -0.057394408 0.03558768 -0.0031208992 0.06348725 0.072298095
0.0025177996 0.071826786 -0.07964806 0.012849173 0.033923667 0.055758893 0.004006227 0.0048819287
0.045530748 0.0665858 0.00037157536 0.08179784 -0.072657734 -0.07975334 -0.07618706 0.072028354
-0.051800232 0.025171718 -0.0586676 -0.06920301 0.07825249 -0.03203273 0.0104564335 -0.06573852
0.05408634 0.008274764 -0.036511343 -0.024901897 -0.058228455 0.010720144 0.07845416 0.0065034432
0.037522506 -0.04733064 -0.058771383 -0.030416002 -0.048036706 -0.02370595 -0.005632778 0.011732648
0.06746238 -0.05021457 0.036001384 -0.044207692 -0.051537585 -0.0733393 -0.06694016 0.034484904
0.07074395 -0.079227984 -0.012993614 -0.08199526 0.0309124 -0.02773871 0.01379174 0.007930815
-0.0388799 -0.011320671 0.041457266 -0.034218483 -0.027856857 0.062956855 -0.0627858 -0.005520165
-0.021707565 -0.058720093 0.013630718 0.049230896 0.03249895 0.064106725 -6.0528517e-05 -0.043851994
-0.014644156 0.036875993 -0.0051849484 -0.011957994 0.03325656 0.07288782 0.05284985 -0.006566763
-0.080838256 0.06797226 -0.010150681 -0.01348118 -0.05372591 -0.043040596 -0.03934298 0.042017482
0.04415237 -0.029916953 -0.07124468 -0.08135932 -0.029260438 0.026881715 -0.07758444 0.06525935
0.055101078 -0.0786457 0.053712677 -0.07526098 -0.06041812 -0.029462278 -0.07778817 0.026707908
0.061274033 0.010538578 0.026783746 -0.071685344 -0.0015953283 -0.059720308 -0.008170813 -0.014426082
-0.0768277 -0.058608614 -0.07616624 0.07900943 -0.03706805 -0.057029128 0.037462734 -0.05698257
-0.00022034845 -0.0081542935 0.050686747 -0.017425805 -0.07006376 -0.066839725 0.024240326 0.0664567
0.051524263 0.059872568 -0.046280436 -0.025173318 -0.032094322 -0.006961773 0.048840147 0.023783525
-0.03240342 -0.04559943 0.011120151 0.07056751 -0.013008624 0.027268987 -0.029840043 0.06397333
-0.08199685 -0.040732533 -0.03250444 -0.045185678 -0.07828342 0.018823316 -0.044708274 0.014518708
-0.016089182 -0.042842112 -0.062966846 -0.061539005 0.055456094 0.026160896 0.07206246 0.05715259
0.018422872 -0.05989781 -0.048867725 0.033317667 -0.065292165 0.01461505 -0.06387519 -0.017636627
0.035126477 0.02923593 -0.01520288 -0.06339996 0.05498163 0.07705924 0.020384312 0.025333822
0.0030249655 0.030667584 -0.06609797 0.07801877 -0.049345367 -0.036562018 0.050048422 -0.05201021
0.011600753 0.036253076 -0.0046678483 -0.027979344 0.014133374 0.018174618 0.05118656 0.024930269
-0.0062113106 0.0067759454 0.06983566 0.03514716 0.028246325 0.074610636 0.006737153 3.7113827e-05
-0.019909224 0.048480015 -0.042882036 0.012808452 0.037956547 -0.042704813 -0.0014624696 -0.01994757
-0.04710747 -0.061953437 -0.03075549 0.024822097 0.0493763 -0.08284833 -0.04661443 0.017986368
-0.044626437 0.009569764 0.012550255 -0.022512367 -0.050027907 -0.010828853 -0.049036942 0.030335477
0.0049164398 0.05447353 -0.079025716 0.010286024 0.056292616 -0.035364628 -0.06806657 0.08147621
-0.08179802 0.050141953 0.012613992 0.047865354 0.03391674 0.0714058 -0.06140119 -0.06790903
0.008326521 0.078881055 -0.050048314 0.05800098 0.06820503 -0.07747617 0.05058838 0.045416396

encoder.3.bias f4 [32]
00000000: d056 97bd 5631 a43b ae0e 623d 0032 1b3b
00000010: ebe9 9a3c 6b88 54bc a3e5 823d a8dd 263d
00000020: 5013 453d 38fe 70bd 0b65 ecbc 6062 c1bc
00000030: b666 6e3c 7b9e 12bd 96af 38bd ee2f 76bd
00000040: be9a 48bd 9b2b febc 2b07 803d 6bb9 5c3d
00000050: 8092 95bd ab00 b13a 6062 11bd 9698 483c
00000060: e803 a13d 18f1 9a3d 40de 1abd ee7d 473d
00000070: cbcb 26bd d64c 0c3d 638e 533d 7c60 943d
-0.07389605 0.005010764 0.05518978 0.0023680925 0.018910369 -0.012971978 0.06391456 0.04073873
0.04811412 -0.058836192 -0.028856775 -0.02360648 0.014550855 -0.03579567 -0.045089327 -0.060104303
-0.0489757 -0.031026652 0.06251367 0.053887766 -0.07303333 0.0013504227 -0.03549421 0.012243411
0.07862073 0.07565516 -0.03780961 0.04870408 -0.040721696 0.034252964 0.051649462 0.072449654

encoder.4.weight f4 [32]
00000000: 0000 803f 0000 803f 0000 803f 0000 803f
00000010: 0000 803f 0000 803f 0000 803f 0000 803f
00000020: 0000 803f 0000 803f 0000 803f 0000 803f
00000030: 0000 803f 0000 803f 0000 803f 0000 803f
00000040: 0000 803f 0000 803f 0000 803f 0000 803f
00000050: 0000 803f 0000 803f 0000 803f 0000 803f
00000060: 0000 803f 0000 803f 0000 803f 0000 803f
00000070: 0000 803f 0000 803f 0000 803f 0000 803f
1.0 1.0 1.0 1.0 1.0 1.0 1.0 1.0
1.0 1.0 1.0 1.0 1.0 1.0 1.0 1.0
1.0 1.0 1.0 1.0 1.0 1.0 1.0 1.0
1.0 1.0 1.0 1.0 1.0 1.0 1.0 1.0

encoder.4.bias f4 [32]
00000000: 0000 0000 0000 0000 0000 0000 0000 0000
00000010: 0000 0000 0000 0000 0000 0000 0000 0000
00000020: 0000 0000 0000 0000 0000 0000 0000 0000
00000030: 0000 0000 0000 0000 0000 0000 0000 0000
00000040: 0000 0000 0000 0000 0000 0000 0000 0000
00000050: 0000 0000 0000 0000 0000 0000 0000 0000
00000060: 0000 0000 0000 0000 0000 0000 0000 0000
00000070: 0000 0000 0000 0000 0000 0000 0000 0000
0.0 0.0 0.0 0.0 0.0 0.0 0.0 0.0
0.0 0.0 0.0 0.0 0.0 0.0 0.0 0.0
0.0 0.0 0.0 0.0 0.0 0.0 0.0 0.0
0.0 0.0 0.0 0.0 0.0 0.0 0.0 0.0

encoder.4.running_mean f4 [32]
00000000: d2c4 d2be c459 843d 4621 773d 0735 c3bd
00000010: a2a3 1a3e e377 183d cfa5 243e 49da 293e
00000020: 237c 793e 3a71 2ebe 3bde 063e e4b2 363e
00000030: 4b2b 72bb 2be3 673e bb10 ecbd 9d27 993c
00000040: 5fb4 6a3e 627a b73c 5991 9a3b cb74 bcbd
00000050: 852a 24be fe89 a93e 2f01 333b ecef 18bd
00000060: 293f 273e 0755 273e 6db2 5cbe 5962 7d3e
00000070: c71c 1dbe ae7d 8c3c 73b4 60bd 78c4 a7bd
-0.41165787 0.06462434 0.060334466 -0.095315985 0.15101483 0.037223708 0.16078876 0.16587175
0.2436376 -0.1703538 0.13170712 0.17841679 -0.0036952074 0.22645251 -0.115266286 0.018695647
0.22920369 0.022397224 0.004717034 -0.09201964 -0.16031845 0.33113092 0.0027313938 -0.037338182
0.16332687 0.16341029 -0.21552439 0.24744548 -0.15343009 0.017149772 -0.05485959 -0.0819177

encoder.4.running_var f4 [32]
00000000: b3d6 7a3e e5d4 7a3e 94a3 863d 47c4 023e
00000010: b2f1 ab3d e9b8 9b3d 9178 e43d 76dd bf3d
00000020: d60a 993d a778 293e ba0b c73d 8ae4 c73d
00000030: 6913 043e dc7b e13d 41c9 e83d 2ef5 a23d
00000040: dfad 403e e01c f03d c34a cf3d 3810 983d
00000050: a172 213e eeb6 ce3d 8f99 a83d ede1 cc3d
00000060: 6851 7e3d aa07 903e 43bb fb3d 48c4 193e
00000070: d69f 023e e4e7 b73d c227 d83d e837 ae3d
0.24495964 0.24495275 0.06574169 0.12770186 0.08395709 0.07603628 0.11155809 0.09368412
0.0747277 0.16549931 0.097190335 0.09760387 0.1289803 0.110099524 0.11366511 0.079569206
0.18816327 0.117242575 0.101216815 0.074249685 0.15766384 0.10093485 0.08232414 0.100040294
0.062089354 0.28130847 0.12291577 0.15016282 0.12756285 0.089797765 0.10554458 0.08506757

encoder.7.weight f4 [128, 1568]
00000000: 6ce8 183c 52a5 563b 48e7 8eba 17d7 643c
00000010: de39 b93c a0c4 f2ba c894 bfbc 7329 2cbc
00000020: 4713 8d3a 0a60 61bc 21d7 d2bb 86c3 bd3c
00000030: 9ef5 05bc a375 cbbc f617 623c 26ea bebc
00000040: b5d2 96bb 7319 a1bb 5fc1 81bc 5ddd 35bc
00000050: bb36 b23c 611b f0bb 8ec4 aabc 5e13 363c
00000060: dcd5 c6bc abe0 243c 78c9 073c 6067 aa3c
00000070: b66b 1cbc d04a 86bc 49c5 76bc d9c3 6fbb
00000080: 6ded ebbb 98d7 f13b 2ef2 f4bb 44c8 a53c
00000090: fbe9 283c ec41 243c 4672 cebb d8fd 2cbb
000000a0: 532b 4cbc 35d6 22bc 1c4c 023c 0ffe 1b3c
000000b0: 414a b5bc 74df 99bb c892 a1bc 1d61 3b3c
000000c0: 1006 0abc b424 b3bc 7a35 a8bc c12e 6dbb
000000d0: fa8a d73b 494f bebc aa33 6e3c dd5b 273c
000000e0: dbc3 9a3c 5811 82bc 1bd2 c43b cfac 4fbc
000000f0: 7500 923c 26f5 c8bb 0514 9b3c 6736 21bc
00000100: 6767 043c d214 bf3c c5b6 bdbb 8c02 063c
00000110: 9018 51bc a47b 67bb bc67 523c 3d01 c4bc
00000120: 1127 9ebb 0728 593b ea32 fcbb 1882 60bc
00000130: f031 b93c 050f 203a 20ee caba c7c2 873c
00000140: d8b1 5c3c f972 4bbc 2f12 71bc 2c7c 9e3c
00000150: c65e e73b 4ba3 b43c 5cbb b53b 8cf9 3abc
00000160: 0119 81bc 3e3b a13c a5e9 9fbc cfcf 3e3c
00000170: 1c96 96bc 2557 3fbc b29e 873c 4186 70ba
00000180: 70a9 96bc 0fa4 a8bc 2465 b6bc ff38 9e3b
00000190: da03 873c df5e 9d3c f8ab 153c b841 beba
000001a0: a0e5 ddba ff67 a93b 911b 2ebc 8cae b9bc
000001b0: f3ff 41b8 6637 bdbc 9f33 10bc 59d5 ce3c
000001c0: 18ad 923c 07d3 8e3c a6ab 1ebb 8d9a c53c
000001d0: be6a 88bb 952c 87bc f796 4fbc 77d8 283c
000001e0: a76c 2a3c 031c efbb 8b1c 7bbc 926d 8b3c
000001f0: 1856 04bb 92ce 5c3c b545 4bbb fe72 833c
00000200: 9193 07bc 89be cf3b 3dbb ee3b 27b0 203c
00000210: faad c33c 9429 983b cd96 b13c 39d5 acbc
00000220: 30d2 293b 7749 23bc da7a b73c d028 2ebc
00000230: 915b 003c 776c 2abc e825 293c 7ef3 623c
00000240: 73e7 7e3c 6cb2 80bc 8456 8d3c 7d95 30bc
00000250: 7ba8 b8bc 26ae a13c e5a0 ccba 6778 083c
00000260: fb28 95b9 9f76 d73b 679f 7d3c 4895 023b
00000270: 33fc c9bc d030 ab3c d985 033b 6b5d 643c
00000280: 43d0 953b c7d8 85bc 5e47 9d3b 3847 283b
00000290: d8f9 383c 8dab aebc f274 4abc 2bb4 933c
000002a0: 4df4 ff3b 7ab2 623c dd99 7cbc 4b2a 50bc
000002b0: 8f8f 15bc 9ab6 d23b df79 79bc 05d0 ab3c
000002c0: 1ea9 8cbc 448a 1cbb d1e1 5bbc 0aac 8c3a
000002d0: 6dc5 95bb f75f e6bb 1624 663b 7ed6 c7bc
000002e0: 857c dd3b e133 32bc 83a2 27b9 b6b1 e63b
000002f0: d9de 6e3c ffcd e63b 7456 e2bb 622d a03c
00000300: d774 89bc 5981 92bc 5ab2 f9bb 4a73 cabc
00000310: b627 c4bc a317 423b 2505 c43a d761 82bb
00000320: 81cc 183c d628 a83c 7745 a8bc 0b99 1bbc
00000330: c7e6 ca3b f87f cdbc f50a 743b 0589 5d3c
00000340: 48a4 c1bc 8241 003c 5c69 cbbc 40c4 5ebc
00000350: 49c3 abbc 2881 9d3c 7245 9fbc 63a9 c83a
00000360: 9947 f1b9 7f36 423c 77e1 f3bb 6542 f13b
00000370: d661 c0bc c008 41bc e9b2 00bc a9f7 68bb
00000380: cd17 053c 04df cebc 7180 a83c 0055 50bc
00000390: 4e44 e8ba 789f b63c cbb8 b03a 0f0e 08b9
000003a0: 9e01 b13c 62a8 2dbc 09f5 863b 036d 953c
000003b0: 8d7b e23b 55c0 c23c 12c2 b4bc 1233 bd3b
000003c0: 1121 ccbc 1bcf b6bb b202 453c 784f 8a3c
000003d0: a1ed 33bc f388 8f3c bd7a 45bc febf 6bbc
000003e0: 4446 6dbc b31c 42bc c9b0 a3bc 2cbd ab3b
000003f0: 6625 a23c fa5e 4fbc 5d84 813b 15a3 56bc
0.009332757 0.0032752347 -0.0010902667 0.013967297 0.022610601 -0.0018521734 -0.023386374 -0.010507929
0.0010763191 -0.013755808 -0.006434337 0.023164522 -0.0081762355 -0.024836367 0.013799658 -0.02330501
-0.004602755 -0.004916364 -0.015839277 -0.01110014 0.021754613 -0.0073274826 -0.020845678 0.011113016
-0.024271898 0.010063331 0.00828778 0.020801246 -0.009547165 -0.016393095 -0.015061685 -0.003658524
-0.007199934 0.007380437 -0.007475159 0.020237096 0.010309692 0.010025483 -0.0063002435 -0.002639642
-0.012461501 -0.009938766 0.007952716 0.0095210215 -0.022130134 -0.004695827 -0.019723311 0.011436728
-0.008424297 -0.021868087 -0.020533312 -0.0036191198 0.0065778466 -0.023231165 0.014538685 0.010214773
0.01889222 -0.01587741 0.006006492 -0.012675478 0.017822484 -0.0061327396 0.018930444 -0.009839631
0.008081294 0.023325358 -0.00578961 0.008179318 -0.012762204 -0.0035321498 0.012842115 -0.023926372
-0.0048264344 0.003313543 -0.007696499 -0.013702892 0.02260682 0.0006105754 -0.0015482344 0.01657237
0.013470136 -0.012417548 -0.014713808 0.01934632 0.0070608584 0.02205052 0.0055460166 -0.011412036
-0.015758993 0.01968157 -0.01952059 0.011646225 -0.018382125 -0.011678492 0.016555164 -0.0009175279
-0.018391341 -0.020586042 -0.022265024 0.004828572 0.016481329 0.019210277 0.009135239 -0.0014515435
-0.0016929395 0.005169868 -0.0106266895 -0.022666238 -4.6253157e-05 -0.023097705 -0.00880137 0.025248216
0.017904803 0.01743461 -0.0024211197 0.024121547 -0.0041631153 -0.01650075 -0.01267027 0.0103055155
0.010401881 -0.0072970404 -0.015326629 0.01702002 -0.0020192917 0.013476985 -0.003101689 0.016046043
-0.008274929 0.006339852 0.007285504 0.009807623 0.02388667 0.0046436284 0.021678353 -0.021097766
0.0025912635 -0.009966246 0.022397447 -0.010629848 0.007834331 -0.010401837 0.010323979 0.013851998
0.0155581115 -0.015710078 0.017253168 -0.010777828 -0.022541275 0.01973636 -0.0015611915 0.008329487
-0.00028450027 0.00657542 0.015479899 0.0019925404 -0.02465639 0.020897299 0.0020068793 0.013938288
0.004571946 -0.016338719 0.0047997674 0.0025677215 0.011290036 -0.021322036 -0.0123569835 0.018030247
0.0078111053 0.013836497 -0.015417543 -0.012705396 -0.009128465 0.006430459 -0.01522681 0.020973215
-0.017170485 -0.0023886124 -0.013420538 0.0010732424 -0.004570654 -0.007030483 0.0035116724 -0.02439427
0.0067592287 -0.010876627 -0.00015986901 0.0070402278 0.014579498 0.0070435996 -0.0069072787 0.01955289
-0.016779346 -0.017883943 -0.007620138 -0.024713177 -0.023944717 0.002961614 0.0014955146 -0.0039789486
0.009326101 0.020527285 -0.020540936 -0.0094969375 0.0061920616 -0.025085434 0.0037237976 0.0135214375
-0.023637906 0.007828118 -0.024830513 -0.013596594 -0.020967143 0.019226626 -0.019442294 0.001530927
-0.00046020446 0.011853813 -0.007442649 0.007362651 -0.023484152 -0.011781871 -0.0078551555 -0.0035548008
0.00812335 -0.025252827 0.020569058 -0.012715578 -0.0017720552 0.022292838 0.0013482807 -0.00012975208
0.021607216 -0.010599228 0.004118566 0.018240457 0.006911701 0.023773352 -0.022065196 0.0057739103
-0.024918111 -0.005578888 0.012024568 0.016883597 -0.010981948 0.017521357 -0.012053189 -0.014389036
-0.014482085 -0.011847663 -0.019981759 0.005241057 0.019793224 -0.0126569215 0.0039525465 -0.013100405

encoder.7.bias f4 [128]
00000000: da94 e3ba e6fa c93c c114 bd3c a577 14bb
00000010: 43ed b4bb 660e 703c 9911 50bc ec6a c53c
00000020: 958d f9bb d2b6 4fbc 74bb 75ba 9046 6abc
00000030: 36f7 343c dc17 cd3c c095 b43c 4432 82bc
00000040: 60fb 833c eb6c e63b 9dab df3b 065a 2d3a
00000050: 4e04 24bb 2bf9 963c 707c b2bc e73b a9bc
00000060: 88cf 373b f64f a63b 5db7 bb3c 5897 93bb
00000070: 2fa5 6c3c d9b1 793c 776e ccbc 2818 223b
00000080: cf0a 2abb 3e55 a53b fb63 1cb9 3ffd bb3c
00000090: 0c7f 2bba e124 833c 7ee7 81bc cb0f fa39
000000a0: e71b 12bc 7c99 5d3c 2d6e 8f3c 8efb 84bb
000000b0: f7ca 7ebb af76 c0bc 3433 babc a731 40bc
000000c0: 419f 81bc d34c 813c 7588 c9bc 804c ef38
000000d0: 9601 aebc 6c4f a9bb 492e ca3c 3279 8d3c
000000e0: f8ad 02bc 3bec 853c 56a5 113a 0eb3 0ebc
000000f0: a43f 283c 6abb cabc 159f c63c da9e b0bc
00000100: e6f2 a93c 7b22 803a 8a44 9d3c baf4 4b3c
00000110: f781 2b3c fb43 a1bc 2af4 43bc 3b19 b43b
00000120: 6712 c2bc 0fdf 40bc bab5 84bc e24c d5bb
00000130: cc0f f83b 3eb2 65bc a25d e939 7c92 b8bc
00000140: 8c5c 893c 7fd6 9f3c ac8d 12bc 8329 9fbc
00000150: 9f1f fcbb 7d74 dd3b 0085 473b 694d 43bc
00000160: a7e9 aabc 6d39 a6bc 597c 923b c246 19bc
00000170: dbe3 2dbb 8d9f 4ebc 485b ba3a df21 3ebc
00000180: 572b 76bc 6931 94bc 525a f7bb 4f37 993c
00000190: efca 96bc 02e2 98bc 242c 613c f238 1e3c
000001a0: a0c3 a43c 7510 b7bc f66d 9e3c f419 943b
000001b0: 3bbd c33c 7194 11bc b4fe a7bc 9e58 523c
000001c0: 7b4a 1fbc 3354 c53c 355b 95bc ea52 51bc
000001d0: c73f 41bc fe76 833c 5c08 043c e712 a63c
000001e0: ad0c cfbb c484 2c3c c263 c5bc fd17 bd3c
000001f0: f71c 2f3c 5e0e c6bc 5c73 87bc 6c24 be3a
-0.0017363087 0.02465577 0.023081185 -0.0022654322 -0.005521448 0.01465187 -0.012699508 0.024098836
-0.007615755 -0.012677865 -0.0009373941 -0.01429905 0.011045268 0.025035791 0.022044063 -0.01589311
0.016111076 0.007032027 0.006825878 0.0006612841 -0.002502698 0.01842936 -0.021787852 -0.020658446
0.0028047282 0.00507545 0.022914583 -0.0045041256 0.01444368 0.015240156 -0.024955017 0.0024733637
-0.0025946384 0.005045562 -0.00014914565 0.022947906 -0.0006542064 0.016008796 -0.015857454 0.00047695482
-0.008917785 0.013525363 0.01750859 -0.004058308 -0.00388783 -0.023494093 -0.022729494 -0.011730588
-0.015823008 0.015783703 -0.0246012 0.00011410657 -0.02124099 -0.0051669385 0.024680274 0.017269704
-0.007976048 0.016347995 0.0005555948 -0.008709682 0.010269079 -0.02474757 0.024245778 -0.021560121
0.020745706 0.0009775901 0.019197721 0.012448484 0.010467998 -0.019685736 -0.011960069 0.005496172
-0.023690416 -0.011771931 -0.016199935 -0.0065094093 0.0075702425 -0.014019547 0.00044510985 -0.022530787
0.016767763 0.01951146 -0.00894491 -0.019428974 -0.007694199 0.0067582713 0.0030444264 -0.0119203115
-0.020863367 -0.020291055 0.00447039 -0.009355249 -0.0026533518 -0.012611282 0.0014217878 -0.011604755
-0.015024981 -0.018089967 -0.007548609 0.018703131 -0.018407313 -0.018662456 0.013743434 0.0096571315
0.020112813 -0.022346715 0.019339543 0.0045196954 0.023893943 -0.008885489 -0.020507194 0.012838511
-0.009722347 0.024088 -0.018231967 -0.012776116 -0.011794991 0.01604795 0.008058634 0.020272685
-0.0063186497 0.010529701 -0.02409542 0.023082728 0.010688058 -0.024176773 -0.0165345 0.0014506704

encoder.9.weight f4 [16, 128]
00000000: 86ce b0bc d681 a6bd d4c1 1dbc 92f8 48bd
00000010: b323 153c cc2a 5a3d 6247 aabd 4fb5 97bd
00000020: b2af 973c 5bf6 293c c610 4ebd 00f7 a33d
00000030: 6b25 55bd 4804 4f3c 09e5 8d3d fd77 913d
00000040: 8c24 353d 37ea 40bd 1e8c 463c b2fa 413d
00000050: 2ee0 08bd 4d41 9f3c a508 88bd 831d a5bd
00000060: 4324 a03d b0c9 3ebd d990 8c3d db43 23bd
00000070: b712 ae3d ce7d d139 c96b a13d 6ad1 953d
00000080: 73d5 bfbc 7be0 3e3c 4238 f43c dc3e 1d3d
00000090: d04d adbd 7935 353c 89a1 623d 22a3 5dbb
000000a0: fc9a 2dbc 68ca 4fbc 64b3 75bd 5d8e 993b
000000b0: 1913 bcbc baba f3bc a502 6b3d 2e38 e63c
000000c0: 5ddf a23d 88ee a53c 2578 86bd 67f4 403c
000000d0: 0d73 7ebd 3957 8e3d 3ea5 3d3c c818 0d3b
000000e0: ff5f 2b3d d5f2 853c b888 2cb7 2432 783c
000000f0: aa52 db3c e557 dcbc 99a7 04bd 5e8d adbd
00000100: aa22 893d 3dea 883d 253d 633c af7d 73bd
00000110: 9572 79bd 7101 9b3d d7d3 753d 2048 50bd
00000120: f31c b13d b2b5 43bd 0770 d33c 78e9 15bd
00000130: db63 1a3d b6ed 7eba 3951 b23c 1a17 59bd
00000140: 4db9 b3bd 85c1 973d 383f a3bd a339 803d
00000150: f5f7 923c c4ea 343d a111 9f3d 3945 aebb
00000160: 49fd 963c 622a dbbc 37cc d83c b1c9 3b3d
00000170: 536c 0a3d 003d 193c d2a2 20bd ffaf 96bd
00000180: 39e7 9fbd 59b6 c53a d631 8fbd d702 3bbd
00000190: 42be 52bc 7ef4 84bd 5b7d adbd dbe5 af3d
000001a0: f503 9abd 4281 15bc 79a0 a9bd 332f 26bd
000001b0: 6599 573d 80c6 1b3d d883 a6bd d6ed 30bd
000001c0: 13c9 a5bd 0cef 223d 0902 7cbc 1793 3f3d
000001d0: 06cb 8b3d aeb8 7ebd e60e 8f3d 7f37 ccbc
000001e0: b681 bd3b c153 b4bd da62 5dbd 3cbc f23c
000001f0: 0d0f b3bd e978 7bbd a9e2 8f3d 50ef 98bd
00000200: 924f db3a c1fa 07bd b061 a5bd c44b ba3c
00000210: 023f ffbc f8cf 4c3d 75d2 623d 1960 db3c
00000220: 3c1a 92bb 4db1 71bd e0fb 613d b352 a6bb
00000230: e5a6 e8bb bdd5 19bc 372e 4c3b 5a62 0bbd
00000240: 886d a33d 9788 59bc bc79 56bc 3231 18bd
00000250: f176 0a3d 72a4 b1bc b302 da3c e9ab a1bc
00000260: 5abe 16bd 57e6 893d 400b bd3c 3ea3 6ebc
00000270: 8b8e 143d ba09 efba fc7f 2b3d f827 47bd
00000280: 9820 63bc dacb 97bd 095d f7bb 219e ad3d
00000290: 703d 91bd e8f7 1cbc 97d8 a43d ba67 283c
000002a0: fea2 b03c c334 863d 0786 7b3b 4213 9fbd
000002b0: 8d79 3c3d b13e 93bc 93e4 a4bd 4365 96bd
000002c0: 7b22 ae3d 9592 3f3c cb33 31bd f2fe 8dba
000002d0: 9530 24bd ace7 9e3d b656 963d 4cc5 9d3c
000002e0: cffc 573d 3312 883b 842b 97bd a89e 9c3d
000002f0: b715 b3bd 662c 8dbd 859a 4fbd 968c ac3d
00000300: 6445 213d b684 4f3c 7b59 183d 7106 9d3d
00000310: ea88 3dbd ecf7 5ebd 2dbd 933c b5b4 87bc
00000320: 5c5e 8cbd 6728 6abc bc2f 86bc 1d4a 873c
00000330: b33b d4bb 95bd 11bd f391 83bc 7f15 94bc
00000340: 5d12 5dbd 16cb 91bd 6ecf f33b f896 fcbc
00000350: f944 90bd b273 6fbd 0299 813b 6237 9a3d
00000360: bfbe 233c f721 c1bb 605a 8b3c 0462 0cbd
00000370: 7816 99bd f39c 8bbd 6ec9 693d a5a1 433d
00000380: ebdb 83bd a4a0 93bd df7f a5bc 3bbd 86bd
00000390: 62da f03c 5e95 a4bd 6141 e0bb 7349 423d
000003a0: b7e5 9dbc 9588 89bd f369 a1bc 7bec 9a3d
000003b0: dd0e 80bc edcb 84bc a446 803d 34bc e33c
000003c0: 19cb a03d 9093 4a3d 0958 13bd 1858 36bd
000003d0: d76c 693d d22b a8bc 7c92 893d 8256 ca3c
000003e0: d272 9abd 897b 4ebd e091 a63c 80b0 afbb
000003f0: 4dc1 f5bc 5f53 db3b b92f a33d 5b77 853d
-0.021582853 -0.08130233 -0.009628732 -0.04906518 0.00910275 0.05326347 -0.083143964 -0.07407629
0.018516395 0.010373677 -0.050308965 0.08006096 -0.052037638 0.012635298 0.069284506 0.07102964
0.044224307 -0.047098365 0.0121183675 0.047358222 -0.03341692 0.019440318 -0.06642274 -0.080622695
0.078194164 -0.046579063 0.06863565 -0.039859634 0.08499663 0.00039957318 0.078818865 0.07315333
-0.02341721 0.0116502 0.029811982 0.038390025 -0.08462107 0.011060112 0.055329833 -0.0033819159
-0.010596033 -0.012682535 -0.059985533 0.0046861605 -0.022958325 -0.029752124 0.05737557 0.02810296
0.079527594 0.020255342 -0.065658845 0.01177702 -0.06212144 0.0695023 0.011575041 0.0021529663
0.041839596 0.016351143 -1.0283831e-05 0.015148673 0.026772816 -0.02689738 -0.032386396 -0.08474229
0.06696065 0.066853024 0.013869558 -0.059446033 -0.06090029 0.07568634 0.06001648 -0.050850034
0.086481 -0.0477807 0.025810255 -0.036599606 0.037692886 -0.0009724753 0.021767246 -0.053000547
-0.08775578 0.07409958 -0.079710424 0.06260993 0.0179405 0.044169202 0.07767034 -0.0053183106
0.018431323 -0.026753608 0.026464565 0.045846645 0.033794712 0.009352922 -0.039217778 -0.07357787
-0.07807774 0.0015084251 -0.06991927 -0.045657005 -0.012862744 -0.06491946 -0.08471175 0.08588763
-0.07520286 -0.009125056 -0.08282561 -0.040572356 0.052636523 0.0380311 -0.08130616 -0.043195568
-0.080949925 0.039778754 -0.015381345 0.046771135 0.06825833 -0.062187843 0.069852635 -0.024928806
0.005783285 -0.08805037 -0.05404935 0.029630773 -0.08743105 -0.061394606 0.07025654 -0.0746752
0.0016732088 -0.033198122 -0.08075273 0.022741206 -0.031157974 0.050003022 0.05537649 0.026779221
-0.004458694 -0.059006978 0.055171847 -0.0050757765 -0.0070999735 -0.009389338 0.0031155476 -0.034029342
0.07979876 -0.013277194 -0.013090547 -0.03715629 0.033804838 -0.021684859 0.026612615 -0.019735293
-0.036802627 0.06733387 0.023076653 -0.014565287 0.036268752 -0.0018237152 0.041870102 -0.0486221
-0.013862751 -0.074119285 -0.0075489325 0.08477426 -0.070917964 -0.00958059 0.08049124 0.010278637
0.021562096 0.06553032 0.0038379447 -0.07767345 0.046014357 -0.01797423 -0.080514096 -0.07343533
0.085026704 0.011692663 -0.043262284 -0.0010833426 -0.040085394 0.07759032 0.073407575 0.019259118
0.05273133 0.00415256 -0.07381347 0.07647449 -0.08744376 -0.06893234 -0.05068447 0.08425252
0.039372817 0.012665918 0.03719471 0.07667244 -0.04627315 -0.054435655 0.018034542 -0.01656566
-0.06853935 -0.014291859 -0.016380183 0.016514832 -0.0064768433 -0.03558119 -0.016060805 -0.018076656
-0.05397259 -0.07118814 0.007440499 -0.030833706 -0.070444055 -0.058459945 0.0039550075 0.07530095
0.009994208 -0.0058939415 0.017010868 -0.034273162 -0.07474989 -0.06817045 0.057076864 0.047761578
-0.064384304 -0.07208374 -0.020202575 -0.065790616 0.029401008 -0.08036302 -0.0068437313 0.047433328
-0.019274576 -0.06715504 -0.01970384 0.07564636 -0.015632087 -0.01621052 0.06263474 0.027799703
0.07851238 0.049457133 -0.03597263 -0.044517606 0.056988563 -0.020528708 0.06717393 0.024699453
-0.075414315 -0.05041078 0.02033323 -0.0053616166 -0.0299994 0.006693288 0.07968087 0.06516906

encoder.9.bias f4 [16]
00000000: 03a4 18bd 5100 823d 0adf 1d3d 4afb 82bd
00000010: 1ff1 983d 2eb8 653d ead3 da3c 0011 adbd
00000020: baf9 27bc 9f3f f33c c996 94bd c970 1b3d
00000030: d168 7dbd 3546 363d 10aa 9bbc 8d80 f63c
-0.03726579 0.063477166 0.038542785 -0.06395586 0.07467865 0.05608385 0.026712377 -0.08450508
-0.010252411 0.029693423 -0.072553225 0.037949357 -0.06186754 0.04450055 -0.01900199 0.030090595

projection.weight f4 [4, 16]
00000000: 049f c03d d043 28be 144d 71be f032 863c
00000010: ae95 31be 38a1 773e 4c6c 053e e2d1 343e
00000020: 2e94 79be fcf3 6f3e f086 433d 98f7 a03d
00000030: 5c8b 1e3e 245e 293e de3d 34be bc67 0dbe
00000040: cc55 13be 007e 3e3a c8bd 5fbe 94aa 9c3d
00000050: 9e06 473e a0fb 3e3e 10e2 6c3e 187a 13bd
00000060: 647b 62be 8048 233c e04b 283d 7e1b 6bbe
00000070: 08a9 71bd 5469 b6bd 8efc 3d3e cc6a c43d
00000080: e4e4 67be 9818 8f3d b8d5 64be 24ba 773e
00000090: ba28 23be ea0b 18be b8ca 84bd c424 a1bd
000000a0: 8486 063e 4833 27bd b453 8cbd 48a9 713e
000000b0: c832 b23d 5022 cebc 70ca afbd 20e6 0d3d
000000c0: 0839 0d3e 4c22 6a3e e0de 333c 6a22 6e3e
000000d0: 04d4 e33d 98c1 0abd 60d1 c23d 80c9 633e
000000e0: b44d 233e c876 063d f0cb b0bd 781c 0bbe
000000f0: f655 093e 7092 0ebd 6c3d c43d 3273 7dbe
0.0940533 -0.16432118 -0.23564559 0.01638171 -0.17342255 0.24182594 0.13029593 0.17658189
-0.24372932 0.23432916 0.04773611 0.07859725 0.15482849 0.16539818 -0.17601725 -0.13809103
-0.14388198 0.00072667 -0.2184974 0.07649723 0.19436118 0.18650675 0.23133111 -0.03600511
-0.22117382 0.009966016 0.041087985 -0.22959706 -0.05899909 -0.089068085 0.18553373 0.095906824
-0.22645909 0.06987113 -0.22347152 0.24192101 -0.15933505 -0.14848295 -0.06483978 -0.078683406
0.13137251 -0.04082039 -0.068519026 0.23599732 0.08701092 -0.025162846 -0.08583534 0.034643292
0.13791287 0.22864646 0.0109784305 0.23255315 0.11124423 -0.03387603 0.09512591 0.22244835
0.1594761 0.032828122 -0.08632648 -0.13585079 0.13411698 -0.034807622 0.09582028 -0.24750975

projection.bias f4 [4]
00000000: d81d ab3d e890 693e b8ce 31bd 5add 793e
0.083553016 0.22809184 -0.043410033 0.24400845

quantum_layer.weight f4 [21]
00000000: 93e6 fdbe 32cb 2fbf 2eaa 25bd c26f 303f
00000010: 6453 4c3f f377 0ebf 1d57 55bf d611 54be
00000020: ac96 393f fce2 2bbf 9742 6abf d8a9 1cbf
00000030: 60b4 b33d 3249 8bbd e02b 4dbe 087a 1fbf
00000040: db10 733f 5424 87be 66ad 003f add4 9f3f
00000050: 5887 a43e
-0.49589977 -0.68669426 -0.0404455 0.6892053 0.79814744 -0.5565178 -0.8333605 -0.20709929
0.7249553 -0.67143226 -0.9150786 -0.6119666 0.08774638 -0.0680107 -0.20036268 -0.6229558
0.94947594 -0.26394904 0.50264585 1.2486778 0.3213451

quantum_layer._weights f4 [21]
00000000: 93e6 fdbe 32cb 2fbf 2eaa 25bd c26f 303f
00000010: 6453 4c3f f377 0ebf 1d57 55bf d611 54be
00000020: ac96 393f fce2 2bbf 9742 6abf d8a9 1cbf
00000030: 60b4 b33d 3249 8bbd e02b 4dbe 087a 1fbf
00000040: db10 733f 5424 87be 66ad 003f add4 9f3f
00000050: 5887 a43e
-0.49589977 -0.68669426 -0.0404455 0.6892053 0.79814744 -0.5565178 -0.8333605 -0.20709929
0.7249553 -0.67143226 -0.9150786 -0.6119666 0.08774638 -0.0680107 -0.20036268 -0.6229558
0.94947594 -0.26394904 0.50264585 1.2486778 0.3213451
