output/None_angle_autoencoder16_20260212_114123/model/None_angle_autoencoder16_20260212_114123_trained_qcnn.pth (torch, 2667 bytes, 2 tensors)

weight f4 [123]
000000 57 3a 4e bf 8b 1c a7 bf 5f c6 c4 3e f5 d1 ec bd
       -0.8055777 -1.3055586 0.38432595 -0.115634836
000010 05 c8 5a 3e 7f b7 48 bf b7 c0 72 3f 72 77 c8 be
       0.21365364 -0.7840499 0.9482531 -0.3915363
000020 5b 48 5a 3f 65 bf 20 3e 86 bd 35 3f 7e 01 1d 3f
       0.85266656 0.15698011 0.70992315 0.613304
000030 24 30 4b 3e ef 9b 6b 3f 07 90 14 3f 80 91 c3 3b
       0.19842583 0.9203481 0.5803227 0.0059682727
000040 61 ff d3 bd 7a 0c 07 3e be f5 84 3e 8f 0d 56 bf
       -0.10351444 0.13188353 0.25968736 -0.8361444
000050 29 f4 08 be 5a cc 82 3f f6 7d c7 be 31 35 df 3e
       -0.1337439 1.0218613 -0.38963288 0.4359527
000060 ad 48 5e bf 8f 33 23 bf 88 75 fe be 05 87 bb 3e
       -0.86829644 -0.6375055 -0.49699044 0.3662645
000070 17 12 b8 3e 5f 50 b4 3e 79 48 1e 3f a1 08 28 bf
       0.359513 0.35217568 0.61829334 -0.65638167
000080 a8 ea 8a 3e 24 c1 b3 be e7 b5 05 3d 28 3b 81 3f
       0.27132154 -0.35108292 0.03264418 1.0096178
000090 43 bc 8f 3f a8 95 2b 3f 92 24 bc bd 49 6d 17 3f
       1.1229328 0.6702523 -0.09186663 0.5915113
0000a0 a1 9f 60 bf 46 c9 fa 3e 43 76 07 be 3a 23 32 bf
       -0.87743574 0.48981684 -0.13228707 -0.69585
0000b0 bb 3b 65 3e 4e fd dc 3e 6a ea 22 bf 9c d6 27 bf
       0.22386067 0.43162006 -0.6363894 -0.6556184
0000c0 57 d1 45 3d f0 29 c0 3e 38 8d ac bf 5b f0 a6 3e
       0.048295345 0.37531996 -1.3480597 0.32605252
0000d0 1f 19 f3 bc 25 aa 76 3e 78 40 67 3e f2 44 c3 3e
       -0.029675065 0.24088342 0.22583187 0.3813854
0000e0 13 32 80 bf b2 7b 61 3e ae 4b 30 3e fe e0 09 3e
       -1.0015281 0.22019842 0.1721637 0.13464734
0000f0 37 73 a3 bf 7e 08 2e bf 96 b9 75 be d7 f6 e0 be
       -1.2769536 -0.6798171 -0.23996577 -0.43938324
000100 88 4d 00 3f 94 b2 0a 3e fe d8 44 3e 95 99 05 3f
       0.50118303 0.13544685 0.19223401 0.5218747
000110 4f 7e d7 3e c6 69 f8 3d dc e9 c6 3e 3a 76 10 3e
       0.42088553 0.1212955 0.38850296 0.141076
000120 40 e6 73 3f 85 f3 82 3f 95 21 8e 3f 06 0e 9c 3d
       0.9527321 1.0230566 1.1103998 0.07619862
000130 c7 bf d7 bf cd b7 0e 3f 4e f4 32 3f 2d c8 12 3e
       -1.6855401 0.5574921 0.6990403 0.14334174
000140 4e 5d 76 3d d0 ba 90 be 1f 4c a7 3e e9 29 a4 bd
       0.060147576 -0.28267527 0.32675263 -0.08015806
000150 fb 2a c5 3e c3 94 14 be d6 92 99 be 55 a5 1e 3f
       0.38509354 -0.14509873 -0.2999484 0.61971027
000160 60 a0 da 3e 39 cd c3 3e 8b bb 09 bf 3f c9 18 be
       0.4270048 0.3824251 -0.5380179 -0.1492052
000170 1d 3e b4 be cc 3a 2e 3f 52 96 64 be aa 2e c4 bd
       -0.3520364 0.68058467 -0.22322968 -0.09579213
000180 76 4a 42 3f a9 a5 7e bf 0d 14 90 bd 67 35 97 be
       0.7589487 -0.9947153 -0.070350744 -0.2953293
000190 b1 a2 3c bf 5b 2d 08 be ea 85 1f 3e 38 38 46 3e
       -0.7368575 -0.13298552 0.15578428 0.19357383
0001a0 6b d6 a5 3d 07 88 27 3f b9 80 05 bf f1 7a f7 3c
       0.080975376 0.65441936 -0.5214954 0.03020999
0001b0 6c eb 27 bf 75 b9 18 bf 6f 0d 23 bf 49 1e 32 bf
       -0.655936 -0.59657985 -0.63692373 -0.6957746
0001c0 bb 63 03 3d 6c 23 3f 3e ff db 9d 3e e8 04 f1 be
       0.032077532 0.18665856 0.30831906 -0.47074056
0001d0 73 9c 25 3f 98 47 3e ba 1d 66 92 3f 93 16 05 3f
       0.6469185 -0.0007258593 1.1437413 0.5198757
0001e0 e7 b4 3a bf 42 0e 10 3f 50 57 89 3f
       -0.72932285 0.56271756 1.0729771

_weights f4 [123]
000000 57 3a 4e bf 8b 1c a7 bf 5f c6 c4 3e f5 d1 ec bd
       -0.8055777 -1.3055586 0.38432595 -0.115634836
000010 05 c8 5a 3e 7f b7 48 bf b7 c0 72 3f 72 77 c8 be
       0.21365364 -0.7840499 0.9482531 -0.3915363
000020 5b 48 5a 3f 65 bf 20 3e 86 bd 35 3f 7e 01 1d 3f
       0.85266656 0.15698011 0.70992315 0.613304
000030 24 30 4b 3e ef 9b 6b 3f 07 90 14 3f 80 91 c3 3b
       0.19842583 0.9203481 0.5803227 0.0059682727
000040 61 ff d3 bd 7a 0c 07 3e be f5 84 3e 8f 0d 56 bf
       -0.10351444 0.13188353 0.25968736 -0.8361444
000050 29 f4 08 be 5a cc 82 3f f6 7d c7 be 31 35 df 3e
       -0.1337439 1.0218613 -0.38963288 0.4359527
000060 ad 48 5e bf 8f 33 23 bf 88 75 fe be 05 87 bb 3e
       -0.86829644 -0.6375055 -0.49699044 0.3662645
000070 17 12 b8 3e 5f 50 b4 3e 79 48 1e 3f a1 08 28 bf
       0.359513 0.35217568 0.61829334 -0.65638167
000080 a8 ea 8a 3e 24 c1 b3 be e7 b5 05 3d 28 3b 81 3f
       0.27132154 -0.35108292 0.03264418 1.0096178
000090 43 bc 8f 3f a8 95 2b 3f 92 24 bc bd 49 6d 17 3f
       1.1229328 0.6702523 -0.09186663 0.5915113
0000a0 a1 9f 60 bf 46 c9 fa 3e 43 76 07 be 3a 23 32 bf
       -0.87743574 0.48981684 -0.13228707 -0.69585
0000b0 bb 3b 65 3e 4e fd dc 3e 6a ea 22 bf 9c d6 27 bf
       0.22386067 0.43162006 -0.6363894 -0.6556184
0000c0 57 d1 45 3d f0 29 c0 3e 38 8d ac bf 5b f0 a6 3e
       0.048295345 0.37531996 -1.3480597 0.32605252
0000d0 1f 19 f3 bc 25 aa 76 3e 78 40 67 3e f2 44 c3 3e
       -0.029675065 0.24088342 0.22583187 0.3813854
0000e0 13 32 80 bf b2 7b 61 3e ae 4b 30 3e fe e0 09 3e
       -1.0015281 0.22019842 0.1721637 0.13464734
0000f0 37 73 a3 bf 7e 08 2e bf 96 b9 75 be d7 f6 e0 be
       -1.2769536 -0.6798171 -0.23996577 -0.43938324
000100 88 4d 00 3f 94 b2 0a 3e fe d8 44 3e 95 99 05 3f
       0.50118303 0.13544685 0.19223401 0.5218747
000110 4f 7e d7 3e c6 69 f8 3d dc e9 c6 3e 3a 76 10 3e
       0.42088553 0.1212955 0.38850296 0.141076
000120 40 e6 73 3f 85 f3 82 3f 95 21 8e 3f 06 0e 9c 3d
       0.9527321 1.0230566 1.1103998 0.07619862
000130 c7 bf d7 bf cd b7 0e 3f 4e f4 32 3f 2d c8 12 3e
       -1.6855401 0.5574921 0.6990403 0.14334174
000140 4e 5d 76 3d d0 ba 90 be 1f 4c a7 3e e9 29 a4 bd
       0.060147576 -0.28267527 0.32675263 -0.08015806
000150 fb 2a c5 3e c3 94 14 be d6 92 99 be 55 a5 1e 3f
       0.38509354 -0.14509873 -0.2999484 0.61971027
000160 60 a0 da 3e 39 cd c3 3e 8b bb 09 bf 3f c9 18 be
       0.4270048 0.3824251 -0.5380179 -0.1492052
000170 1d 3e b4 be cc 3a 2e 3f 52 96 64 be aa 2e c4 bd
       -0.3520364 0.68058467 -0.22322968 -0.09579213
000180 76 4a 42 3f a9 a5 7e bf 0d 14 90 bd 67 35 97 be
       0.7589487 -0.9947153 -0.070350744 -0.2953293
000190 b1 a2 3c bf 5b 2d 08 be ea 85 1f 3e 38 38 46 3e
       -0.7368575 -0.13298552 0.15578428 0.19357383
0001a0 6b d6 a5 3d 07 88 27 3f b9 80 05 bf f1 7a f7 3c
       0.080975376 0.65441936 -0.5214954 0.03020999
0001b0 6c eb 27 bf 75 b9 18 bf 6f 0d 23 bf 49 1e 32 bf
       -0.655936 -0.59657985 -0.63692373 -0.6957746
0001c0 bb 63 03 3d 6c 23 3f 3e ff db 9d 3e e8 04 f1 be
       0.032077532 0.18665856 0.30831906 -0.47074056
0001d0 73 9c 25 3f 98 47 3e ba 1d 66 92 3f 93 16 05 3f
       0.6469185 -0.0007258593 1.1437413 0.5198757
0001e0 e7 b4 3a bf 42 0e 10 3f 50 57 89 3f
       -0.72932285 0.56271756 1.0729771
