output/train_angle_autoencoder16_20260207_103436/checkpoints/train_angle_autoencoder16_20260207_103436_checkpoint.pth.tar (torch, 9095 bytes, 4 tensors)

weight f4 [123]
00000000: 3d90 80bd 3b52 073d 2310 8cbd 7e8e 003f
00000010: a7e3 edbe dd54 ff3e 4bcc febd 350f 56be
00000020: a63e aabe 0b6b cd3c 92c8 dabd 2b8f 6c3d
00000030: 6fe1 c0bf 5d01 89bf c04f b93d 990f 733f
00000040: c577 d2be c4cf 173f c26f 31bd f667 113f
00000050: 81ad 30be a677 c2be 0c1c 2e3d f0a1 18bf
00000060: f039 8d3e 2ee5 78be 1b25 6a3d 28a8 203f
00000070: cc5b afbe 44de 1dbe 93f8 c93e 8d3c acbd
00000080: b07a 30bf ab82 45bd f418 0ebf 195d 9e3e
00000090: 33db 9ebd 1976 acbc 96d9 563e 2787 903e
000000a0: 41be 76be fa68 92be 12cc cdbe 9512 8dbf
000000b0: 83ec a2be d84d b2be 6816 d8be 7f22 f63c
000000c0: 3d1b 0fbf 9157 c33f d941 20bf 04bb 163e
000000d0: cbae db3e aba6 bb3e 0bec 983e 7fbe 71bf
000000e0: bc26 22bf 763f c63e 3cf8 80bf 9d29 83bc
000000f0: 5801 813e e1e9 bb3e 27f9 ac3e f99f d5be
00000100: 42f7 5f3d 5735 ee3e fca8 7d3f 6524 6bbd
00000110: 42d6 e2bc 4ce2 78be 8cec 903f fab8 6a3f
00000120: 1d03 1ebd ee92 063e 263a 11bf 6b7e c6bd
00000130: c740 753e cae7 c2be 626d 95be 8535 84be
00000140: d30a 7ebf c5ce a2be 7c0b c03e f141 2fbc
00000150: 0adb 143f 33fe 023e 5d4c 903c d036 0c3f
00000160: 1890 58bd d7d2 a83e 5100 563f 893a 983d
00000170: 8f47 ebbe 4d12 2abf 6e0f 6ebe 8503 023e
00000180: dd0e 1d3d 799c 3cbf 1fd2 233f 2e9f 743e
00000190: 87a1 f1be 2600 7ebf 09a0 523d 5a83 0e3e
000001a0: b6f7 663e 20d8 30bf 7fa8 0a3f c340 16bf
000001b0: b33d 72bf da37 823f b145 47bf 2176 e9be
000001c0: f4e7 cabd 5720 62bd 881b 0bbf 901a 7bbf
000001d0: 64b2 843f fa0d 51bf 4afc 57bf 928e d5be
000001e0: f3d8 053f 584e d2be ae65 58bf
-0.06277511 0.033037405 -0.06839015 0.50217426 -0.46462747 0.49869433 -0.124413095 -0.20904239
-0.33250922 0.025075456 -0.10682787 0.057753723 -1.5068797 -1.0703541 0.09048414 0.94945675
-0.41107002 0.593014 -0.04331947 0.56799257 -0.17253686 -0.3798191 0.042507216 -0.59622097
0.27583265 -0.24306175 0.057164293 0.62756586 -0.34249723 -0.15416819 0.3944746 -0.08409987
-0.68937206 -0.048220318 -0.55506825 0.30930403 -0.07756653 -0.021052407 0.2098144 0.28228113
-0.24096014 -0.28595716 -0.40194756 -1.1021296 -0.3182107 -0.34825015 -0.42204595 0.030045746
-0.5590094 1.5261098 -0.62600476 0.14719778 0.42906794 0.36650595 0.29867586 -0.944313
-0.63340354 0.38720292 -1.0075755 -0.016011054 0.25196338 0.36701873 0.33783838 -0.41723612
0.054679163 0.4652507 0.99085975 -0.057407755 -0.027690057 -0.24305075 1.1322188 0.916885
-0.038577188 0.13141987 -0.5672935 -0.09692081 0.23950492 -0.38067466 -0.29185015 -0.25822082
-0.99235266 -0.31798378 0.37508762 -0.010696874 0.5814673 0.12792282 0.017614538 0.5477114
-0.052871794 0.32973358 0.8359423 0.0743304 -0.45953032 -0.66434175 -0.23248073 0.12696655
0.038344253 -0.7367626 0.63992494 0.23888847 -0.47193548 -0.99218976 0.051422153 0.13917294
0.22555432 -0.6907978 0.54163355 -0.5869257 -0.94625396 1.0173295 -0.77840716 -0.45597938
-0.09907523 -0.055206623 -0.54338884 -0.98087406 1.036694 -0.8166195 -0.8436934 -0.41710335
0.52284163 -0.41075397 -0.8453015

_weights f4 [123]
00000000: 3d90 80bd 3b52 073d 2310 8cbd 7e8e 003f
00000010: a7e3 edbe dd54 ff3e 4bcc febd 350f 56be
00000020: a63e aabe 0b6b cd3c 92c8 dabd 2b8f 6c3d
00000030: 6fe1 c0bf 5d01 89bf c04f b93d 990f 733f
00000040: c577 d2be c4cf 173f c26f 31bd f667 113f
00000050: 81ad 30be a677 c2be 0c1c 2e3d f0a1 18bf
00000060: f039 8d3e 2ee5 78be 1b25 6a3d 28a8 203f
00000070: cc5b afbe 44de 1dbe 93f8 c93e 8d3c acbd
00000080: b07a 30bf ab82 45bd f418 0ebf 195d 9e3e
00000090: 33db 9ebd 1976 acbc 96d9 563e 2787 903e
000000a0: 41be 76be fa68 92be 12cc cdbe 9512 8dbf
000000b0: 83ec a2be d84d b2be 6816 d8be 7f22 f63c
000000c0: 3d1b 0fbf 9157 c33f d941 20bf 04bb 163e
000000d0: cbae db3e aba6 bb3e 0bec 983e 7fbe 71bf
000000e0: bc26 22bf 763f c63e 3cf8 80bf 9d29 83bc
000000f0: 5801 813e e1e9 bb3e 27f9 ac3e f99f d5be
00000100: 42f7 5f3d 5735 ee3e fca8 7d3f 6524 6bbd
00000110: 42d6 e2bc 4ce2 78be 8cec 903f fab8 6a3f
00000120: 1d03 1ebd ee92 063e 263a 11bf 6b7e c6bd
00000130: c740 753e cae7 c2be 626d 95be 8535 84be
00000140: d30a 7ebf c5ce a2be 7c0b c03e f141 2fbc
00000150: 0adb 143f 33fe 023e 5d4c 903c d036 0c3f
00000160: 1890 58bd d7d2 a83e 5100 563f 893a 983d
00000170: 8f47 ebbe 4d12 2abf 6e0f 6ebe 8503 023e
00000180: dd0e 1d3d 799c 3cbf 1fd2 233f 2e9f 743e
00000190: 87a1 f1be 2600 7ebf 09a0 523d 5a83 0e3e
000001a0: b6f7 663e 20d8 30bf 7fa8 0a3f c340 16bf
000001b0: b33d 72bf da37 823f b145 47bf 2176 e9be
000001c0: f4e7 cabd 5720 62bd 881b 0bbf 901a 7bbf
000001d0: 64b2 843f fa0d 51bf 4afc 57bf 928e d5be
000001e0: f3d8 053f 584e d2be ae65 58bf
-0.06277511 0.033037405 -0.06839015 0.50217426 -0.46462747 0.49869433 -0.124413095 -0.20904239
-0.33250922 0.025075456 -0.10682787 0.057753723 -1.5068797 -1.0703541 0.09048414 0.94945675
-0.41107002 0.593014 -0.04331947 0.56799257 -0.17253686 -0.3798191 0.042507216 -0.59622097
0.27583265 -0.24306175 0.057164293 0.62756586 -0.34249723 -0.15416819 0.3944746 -0.08409987
-0.68937206 -0.048220318 -0.55506825 0.30930403 -0.07756653 -0.021052407 0.2098144 0.28228113
-0.24096014 -0.28595716 -0.40194756 -1.1021296 -0.3182107 -0.34825015 -0.42204595 0.030045746
-0.5590094 1.5261098 -0.62600476 0.14719778 0.42906794 0.36650595 0.29867586 -0.944313
-0.63340354 0.38720292 -1.0075755 -0.016011054 0.25196338 0.36701873 0.33783838 -0.41723612
0.054679163 0.4652507 0.99085975 -0.057407755 -0.027690057 -0.24305075 1.1322188 0.916885
-0.038577188 0.13141987 -0.5672935 -0.09692081 0.23950492 -0.38067466 -0.29185015 -0.25822082
-0.99235266 -0.31798378 0.37508762 -0.010696874 0.5814673 0.12792282 0.017614538 0.5477114
-0.052871794 0.32973358 0.8359423 0.0743304 -0.45953032 -0.66434175 -0.23248073 0.12696655
0.038344253 -0.7367626 0.63992494 0.23888847 -0.47193548 -0.99218976 0.051422153 0.13917294
0.22555432 -0.6907978 0.54163355 -0.5869257 -0.94625396 1.0173295 -0.77840716 -0.45597938
-0.09907523 -0.055206623 -0.54338884 -0.98087406 1.036694 -0.8166195 -0.8436934 -0.41710335
0.52284163 -0.41075397 -0.8453015

exp_avg f4 [123]
00000000: 1ac8 90bc 0726 a3bb c74f 103a 1787 a4bc
00000010: 4891 e4bc bf27 b63b 1250 8cbc b7f6 19bd
00000020: 5a75 d63c 526c b0bc 2d6b 623c f156 f4bc
00000030: 5eab ddbc 45ab 84bb 8327 3dbd 74c9 93bb
00000040: fa06 0d3d ea78 063b 327a 173d 77b1 0d3d
00000050: ff06 013b 1a18 4b3c f769 083d db3f c83c
00000060: 43bb 633c 4872 00bc d551 c43b 52fb bc3c
00000070: 2a75 663c fa9e e9bb 7348 973c 5a7c 6ebc
00000080: 1cae 1d3d 3b58 e63c 140b 7bbb b106 50bc
00000090: 1397 be3b b9ed e73b 9f05 4e3c b89d 66bc
000000a0: 39e1 3f3d a4d3 39bd 740b ccbc dbce 35bc
000000b0: 4fc5 6ebb 97d9 0a3d 1da3 983c 5ddb a4bc
000000c0: e1cb 793c 71f1 863b a5ab c23c 785f a7bc
000000d0: 0406 a63c f4cb e13b 94d5 b8bb 8277 4a3b
000000e0: 7acd 2cbd 3212 c93b 479b bfbb 0ba2 5cbd
000000f0: aa2a b4bc ba1d 0e3c d9c6 083c 1b1e 8dbc
00000100: 460c df3a e83e 1b3c 139c a33c c9a1 40bd
00000110: 80be 11bd 12cb 423c faac 263d a7c6 c9bc
00000120: 19e7 0dbc e847 8abc df09 5e3a 74e5 2abc
00000130: 396a e9bc 7a87 133d f3a6 8e3b 2d94 783c
00000140: ad75 073c 795f 9a3b 44a3 1d3d 7a9e cabc
00000150: bcde 223d 2507 e8ba 644e 5e3b 7ad5 9f39
00000160: 2e42 993b 2b35 e3bc 0ce7 113c 4460 213c
00000170: da70 39bd ca34 e13c 4c0f bfbc 5886 fabb
00000180: 98c4 3d3c 5ee6 14bd 156c 553c 048c 193b
00000190: 8749 993a db42 a0bc 4778 1ebc 4207 a6ba
000001a0: 8b1e bbbc dccc a5bc abd1 cabb 1317 edbc
000001b0: 9ca1 eb3b 7cc0 153d 52b9 9a3c 9472 53bd
000001c0: 7256 523b 1dc7 1abb 341f efbc 94b8 91bc
000001d0: af99 793c 08e9 a7bc 7f08 0c3c c980 d33c
000001e0: aef6 85bc 4f7d a63c ef00 cd3c
-0.01767354 -0.0049788984 0.0005505052 -0.020083947 -0.027901307 0.0055589373 -0.017128024 -0.0375888
0.026179004 -0.021536026 0.013819498 -0.029826613 -0.027059253 -0.004048737 -0.04618026 -0.004510099
0.03443048 0.0020518848 0.03698177 0.03459307 0.0019688008 0.012395883 0.03330418 0.024444511
0.013899627 -0.007839747 0.0059912005 0.023069058 0.01406602 -0.007129547 0.018467164 -0.014556015
0.03849612 0.028118243 -0.0038306164 -0.012696908 0.0058163493 0.0070778993 0.012574582 -0.014075689
0.04684565 -0.04536785 -0.024907805 -0.0110966815 -0.0036433523 0.033898916 0.018632466 -0.020124132
0.015246362 0.0041181375 0.023763487 -0.020431265 0.02026654 0.006890768 -0.005640695 0.0030893986
-0.042188145 0.0061362023 -0.005847368 -0.053865474 -0.021993 0.00867408 0.00834819 -0.01722627
0.0017017208 0.009475447 0.019971883 -0.04702929 -0.035582066 0.011889236 0.040692307 -0.024630858
-0.008661055 -0.01687999 0.0008470099 -0.010430682 -0.028493034 0.036017872 0.004353398 0.015172047
0.008267802 0.0047110883 0.03848578 -0.02473377 0.039763197 -0.0017702325 0.0033921236 0.00030485896
0.0046770787 -0.027735313 0.0089051835 0.009849612 -0.04527364 0.027490992 -0.023322724 -0.0076454096
0.011582516 -0.036352508 0.013026257 0.0023429403 0.0011694886 -0.01956313 -0.009672231 -0.0012666958
-0.022841712 -0.020239286 -0.006189545 -0.028941667 0.007190896 0.03656052 0.018887196 -0.051622942
0.0032094982 -0.0023617216 -0.029189683 -0.017788209 0.015234395 -0.02049686 0.0085469475 0.025818245
-0.016352978 0.020323424 0.02502486

exp_avg_sq f4 [123]
00000000: de6d 4a3a 0430 363a 34ac 443a ba36 463a
00000010: 2846 3f3a 8401 523a f05c 223a edc3 3c3a
00000020: b641 243a dbb2 303a ea28 463a 47f9 483a
00000030: 8f27 2a3a 87f8 063a 5049 1b3a 19b6 4d3a
00000040: 4538 3b3a b497 123a 6a4b 4c3a 8d71 263a
00000050: 363c 6d3a a3f2 843a 2418 2d3a c091 2d3a
00000060: fa1a 4a3a 6722 413a 2d91 393a ba4f 1c3a
00000070: 3556 353a a645 363a f41e 1e3a 3dd4 443a
00000080: 9f82 213a 1f9a 4f3a b93a 153a a852 393a
00000090: 748c 1a3a 9052 083a 0c5c 063a 473c 593a
000000a0: 06cf 543a 71a3 4b3a 02f4 543a 37c6 513a
000000b0: ddec 393a e5d1 063a 4be2 343a 1b1f 3b3a
000000c0: 523b 3b3a 99ed 883a 293b 333a a61a 673a
000000d0: 3283 5b3a 9b8a 553a e0e9 4c3a a798 413a
000000e0: 51ee 303a a406 213a 129e 1f3a 89de 643a
000000f0: 9ca1 303a 50e4 433a 4403 323a 5d1c 3d3a
00000100: 3490 6a3a 1eb1 223a 05ea 3a3a 4c31 3c3a
00000110: cc96 343a 7036 383a 117a 493a 241d 503a
00000120: 962f fd39 b1e8 3e3a dbf3 4a3a 4f20 2c3a
00000130: c92d 543a d37f 4a3a 61c0 673a 97aa 4c3a
00000140: 932f 2d3a aac6 183a c7ba 253a 9e9d 433a
00000150: 4432 3b3a 64f9 fe39 fd34 433a c354 483a
00000160: 5d37 053a 584a 303a e002 303a 1382 5b3a
00000170: 96df 373a 5579 623a 97a3 3d3a b3f3 503a
00000180: 41c7 273a 8468 283a 8fc1 263a 9778 013a
00000190: f9bc 113a b2bc 4e3a ea55 0f3a d229 023a
000001a0: 09ed 5c3a 29f1 113a 858f 603a 52a4 3b3a
000001b0: 348e 283a a0f5 633a a42f 313a 2c43 363a
000001c0: b85c 0a3a 1372 103a 4e14 4b3a d10c 103a
000001d0: 61da 243a a39b 003a d8fd 503a 174e 663a
000001e0: 129d 213a 4c29 3d3a 2ac6 673a
0.000772206 0.0006949904 0.0007502467 0.00075612555 0.0007296526 0.000801109 0.00061936583 0.0007200826
0.0006265895 0.0006740519 0.0007559197 0.000766654 0.000649088 0.0005148728 0.0005923705 0.0007847264
0.00071418687 0.00055920635 0.000779322 0.0006349318 0.00090498046 0.0010143112 0.00066030235 0.0006621145
0.00077097083 0.0007367492 0.0007078823 0.0005962808 0.0006917448 0.00069531274 0.0006031834 0.00075084326
0.00061611267 0.0007919389 0.0005692649 0.00070695067 0.0005895563 0.0005200291 0.00051254104 0.0008286875
0.0008118007 0.000776819 0.0008123518 0.00080022536 0.00070924853 0.0005142971 0.00069001754 0.0007138119
0.00071423233 0.0010446786 0.00068371237 0.00088159216 0.00083737366 0.0008145959 0.00078168325 0.00073851127
0.0006749379 0.0006142652 0.0006088923 0.000873067 0.0006737949 0.0007472681 0.0006790648 0.0007214004
0.00089478795 0.0006206202 0.00071302085 0.00071789767 0.00068889256 0.0007027155 0.0007685731 0.00079389126
0.00048291375 0.00072825985 0.0007742026 0.00065660937 0.0008093981 0.0007724736 0.00088406174 0.0007807402
0.00066065154 0.0005827943 0.00063220825 0.00074621465 0.0007140974 0.00048632466 0.00074465555 0.0007642025
0.0005081797 0.0006724945 0.00067142956 0.00083735696 0.0007014213 0.00086392957 0.00072341546 0.00079708843
0.00064002356 0.00064242654 0.000636124 0.0004938929 0.000555947 0.0007886394 0.0005467819 0.0004965338
0.0008427655 0.00055672467 0.0008566308 0.00071579695 0.00064298813 0.0008695964 0.0006759113 0.00069527584
0.00052780984 0.00055101624 0.0007746861 0.0005495074 0.00062886445 0.0004906004 0.0007972396 0.000878544
0.0006165068 0.00072159315 0.00088414794
