output/None_angle_autoencoder16_20260212_044858/checkpoints/None_angle_autoencoder16_20260212_044858_checkpoint.pth.tar (torch, 8317 bytes, 4 tensors)

weight f4 [123]
-0.4250565 0.06851732 0.3051192 -0.31489208 0.16032624 -0.33412996 -0.26514503 -0.03669759
-0.33826083 -0.36583337 0.2949659 0.4618906 -0.18227464 0.92882067 0.08756523 0.18622483
-0.22330946 -0.065000154 0.6049679 0.3625546 0.96258545 0.3280053 -0.15464057 -0.0070742154
0.070450574 0.0356782 0.23084956 0.21856923 0.0010165492 -0.26694432 -0.25413576 -0.048015695
0.7409503 0.018773494 -0.5818759 0.35646662 -0.13857795 0.0018092978 -0.95135325 -0.07146049
0.95813835 0.3484464 -0.3120095 -0.46788886 0.7078175 0.38640714 0.15828665 0.94854647
-0.18640132 -0.700208 -0.9052473 -0.26767716 0.80255675 -0.121154726 -0.18690418 0.6604302
0.09582792 -0.6440712 -0.8487804 0.06429418 0.13183269 -0.3930987 -0.056342427 0.5567632
-0.20149767 0.3784627 0.38578933 0.9242414 0.25520927 0.18894823 -0.2432082 0.11533349
-0.26591888 -0.5700701 -0.29381225 0.01026036 -0.07958589 -0.34046954 -0.077816285 -0.036246113
-0.55647075 -0.07310392 0.14908558 0.1667633 -1.1831892 -0.41353196 0.31877163 -0.14530374
0.19506086 0.705689 -0.177607 -0.10713832 0.1014329 -0.47130686 -0.51842606 0.077363
0.1308367 0.042420477 -0.10777761 -0.2073142 -0.028864678 0.39546338 -0.25515422 0.03368831
-0.016737191 -0.17731827 -0.74051815 -0.3556512 0.0030637728 0.09559003 -0.11511503 1.001932
-1.154602 0.1673527 0.80761546 0.07397339 -0.027726498 -0.116747 -0.04047352 -0.10735523
0.4186518 0.054882698 0.08749405
00000000: 01a1 d9be cf52 8c3d 9538 9c3e 8939 a1be
00000010: 902c 243e 1513 abbe 17c1 87be 3650 16bd
00000020: 8630 adbe 834e bbbe c505 973e ed7c ec3e
00000030: 34a6 3abe 31c7 6d3f 6655 b33d b9b1 3e3e
00000040: 3cab 64be cd1e 85bd 2ddf 1a3f c2a0 b93e
00000050: 006c 763f 50f0 a73e 195a 1ebe d2ce e7bb
00000060: 6448 903d 4e23 123d d463 6c3e 9dd0 5f3e
00000070: bb3d 853a edac 88be 151e 82be 1bac 44bd
00000080: ebae 3d3f dfca 993c d2f5 14bf cb82 b63e
00000090: 61e7 0dbe f625 ed3a e38b 73bf e159 92bd
000000a0: 8e48 753f 9167 b23e b6bf 9fbe 218f efbe
000000b0: 8733 353f 28d7 c53e e515 223e f1d3 723f
000000c0: fddf 3ebe d540 33bf 49be 67bf fb0c 89be
000000d0: 5c74 4d3f f81f f8bd cf63 3fbe f411 293f
000000e0: 6e41 c43d dae1 24bf ac49 59bf abac 833d
000000f0: 26ff 063e 3c44 c9be 51c7 66bd 0888 0e3f
00000100: 6855 4ebe ddc5 c13e 2e86 c53e 169b 6c3f
00000110: caaa 823e a57b 413e 920b 79be f733 ec3d
00000120: 8526 88be 1df0 11bf 8f6e 96be 121b 283c
00000130: edfd a2bd 0652 aebe 255e 9fbd ce76 14bd
00000140: de74 0ebf 82b7 95bd e4a9 183e 00c4 2a3e
00000150: be72 97bf 76ba d3be 0936 a33e 81ca 14be
00000160: 09be 473e 09a8 343f 9cde 35be 566b dbbd
00000170: 0dbc cf3d 224f f1be 92b7 04bf 7e70 9e3d
00000180: 0efa 053e 18c1 2d3d 82ba dcbd 2c4a 54be
00000190: 9e75 ecbc 2d7a ca3e 93a3 82be c1fc 093d
000001a0: 6f1c 89bc ec92 35be 9992 3dbf ea17 b6be
000001b0: 94c9 483b b5c4 c33d 6ec1 ebbd 4f3f 803f
000001c0: 00ca 93bf 825e 2b3e e3bf 4e3f 5c7f 973d
000001d0: ae22 e3bc 0d19 efbd 90c7 25bd 0fdd dbbd
000001e0: 8759 d63e aecc 603d 1530 b33d

_weights f4 [123]
-0.4250565 0.06851732 0.3051192 -0.31489208 0.16032624 -0.33412996 -0.26514503 -0.03669759
-0.33826083 -0.36583337 0.2949659 0.4618906 -0.18227464 0.92882067 0.08756523 0.18622483
-0.22330946 -0.065000154 0.6049679 0.3625546 0.96258545 0.3280053 -0.15464057 -0.0070742154
0.070450574 0.0356782 0.23084956 0.21856923 0.0010165492 -0.26694432 -0.25413576 -0.048015695
0.7409503 0.018773494 -0.5818759 0.35646662 -0.13857795 0.0018092978 -0.95135325 -0.07146049
0.95813835 0.3484464 -0.3120095 -0.46788886 0.7078175 0.38640714 0.15828665 0.94854647
-0.18640132 -0.700208 -0.9052473 -0.26767716 0.80255675 -0.121154726 -0.18690418 0.6604302
0.09582792 -0.6440712 -0.8487804 0.06429418 0.13183269 -0.3930987 -0.056342427 0.5567632
-0.20149767 0.3784627 0.38578933 0.9242414 0.25520927 0.18894823 -0.2432082 0.11533349
-0.26591888 -0.5700701 -0.29381225 0.01026036 -0.07958589 -0.34046954 -0.077816285 -0.036246113
-0.55647075 -0.07310392 0.14908558 0.1667633 -1.1831892 -0.41353196 0.31877163 -0.14530374
0.19506086 0.705689 -0.177607 -0.10713832 0.1014329 -0.47130686 -0.51842606 0.077363
0.1308367 0.042420477 -0.10777761 -0.2073142 -0.028864678 0.39546338 -0.25515422 0.03368831
-0.016737191 -0.17731827 -0.74051815 -0.3556512 0.0030637728 0.09559003 -0.11511503 1.001932
-1.154602 0.1673527 0.80761546 0.07397339 -0.027726498 -0.116747 -0.04047352 -0.10735523
0.4186518 0.054882698 0.08749405
00000000: 01a1 d9be cf52 8c3d 9538 9c3e 8939 a1be
00000010: 902c 243e 1513 abbe 17c1 87be 3650 16bd
00000020: 8630 adbe 834e bbbe c505 973e ed7c ec3e
00000030: 34a6 3abe 31c7 6d3f 6655 b33d b9b1 3e3e
00000040: 3cab 64be cd1e 85bd 2ddf 1a3f c2a0 b93e
00000050: 006c 763f 50f0 a73e 195a 1ebe d2ce e7bb
00000060: 6448 903d 4e23 123d d463 6c3e 9dd0 5f3e
00000070: bb3d 853a edac 88be 151e 82be 1bac 44bd
00000080: ebae 3d3f dfca 993c d2f5 14bf cb82 b63e
00000090: 61e7 0dbe f625 ed3a e38b 73bf e159 92bd
000000a0: 8e48 753f 9167 b23e b6bf 9fbe 218f efbe
000000b0: 8733 353f 28d7 c53e e515 223e f1d3 723f
000000c0: fddf 3ebe d540 33bf 49be 67bf fb0c 89be
000000d0: 5c74 4d3f f81f f8bd cf63 3fbe f411 293f
000000e0: 6e41 c43d dae1 24bf ac49 59bf abac 833d
000000f0: 26ff 063e 3c44 c9be 51c7 66bd 0888 0e3f
00000100: 6855 4ebe ddc5 c13e 2e86 c53e 169b 6c3f
00000110: caaa 823e a57b 413e 920b 79be f733 ec3d
00000120: 8526 88be 1df0 11bf 8f6e 96be 121b 283c
00000130: edfd a2bd 0652 aebe 255e 9fbd ce76 14bd
00000140: de74 0ebf 82b7 95bd e4a9 183e 00c4 2a3e
00000150: be72 97bf 76ba d3be 0936 a33e 81ca 14be
00000160: 09be 473e 09a8 343f 9cde 35be 566b dbbd
00000170: 0dbc cf3d 224f f1be 92b7 04bf 7e70 9e3d
00000180: 0efa 053e 18c1 2d3d 82ba dcbd 2c4a 54be
00000190: 9e75 ecbc 2d7a ca3e 93a3 82be c1fc 093d
000001a0: 6f1c 89bc ec92 35be 9992 3dbf ea17 b6be
000001b0: 94c9 483b b5c4 c33d 6ec1 ebbd 4f3f 803f
000001c0: 00ca 93bf 825e 2b3e e3bf 4e3f 5c7f 973d
000001d0: ae22 e3bc 0d19 efbd 90c7 25bd 0fdd dbbd
000001e0: 8759 d63e aecc 603d 1530 b33d

exp_avg f4 [123]
0.010357781 0.018879613 -0.013562548 0.005477807 0.015043544 -0.0010301832 0.021746801 0.0056117703
-0.0016430683 -0.010381039 0.047263496 -0.033608206 0.012209288 0.03798121 -0.013690987 0.026600087
0.017336873 -0.005967772 -0.025378894 0.03710316 0.007916694 0.012174535 0.04227659 0.0037932822
0.007951499 -0.004136456 -0.015228862 0.020618755 0.01930791 0.01949449 -0.017023727 -0.024652686
-0.067651995 0.033627905 -0.04358732 -0.018449139 0.015986262 -0.0053755837 -0.0071388744 -0.02354185
0.03725243 -0.01089359 -0.0064807697 0.016798288 0.025799835 -0.04217939 -0.019612843 -0.012753147
0.015156937 -0.041866403 -0.021353617 0.028608892 -0.009728072 0.01632119 0.0045538936 -0.009162914
-0.012817393 -0.00840073 0.032760385 0.0040387195 0.011965916 0.006974486 -0.0055030766 0.0455668
0.055711467 -0.051457424 -0.037085395 -0.013965205 -0.005736327 0.00235011 -0.015644303 0.00085498113
-0.00068201235 0.011817258 0.01320411 -0.025332807 0.019792104 0.030350773 -0.028006675 0.025495198
-0.022858985 -0.06909381 0.04579273 0.023282057 0.027328111 0.06384818 -0.00042154285 -0.016796472
-0.023302058 -0.02323936 -0.036988854 0.018304965 0.030822514 0.049880594 0.026753895 0.008099868
-0.045554865 -0.020809876 0.03145722 -0.036841158 0.032921094 -0.026401576 0.042026535 -0.036891285
-0.0014089018 -0.03202179 0.026962347 0.0023091715 0.026672682 0.03947169 -0.0001432978 -0.008389659
0.007095773 -0.023282403 -0.041816887 -0.0008760832 0.007611886 -0.044965256 -0.01712587 -0.038908202
-0.057648644 0.0044241073 0.011092911
00000000: afb3 293c 6ba9 9a3c 7335 5ebc 2d7f b33b
00000010: 3279 763c 3607 87ba 5926 b23c f1e2 b73b
00000020: 395c d7ba 3c15 2abc 5e97 413d c2a8 09bd
00000030: 7709 483c 2f92 1b3d 2950 60bc 6de8 d93c
00000040: 0f06 8e3c 4d8d c3bb 66e7 cfbc 7cf9 173d
00000050: 05b5 013c b377 473c 382a 2d3d b798 783b
00000060: 0147 023c 1c8b 87bb 7a82 79bc aae8 a83c
00000070: 9f2b 9e3c e9b2 9f3c 5875 8bbc 6ef4 c9bc
00000080: 218d 8abd 6abd 093d 9e88 32bd a622 97bc
00000090: 9ff5 823c aa25 b0bb 38ed e9bb d6da c0bc
000000a0: 0196 183d 077b 32bc a35c d4bb 909c 893c
000000b0: 2d5a d33c 4cc4 2cbd 1dab a0bc 93f2 50bc
000000c0: cd54 783c 1b7c 2bbd c8ed aebc 325d ea3c
000000d0: 7e62 1fbc 04b4 853c d438 953b 0c20 16bc
000000e0: 0b00 52bc 37a3 09bc c12f 063d 3c57 843b
000000f0: b00c 443c 3b8a e43b 2753 b4bb 41a4 3a3d
00000100: b531 643d 05c5 52bd dbe6 17bd 51ce 64bc
00000110: ccf7 bbbb 4e04 1a3b 7b28 80bc d020 603a
00000120: 13c9 32ba 2c9d 413c 0d56 583c bf86 cfbc
00000130: 0d23 a23c 2fa2 f83c 416e e5bc 4edb d03c
00000140: c442 bbbc 0e81 8dbd 2891 3b3d 03ba be3c
00000150: 34df df3c d6c2 823d 8602 ddb9 c198 89bc
00000160: f5e3 bebc 7860 bebc a081 17bd 4bf4 953c
00000170: 7f7f fc3c 984f 4c3d fc2a db3c 4fb5 043c
00000180: bd97 3abd 7979 aabc 49d9 003d c1e6 16bd
00000190: 45d8 063d 1e48 d8bc 0424 2c3d 511b 17bd
000001a0: e6aa b8ba 4829 03bd 24e0 dc3c 7855 173b
000001b0: ab80 da3c 11ad 213d 3642 16b9 c874 09bc
000001c0: a883 e83b bdba bebc 2f48 2bbd f3a8 65ba
000001d0: 216d f93b 7d2d 38bd 8d4b 8cbc 355e 1fbd
000001e0: fc20 6cbd 1af8 903b 0abf 353c

exp_avg_sq f4 [123]
0.0010908433 0.001055349 0.0011312899 0.0009104163 0.00093290774 0.0007677682 0.00096959143 0.000740171
0.0010883841 0.0009263545 0.00075054617 0.0009610194 0.0010912227 0.0010929671 0.0008419919 0.0008309461
0.0007410786 0.0011233535 0.00079652865 0.0009386583 0.00074508303 0.0006550614 0.0012575258 0.0012497926
0.0010515808 0.0010160392 0.0008391907 0.00090582867 0.00085455645 0.000817891 0.0008030831 0.0010345901
0.0010798685 0.00085866003 0.0007863977 0.00093748997 0.0010328455 0.0010858043 0.0011079969 0.0009947256
0.0008209081 0.0011547086 0.0011658471 0.0013097138 0.000878364 0.0010210207 0.001102336 0.001226921
0.0012917646 0.0010970172 0.0011216744 0.00080493 0.000831488 0.0007698256 0.00086367904 0.00090142654
0.0008708694 0.00072904484 0.0008646347 0.0010356975 0.00076819013 0.0009397972 0.0010363987 0.00095564313
0.0010246373 0.00079087843 0.0008205247 0.0009737717 0.0010258888 0.00089975575 0.0007030635 0.0013444441
0.0011456857 0.000795555 0.0007152521 0.0010021974 0.0008538707 0.000853088 0.0008181795 0.0008684085
0.0012580343 0.0008795314 0.0011784424 0.0011932829 0.0007802975 0.0010331167 0.00093176955 0.0011134291
0.00070994033 0.00091665704 0.00076871045 0.0010832932 0.0011238661 0.0009889955 0.00095959567 0.0009566482
0.00085067947 0.001254895 0.00076801993 0.0010356245 0.0010512666 0.0010281549 0.0008283385 0.0011583415
0.0007477255 0.000840684 0.0008297461 0.0010116359 0.00069281517 0.0011227636 0.00088647695 0.0011482254
0.0009990383 0.00094370707 0.0010491724 0.0008043434 0.00096094306 0.0008306323 0.0013287402 0.0012847928
0.0011442569 0.0014055495 0.0010679676
00000000: a1fa 8e3a a353 8a3a ca47 943a 01a9 6e3a
00000010: 618e 743a 0d44 493a 2e2c 7e3a 0908 423a
00000020: 1ca8 8e3a 99d6 723a 4dc0 443a ecec 7b3a
00000030: 5c07 8f3a e441 8f3a 1fb9 5c3a d9d3 593a
00000040: f144 423a 7d3d 933a 22ce 503a 4b10 763a
00000050: ad51 433a 6db8 2b3a 90d3 a43a 15d0 a33a
00000060: 32d5 893a 9e2c 853a 22fd 5b3a 2275 6d3a
00000070: 5004 603a bc67 563a ff85 523a 159b 873a
00000080: 608a 8d3a b317 613a 4226 4e3a e3c1 753a
00000090: 8b60 873a 8c51 8e3a 353a 913a 7461 823a
000000a0: 3632 573a 9759 973a 56cf 983a b4aa ab3a
000000b0: 0342 663a c5d3 853a 427c 903a a3d0 a03a
000000c0: 6d50 a93a cac9 8f3a 2605 933a f001 533a
000000d0: 37f8 593a 1fce 493a 8568 623a b64d 6c3a
000000e0: 0e4b 643a 5f1d 3f3a a7a8 623a 3ec0 873a
000000f0: 5e60 493a b95c 763a c5d7 873a 2084 7a3a
00000100: 1f4d 863a f452 4f3a 7b18 573a b644 7f3a
00000110: 1e77 863a 96dd 6b3a cb4d 383a 0f38 b03a
00000120: d52a 963a cb8c 503a c27f 3b3a 2a5c 833a
00000130: 4bd6 5f3a c4a1 5f3a 197b 563a e8a5 633a
00000140: a0e4 a43a 5a90 663a f775 9a3a ee67 9c3a
00000150: e18c 4c3a a569 873a ff41 743a 7bf0 913a
00000160: 4a1b 3a3a d04b 703a 4983 493a 4afd 8d3a
00000170: b04e 933a 2fa1 813a 608d 7b3a 93c7 7a3a
00000180: 2200 5f3a 4a7b a43a f254 493a cbbd 873a
00000190: a7ca 893a 27c3 863a db24 593a 7ed3 973a
000001a0: 0203 443a 5961 5c3a 5183 593a de98 843a
000001b0: 0a9e 353a b229 933a 7662 683a 0d80 963a
000001c0: 2af2 823a 1c63 773a 6284 893a 92da 523a
000001d0: cce7 7b3a cabe 593a 1f29 ae3a 7e66 a83a
000001e0: e4fa 953a 6a3a b83a 0cfb 8b3a
