output/train_angle_autoencoder16_20260207_103540/model/train_angle_autoencoder16_20260207_103540_trained_qcnn.pth (torch, 2738 bytes, 2 tensors)

weight f4 [123]
0.4159732 -0.6263041 0.27698225 -0.650696 0.27174476 0.29401675 0.3423469 -0.043256905
-0.36729303 -0.57054865 0.33628908 -0.35510427 0.009934522 0.055075865 0.0025713108 -0.6674699
0.074731685 -0.43188515 0.4930118 -0.50371957 -0.102977954 -0.6683646 0.00069962675 0.20193204
-0.27289537 0.020026306 -0.6176193 -0.4040891 -0.09297765 -0.48271924 0.32856733 0.39219543
0.53551865 -0.5811118 -0.20676288 0.01068584 -0.080180354 -0.2656277 -0.6819926 0.17498915
0.1518546 0.12617634 -0.14394684 -0.4055792 -0.1784318 -0.6932197 0.75685805 -0.46684754
0.6175568 -1.0888437 0.19451761 -0.18567377 -0.5174176 -0.4768242 -0.08514931 0.26474836
-0.02750721 0.3282539 0.7444912 -0.2708208 -0.6233006 0.4614259 -0.5421163 0.080925025
0.27401364 -0.11763115 0.2709343 -0.23640451 0.8920246 0.56739455 -0.12761043 -0.4445556
0.23500963 -0.12067156 0.06816581 -0.72534513 0.3951053 -0.26571193 -0.15396477 0.16308936
0.13851638 -0.014087243 0.25146353 -0.57105696 0.46460482 -0.3097648 -0.4701265 0.19616932
-0.4408934 0.13777004 1.6373869 -1.2322254 -1.3884859 0.5493707 0.09687469 0.76811695
-0.41133764 0.8514199 0.7548351 -0.26776722 0.15012078 0.86169726 0.18767673 0.039019153
0.019272877 -0.037528135 -0.6091259 -0.4508351 0.022421228 -0.057841778 0.24001095 0.031516116
-0.23971382 0.13550994 -0.49801952 -0.36695498 0.043878373 0.013436921 -0.30101925 0.556163
-0.53006417 0.3018886 -0.47837657
00000000: 70fa d43e 7755 20bf 9ed0 8d3e 0394 26bf
00000010: 2122 8b3e 5d89 963e 1848 af3e 272e 31bd
00000020: d50d bcbe 7a0f 12bf 152e ac3e 3ad0 b5be
00000030: 68c4 223c 3b97 613d 7083 283b 4fdf 2abf
00000040: ed0c 993d 0d20 ddbe 0b6c fc3e c4f3 00bf
00000050: 1be6 d2bd f119 2bbf 2867 373a 46c7 4e3e
00000060: f1b8 8bbe 350e a43c 4c1c 1ebf c4e4 cebe
00000070: 116b bebd fa26 f7be fa39 a83e d7cd c83e
00000080: c017 093f bec3 14bf a6b9 53be a913 2f3c
00000090: 9935 a4bd 5b00 88be 1197 2ebf 5b30 333e
000000a0: c67f 1b3e 5f34 013e cd66 13be 14a8 cfbe
000000b0: d3b6 36be d976 31bf 73c1 413f a406 efbe
000000c0: 3418 1e3f 3b5f 8bbf a02f 473e 4421 3ebe
000000d0: 7b75 04bf 4d22 f4be c362 aebd 198d 873e
000000e0: cd56 e1bc e510 a83e fa96 3e3f 06a9 8abe
000000f0: a190 1fbf 0440 ec3e 22c8 0abf 05bc a53d
00000100: 844b 8c3e 9ae8 f0bd e7b7 8a3e 0614 72be
00000110: b95b 643f c540 113f 4fac 02be cb9c e3be
00000120: 5da6 703e a722 f7bd 849a 8b3d 38b0 39bf
00000130: 3e4b ca3e 650b 88be f1a8 1dbe e600 273e
00000140: 3dd7 0d3e 2ece 66bc d4bf 803e ca30 12bf
00000150: afe0 ed3e 7e99 9ebe 6cb4 f0be 9ce0 483e
00000160: c8bc e1be 9713 0d3e e595 d13f 90b9 9dbf
00000170: e8b9 b1bf 8fa3 0c3f 3d66 c63d 50a3 443f
00000180: d99a d2be a8f6 593f e03c 413f c918 89be
00000190: 43b9 193e 3198 5c3f 542e 403e 8cd2 1f3d
000001a0: 27e2 9d3c 1ab7 19bd adef 1bbf dcd3 e6be
000001b0: b9ac b73c 80eb 6cbd 6ec5 753e 0b17 013d
000001c0: 8a77 75be 1ec3 0a3e 6afc febe 86e1 bbbe
000001d0: cfb9 333d 8826 5c3c 321f 9abe b360 0e3f
000001e0: 49b2 07bf 2591 9a3e c6ed f4be

_weights f4 [123]
0.4159732 -0.6263041 0.27698225 -0.650696 0.27174476 0.29401675 0.3423469 -0.043256905
-0.36729303 -0.57054865 0.33628908 -0.35510427 0.009934522 0.055075865 0.0025713108 -0.6674699
0.074731685 -0.43188515 0.4930118 -0.50371957 -0.102977954 -0.6683646 0.00069962675 0.20193204
-0.27289537 0.020026306 -0.6176193 -0.4040891 -0.09297765 -0.48271924 0.32856733 0.39219543
0.53551865 -0.5811118 -0.20676288 0.01068584 -0.080180354 -0.2656277 -0.6819926 0.17498915
0.1518546 0.12617634 -0.14394684 -0.4055792 -0.1784318 -0.6932197 0.75685805 -0.46684754
0.6175568 -1.0888437 0.19451761 -0.18567377 -0.5174176 -0.4768242 -0.08514931 0.26474836
-0.02750721 0.3282539 0.7444912 -0.2708208 -0.6233006 0.4614259 -0.5421163 0.080925025
0.27401364 -0.11763115 0.2709343 -0.23640451 0.8920246 0.56739455 -0.12761043 -0.4445556
0.23500963 -0.12067156 0.06816581 -0.72534513 0.3951053 -0.26571193 -0.15396477 0.16308936
0.13851638 -0.014087243 0.25146353 -0.57105696 0.46460482 -0.3097648 -0.4701265 0.19616932
-0.4408934 0.13777004 1.6373869 -1.2322254 -1.3884859 0.5493707 0.09687469 0.76811695
-0.41133764 0.8514199 0.7548351 -0.26776722 0.15012078 0.86169726 0.18767673 0.039019153
0.019272877 -0.037528135 -0.6091259 -0.4508351 0.022421228 -0.057841778 0.24001095 0.031516116
-0.23971382 0.13550994 -0.49801952 -0.36695498 0.043878373 0.013436921 -0.30101925 0.556163
-0.53006417 0.3018886 -0.47837657
00000000: 70fa d43e 7755 20bf 9ed0 8d3e 0394 26bf
00000010: 2122 8b3e 5d89 963e 1848 af3e 272e 31bd
00000020: d50d bcbe 7a0f 12bf 152e ac3e 3ad0 b5be
00000030: 68c4 223c 3b97 613d 7083 283b 4fdf 2abf
00000040: ed0c 993d 0d20 ddbe 0b6c fc3e c4f3 00bf
00000050: 1be6 d2bd f119 2bbf 2867 373a 46c7 4e3e
00000060: f1b8 8bbe 350e a43c 4c1c 1ebf c4e4 cebe
00000070: 116b bebd fa26 f7be fa39 a83e d7cd c83e
00000080: c017 093f bec3 14bf a6b9 53be a913 2f3c
00000090: 9935 a4bd 5b00 88be 1197 2ebf 5b30 333e
000000a0: c67f 1b3e 5f34 013e cd66 13be 14a8 cfbe
000000b0: d3b6 36be d976 31bf 73c1 413f a406 efbe
000000c0: 3418 1e3f 3b5f 8bbf a02f 473e 4421 3ebe
000000d0: 7b75 04bf 4d22 f4be c362 aebd 198d 873e
000000e0: cd56 e1bc e510 a83e fa96 3e3f 06a9 8abe
000000f0: a190 1fbf 0440 ec3e 22c8 0abf 05bc a53d
00000100: 844b 8c3e 9ae8 f0bd e7b7 8a3e 0614 72be
00000110: b95b 643f c540 113f 4fac 02be cb9c e3be
00000120: 5da6 703e a722 f7bd 849a 8b3d 38b0 39bf
00000130: 3e4b ca3e 650b 88be f1a8 1dbe e600 273e
00000140: 3dd7 0d3e 2ece 66bc d4bf 803e ca30 12bf
00000150: afe0 ed3e 7e99 9ebe 6cb4 f0be 9ce0 483e
00000160: c8bc e1be 9713 0d3e e595 d13f 90b9 9dbf
00000170: e8b9 b1bf 8fa3 0c3f 3d66 c63d 50a3 443f
00000180: d99a d2be a8f6 593f e03c 413f c918 89be
00000190: 43b9 193e 3198 5c3f 542e 403e 8cd2 1f3d
000001a0: 27e2 9d3c 1ab7 19bd adef 1bbf dcd3 e6be
000001b0: b9ac b73c 80eb 6cbd 6ec5 753e 0b17 013d
000001c0: 8a77 75be 1ec3 0a3e 6afc febe 86e1 bbbe
000001d0: cfb9 333d 8826 5c3c 321f 9abe b360 0e3f
000001e0: 49b2 07bf 2591 9a3e c6ed f4be
