output/fashionmnist_02_ae_train_angle_autoencoder16_20260203_201720/model/train_angle_autoencoder16_20260203_201720_trained_qcnn.pth (torch, 2738 bytes, 2 tensors)

weight f4 [123]
0	0xbf9a08c7	-1.2033929
1	0x3f9c82d8	1.222743
2	0x3f7e934c	0.9944351
3	0x3f561705	0.83628875
4	0xbf6d7eb9	-0.9277149
5	0x3e8fee02	0.28111273
6	0xbe0510f6	-0.12994751
7	0x3e612623	0.21987204
8	0xbf92e00e	-1.1474626
9	0x3daa0c04	0.08303073
10	0xbe84f20b	-0.25965914
11	0xbe17e377	-0.14832865
12	0xbddf548c	-0.10904798
13	0xbe1b2e5f	-0.15154408
14	0xbd8edc52	-0.069756165
15	0xbf065ac2	-0.52482235
16	0xbeb3cf4a	-0.35119087
17	0x3f252cf1	0.645217
18	0x3de5f5c7	0.11228519
19	0x3deb3469	0.11484606
20	0xbd966702	-0.07343866
21	0xbea5a1fb	-0.32350144
22	0xbdc7b7c8	-0.0975185
23	0xbe026516	-0.12733874
24	0xbda53afc	-0.08067891
25	0x3dd10a5a	0.102070525
26	0x3f5842a2	0.84476674
27	0x3f05510d	0.520768
28	0xbead85ab	-0.33891043
29	0xbf3e04d5	-0.74226123
30	0x3dae522a	0.08511765
31	0xbd736b8d	-0.05942874
32	0xbe26152b	-0.16219012
33	0x3e67dcd6	0.22642836
34	0xbed5fae5	-0.4179298
35	0xbecc43f6	-0.398956
36	0x3e590aaa	0.21195474
37	0xbed761b8	-0.4206674
38	0x3da18f44	0.07888654
39	0xbd8e9266	-0.06961517
40	0xbf01603e	-0.5053748
41	0x3fc0ffb8	1.5078039
42	0x3f1c7aad	0.6112469
43	0x3dce8d13	0.100855015
44	0x3f08f730	0.5350218
45	0x3ef67dc0	0.48142815
46	0x3f69f265	0.9138549
47	0xbd741184	-0.059587017
48	0xbecf41de	-0.4047994
49	0xbfbe93cd	-1.4888855
50	0x3e7a7dbe	0.2446203
51	0xbdfe5528	-0.12418586
52	0xbf67af24	-0.9050162
53	0xbf5d3cf0	-0.8642111
54	0xbf1591cd	-0.584256
55	0xbf7995b9	-0.97494084
56	0x3e7e8561	0.24855568
57	0x3f68cc7f	0.90937036
58	0xbf3a50ca	-0.72779524
59	0x3e8b6020	0.27221775
60	0x3f30541d	0.68878347
61	0xbccd7c41	-0.025083663
62	0x3caa2e74	0.020774104
63	0x3eaa491f	0.33258912
64	0x3db0762f	0.08616292
65	0x3f11975e	0.56871593
66	0xbf28207f	-0.65674585
67	0xbd62ca5d	-0.05536877
68	0xbec92415	-0.3928534
69	0x3f2a6e24	0.6657431
70	0xbf6d60e9	-0.92726
71	0xbe5e5191	-0.21710803
72	0xbf03feac	-0.51560473
73	0xbe453159	-0.19257106
74	0xbebcb758	-0.3685863
75	0x3f05342d	0.5203274
76	0xbe18fb2d	-0.14939566
77	0xbe65347c	-0.22383302
78	0x3e486242	0.19568732
79	0x3e143ba2	0.14475873
80	0x3f082ceb	0.5319354
81	0xbe7338e1	-0.23752166
82	0xbd802c29	-0.06258423
83	0xbe6067f6	-0.21914658
84	0xbf491498	-0.7854705
85	0x3e8d5be2	0.27609164
86	0x3e222cd4	0.15837413
87	0xbe60a47a	-0.21937743
88	0xbf92975d	-1.1452442
89	0x3f9a64a4	1.2061963
90	0x3e82b6a5	0.25529972
91	0xbf9bab6e	-1.2161691
92	0x3e04211b	0.12903254
93	0x3e33f58d	0.17574139
94	0x3fa81030	1.312994
95	0xbfca82cc	-1.5821166
96	0xbd273ed8	-0.040831417
97	0xbf0ca9f9	-0.5494686
98	0x3e072aad	0.13199873
99	0xbe89a414	-0.26882994
100	0x3eb1da3a	0.34736806
101	0x3f312cda	0.69209063
102	0x3e26fe2c	0.16307896
103	0xbf216b0e	-0.6305398
104	0x3e88a99b	0.266919
105	0xbf37a5ff	-0.71737665
106	0xbf731c0e	-0.94964683
107	0x3f0c3b76	0.5477823
108	0xbef3c08e	-0.47607845
109	0xbf84cda3	-1.0375255
110	0x3f935014	1.1508813
111	0xbe4d9ae4	-0.20078617
112	0x3f64d6d7	0.8939032
113	0x3f328468	0.69733286
114	0x3e620479	0.22072019
115	0x3eb91b71	0.3615375
116	0xbed13d4d	-0.4086708
117	0xbeb1fc04	-0.34762585
118	0xbe1041c4	-0.14087588
119	0x3f2131b2	0.62966454
120	0xbf00011d	-0.500017
121	0xbbfdd964	-0.0077468622
122	0xbf17885b	-0.59192437

_weights f4 [123]
0	0xbf9a08c7	-1.2033929
1	0x3f9c82d8	1.222743
2	0x3f7e934c	0.9944351
3	0x3f561705	0.83628875
4	0xbf6d7eb9	-0.9277149
5	0x3e8fee02	0.28111273
6	0xbe0510f6	-0.12994751
7	0x3e612623	0.21987204
8	0xbf92e00e	-1.1474626
9	0x3daa0c04	0.08303073
10	0xbe84f20b	-0.25965914
11	0xbe17e377	-0.14832865
12	0xbddf548c	-0.10904798
13	0xbe1b2e5f	-0.15154408
14	0xbd8edc52	-0.069756165
15	0xbf065ac2	-0.52482235
16	0xbeb3cf4a	-0.35119087
17	0x3f252cf1	0.645217
18	0x3de5f5c7	0.11228519
19	0x3deb3469	0.11484606
20	0xbd966702	-0.07343866
21	0xbea5a1fb	-0.32350144
22	0xbdc7b7c8	-0.0975185
23	0xbe026516	-0.12733874
24	0xbda53afc	-0.08067891
25	0x3dd10a5a	0.102070525
26	0x3f5842a2	0.84476674
27	0x3f05510d	0.520768
28	0xbead85ab	-0.33891043
29	0xbf3e04d5	-0.74226123
30	0x3dae522a	0.08511765
31	0xbd736b8d	-0.05942874
32	0xbe26152b	-0.16219012
33	0x3e67dcd6	0.22642836
34	0xbed5fae5	-0.4179298
35	0xbecc43f6	-0.398956
36	0x3e590aaa	0.21195474
37	0xbed761b8	-0.4206674
38	0x3da18f44	0.07888654
39	0xbd8e9266	-0.06961517
40	0xbf01603e	-0.5053748
41	0x3fc0ffb8	1.5078039
42	0x3f1c7aad	0.6112469
43	0x3dce8d13	0.100855015
44	0x3f08f730	0.5350218
45	0x3ef67dc0	0.48142815
46	0x3f69f265	0.9138549
47	0xbd741184	-0.059587017
48	0xbecf41de	-0.4047994
49	0xbfbe93cd	-1.4888855
50	0x3e7a7dbe	0.2446203
51	0xbdfe5528	-0.12418586
52	0xbf67af24	-0.9050162
53	0xbf5d3cf0	-0.8642111
54	0xbf1591cd	-0.584256
55	0xbf7995b9	-0.97494084
56	0x3e7e8561	0.24855568
57	0x3f68cc7f	0.90937036
58	0xbf3a50ca	-0.72779524
59	0x3e8b6020	0.27221775
60	0x3f30541d	0.68878347
61	0xbccd7c41	-0.025083663
62	0x3caa2e74	0.020774104
63	0x3eaa491f	0.33258912
64	0x3db0762f	0.08616292
65	0x3f11975e	0.56871593
66	0xbf28207f	-0.65674585
67	0xbd62ca5d	-0.05536877
68	0xbec92415	-0.3928534
69	0x3f2a6e24	0.6657431
70	0xbf6d60e9	-0.92726
71	0xbe5e5191	-0.21710803
72	0xbf03feac	-0.51560473
73	0xbe453159	-0.19257106
74	0xbebcb758	-0.3685863
75	0x3f05342d	0.5203274
76	0xbe18fb2d	-0.14939566
77	0xbe65347c	-0.22383302
78	0x3e486242	0.19568732
79	0x3e143ba2	0.14475873
80	0x3f082ceb	0.5319354
81	0xbe7338e1	-0.23752166
82	0xbd802c29	-0.06258423
83	0xbe6067f6	-0.21914658
84	0xbf491498	-0.7854705
85	0x3e8d5be2	0.27609164
86	0x3e222cd4	0.15837413
87	0xbe60a47a	-0.21937743
88	0xbf92975d	-1.1452442
89	0x3f9a64a4	1.2061963
90	0x3e82b6a5	0.25529972
91	0xbf9bab6e	-1.2161691
92	0x3e04211b	0.12903254
93	0x3e33f58d	0.17574139
94	0x3fa81030	1.312994
95	0xbfca82cc	-1.5821166
96	0xbd273ed8	-0.040831417
97	0xbf0ca9f9	-0.5494686
98	0x3e072aad	0.13199873
99	0xbe89a414	-0.26882994
100	0x3eb1da3a	0.34736806
101	0x3f312cda	0.69209063
102	0x3e26fe2c	0.16307896
103	0xbf216b0e	-0.6305398
104	0x3e88a99b	0.266919
105	0xbf37a5ff	-0.71737665
106	0xbf731c0e	-0.94964683
107	0x3f0c3b76	0.5477823
108	0xbef3c08e	-0.47607845
109	0xbf84cda3	-1.0375255
110	0x3f935014	1.1508813
111	0xbe4d9ae4	-0.20078617
112	0x3f64d6d7	0.8939032
113	0x3f328468	0.69733286
114	0x3e620479	0.22072019
115	0x3eb91b71	0.3615375
116	0xbed13d4d	-0.4086708
117	0xbeb1fc04	-0.34762585
118	0xbe1041c4	-0.14087588
119	0x3f2131b2	0.62966454
120	0xbf00011d	-0.500017
121	0xbbfdd964	-0.0077468622
122	0xbf17885b	-0.59192437
