output/train_angle_autoencoder16_20260207_103655/model/train_angle_autoencoder16_20260207_103655_trained_qcnn.pth (torch, 2738 bytes, 2 tensors)

weight f4 [123]
00000000: 668a ff3d 8e37 32bf 678a 073f 757f 663e
00000010: 5143 ed3e a333 38be ce9a 9dbd 166c 34be
00000020: 1a75 063f 57d6 023c a182 99be e811 72bf
00000030: d5a2 bebe ef40 f9be b94a 883e c2a3 11bf
00000040: aa1e 833e 8faf b43d da56 22be b18a e6be
00000050: d1a2 063e c9a5 adbe b536 03bc d20a a03e
00000060: a653 9abe d5da 45be 7d3e b83e 80b0 133b
00000070: bfe6 ae3e eb03 47bf ed17 e83e 826d 3cbe
00000080: 6457 223f d946 3d3e b150 d33e 21b1 7d3e
00000090: f8e9 03bf 356a 0bbe 33ee a13e 80f8 003f
000000a0: 597b 113e d1e2 423f 838e 09bf f930 853e
000000b0: c9ec 5fbe fde2 d13e 4bc4 a53c 4a57 83bd
000000c0: 1afe c93c 0e57 983e 7687 e43e 3248 9f3e
000000d0: 4c4c 033f 2859 393f 23e3 96be e3a9 b0bd
000000e0: 878a d8be df82 b73e 39e7 32bf 9f98 2fbf
000000f0: 0ec4 db3d 8508 f8be 8942 453d 7b40 8c3e
00000100: 8aa6 d2be e194 52bf b9d7 143e ad60 40be
00000110: 28c6 cfbe 596a 323e f563 13bf 9619 cd3e
00000120: 73a9 073f dadd 4a3f 85d3 45bd 02ab 013f
00000130: 55a6 1a3e 41d1 523d d33d 113e 5110 0dbe
00000140: 8973 563b 663f 00bf 91d0 1dbf 2520 1abf
00000150: b84e 0e3f 3ae2 b13e 24e5 dabd 595a d83d
00000160: d1ad e33d 0f1f 62bd c951 91be 608f db3e
00000170: 4476 24bc 95da 7dbe 6216 07bf ffcc 47be
00000180: 5f47 f43e ba23 d9be c691 e6be f07e 1e3f
00000190: d843 d1be 07b2 dbbe 6933 e53d 2106 413f
000001a0: 3a5b 67be a618 f3bd 324f 84be 0089 1a3e
000001b0: 6812 653e 6c48 303f 5168 63bb 9e4c 453e
000001c0: 5cde c5be 8967 e63e 3ca4 fd3e 3615 8a3e
000001d0: 0517 a3be 78bb 063f cfe0 5ebe 904d 09be
000001e0: ae2f a1be a497 073f 2eb3 b8bd
0.12477569 -0.6961602 0.5294556 0.22509558 0.4634042 -0.17988448 -0.07695542 -0.17619357
0.5252243 0.007985673 -0.29982474 -0.9455857 -0.37233606 -0.48682353 0.2661951 -0.568905
0.25609332 0.08822548 -0.15853444 -0.45027688 0.13148047 -0.33915547 -0.008008649 0.31258255
-0.30141944 -0.19321759 0.35985175 0.0022535622 0.3416042 -0.77740353 0.45330754 -0.18401149
0.634146 0.18484057 0.412725 0.247746 -0.51528883 -0.13614734 0.31627044 0.5037918
0.1420721 0.76127344 -0.5373308 0.26013926 -0.2186767 0.4099349 0.020235201 -0.064131334
0.024657298 0.29753917 0.44634598 0.31109768 0.51288295 0.72401667 -0.29470167 -0.08626153
-0.42293188 0.35842034 -0.6988407 -0.68592256 0.10730754 -0.48444 0.048159156 0.27392945
-0.41142684 -0.8225842 0.14535417 -0.18786879 -0.4058087 0.17423381 -0.575744 0.40058583
0.52992934 0.7924477 -0.048297424 0.5065156 0.15102513 0.05146909 0.1418374 -0.13775755
0.0032722673 -0.5009674 -0.6164637 -0.602053 0.55588865 0.3474291 -0.10688236 0.105641074
0.11117137 -0.0552054 -0.2838271 0.42882824 -0.010037962 -0.24790414 -0.5276853 -0.19511794
0.47710702 -0.4241007 -0.4503309 0.6191244 -0.40872073 -0.42909262 0.11191446 0.75399977
-0.22593394 -0.11869936 -0.2584167 0.15091324 0.22370303 0.68860507 -0.0034699629 0.19267508
-0.3864621 0.45000866 0.49539363 0.26969308 -0.318535 0.52629805 -0.21765445 -0.13408494
-0.3148169 0.5296576 -0.09018551

_weights f4 [123]
00000000: 668a ff3d 8e37 32bf 678a 073f 757f 663e
00000010: 5143 ed3e a333 38be ce9a 9dbd 166c 34be
00000020: 1a75 063f 57d6 023c a182 99be e811 72bf
00000030: d5a2 bebe ef40 f9be b94a 883e c2a3 11bf
00000040: aa1e 833e 8faf b43d da56 22be b18a e6be
00000050: d1a2 063e c9a5 adbe b536 03bc d20a a03e
00000060: a653 9abe d5da 45be 7d3e b83e 80b0 133b
00000070: bfe6 ae3e eb03 47bf ed17 e83e 826d 3cbe
00000080: 6457 223f d946 3d3e b150 d33e 21b1 7d3e
00000090: f8e9 03bf 356a 0bbe 33ee a13e 80f8 003f
000000a0: 597b 113e d1e2 423f 838e 09bf f930 853e
000000b0: c9ec 5fbe fde2 d13e 4bc4 a53c 4a57 83bd
000000c0: 1afe c93c 0e57 983e 7687 e43e 3248 9f3e
000000d0: 4c4c 033f 2859 393f 23e3 96be e3a9 b0bd
000000e0: 878a d8be df82 b73e 39e7 32bf 9f98 2fbf
000000f0: 0ec4 db3d 8508 f8be 8942 453d 7b40 8c3e
00000100: 8aa6 d2be e194 52bf b9d7 143e ad60 40be
00000110: 28c6 cfbe 596a 323e f563 13bf 9619 cd3e
00000120: 73a9 073f dadd 4a3f 85d3 45bd 02ab 013f
00000130: 55a6 1a3e 41d1 523d d33d 113e 5110 0dbe
00000140: 8973 563b 663f 00bf 91d0 1dbf 2520 1abf
00000150: b84e 0e3f 3ae2 b13e 24e5 dabd 595a d83d
00000160: d1ad e33d 0f1f 62bd c951 91be 608f db3e
00000170: 4476 24bc 95da 7dbe 6216 07bf ffcc 47be
00000180: 5f47 f43e ba23 d9be c691 e6be f07e 1e3f
00000190: d843 d1be 07b2 dbbe 6933 e53d 2106 413f
000001a0: 3a5b 67be a618 f3bd 324f 84be 0089 1a3e
000001b0: 6812 653e 6c48 303f 5168 63bb 9e4c 453e
000001c0: 5cde c5be 8967 e63e 3ca4 fd3e 3615 8a3e
000001d0: 0517 a3be 78bb 063f cfe0 5ebe 904d 09be
000001e0: ae2f a1be a497 073f 2eb3 b8bd
0.12477569 -0.6961602 0.5294556 0.22509558 0.4634042 -0.17988448 -0.07695542 -0.17619357
0.5252243 0.007985673 -0.29982474 -0.9455857 -0.37233606 -0.48682353 0.2661951 -0.568905
0.25609332 0.08822548 -0.15853444 -0.45027688 0.13148047 -0.33915547 -0.008008649 0.31258255
-0.30141944 -0.19321759 0.35985175 0.0022535622 0.3416042 -0.77740353 0.45330754 -0.18401149
0.634146 0.18484057 0.412725 0.247746 -0.51528883 -0.13614734 0.31627044 0.5037918
0.1420721 0.76127344 -0.5373308 0.26013926 -0.2186767 0.4099349 0.020235201 -0.064131334
0.024657298 0.29753917 0.44634598 0.31109768 0.51288295 0.72401667 -0.29470167 -0.08626153
-0.42293188 0.35842034 -0.6988407 -0.68592256 0.10730754 -0.48444 0.048159156 0.27392945
-0.41142684 -0.8225842 0.14535417 -0.18786879 -0.4058087 0.17423381 -0.575744 0.40058583
0.52992934 0.7924477 -0.048297424 0.5065156 0.15102513 0.05146909 0.1418374 -0.13775755
0.0032722673 -0.5009674 -0.6164637 -0.602053 0.55588865 0.3474291 -0.10688236 0.105641074
0.11117137 -0.0552054 -0.2838271 0.42882824 -0.010037962 -0.24790414 -0.5276853 -0.19511794
0.47710702 -0.4241007 -0.4503309 0.6191244 -0.40872073 -0.42909262 0.11191446 0.75399977
-0.22593394 -0.11869936 -0.2584167 0.15091324 0.22370303 0.68860507 -0.0034699629 0.19267508
-0.3864621 0.45000866 0.49539363 0.26969308 -0.318535 0.52629805 -0.21765445 -0.13408494
-0.3148169 0.5296576 -0.09018551
