output/train_angle_autoencoder16_20260212_130821/model/train_angle_autoencoder16_20260212_130821_trained_qcnn.pth (torch, 2738 bytes, 2 tensors)

weight f4 [123]
-0.021851044 -0.3160557 -0.31120446 0.20651847 0.42137626 0.08881231 -0.30538285 -0.0030295665
0.004234548 0.28767753 0.27726862 0.4271253 0.7059753 0.17906971 -0.5420667 -0.027313301
-0.011851059 0.34618232 0.22931841 -0.52581024 -0.18546246 -0.28948057 -0.073523074 0.41846818
-0.12021432 0.6148964 -0.049254797 -0.383398 0.35931253 -0.14889114 1.0160705 -0.610224
-0.78481483 0.098777734 0.29937622 0.08540285 -0.33869746 -0.31299 -0.5718302 0.03619603
0.65007186 -0.30933213 -0.3309408 0.2758724 -0.50506073 -0.52550375 0.093380734 -0.20373887
-0.12938367 -0.65882766 0.6486817 0.37995914 0.3648388 -0.11283178 0.35699373 0.14010675
0.25886744 -0.61793953 0.0034773187 0.62374926 0.22242752 -0.325532 0.030942446 -0.0769622
-0.38046682 0.21188158 -0.37613857 -0.36535227 -0.32255024 -0.31851685 -0.5080048 0.2174473
-0.35819492 -0.1735044 0.42864197 -0.5949936 -0.22948064 0.039437912 0.029308489 -0.13189866
-0.14403747 0.19513367 -0.38654435 0.24616756 -0.21091089 -0.22163673 -0.11880632 0.13601935
0.014236088 -0.41159403 -0.31276923 0.08082207 -0.23452559 0.056732696 0.18597427 0.30991295
-0.2755698 0.3357104 0.003019618 -0.22624645 -0.55495334 0.43186304 -0.436658 -0.14391607
0.48547468 -0.342318 -0.12455235 0.115489885 0.51062024 -0.18715541 -0.38632858 0.5310886
0.39233634 -0.11079144 0.20560302 -0.35603955 0.62366015 -0.18017444 -0.05272272 -0.4620987
0.0947214 -0.24370866 -0.24910207
00000000: f600 b3bc 0dd2 a1be 3156 9fbe 9479 533e
00000010: a1be d73e 3ae3 b53d 245b 9cbe b18b 46bb
00000020: f7c1 8a3b 784a 933e 27f6 8d3e 2bb0 da3e
00000030: ccba 343f 0d5e 373e e2c4 0abf 25c0 dfbc
00000040: f22a 42bc cf3e b13e 72d2 6a3e 809b 06bf
00000050: dfe9 3dbe cc36 94be 4493 96bd 7641 d63e
00000060: ed32 f6bd da69 1d3f 66bf 49bd be4c c4be
00000070: d0f7 b73e eb76 18be 990e 823f a437 1cbf
00000080: a0e9 48bf fb4b ca3d d747 993e b0e7 ae3d
00000090: c169 adbe 3a40 a0be 7763 12bf 4a42 143d
000000a0: 1c6b 263f c860 9ebe 1371 a9be 263f 8d3e
000000b0: a94b 01bf 6a87 06bf 663e bf3d eca0 50be
000000c0: 277d 04be eea8 28bf 0110 263f 018a c23e
000000d0: 27cc ba3e 5914 e7bd e2c7 b63e 2578 0f3e
000000e0: 468a 843e 4931 1ebf bae3 633b 08ae 1f3f
000000f0: 0ac4 633e 21ac a6be 037b fd3c 5c9e 9dbd
00000100: 8ccc c2be 7cf7 583e 3c95 c0be 740f bbbe
00000110: 4e25 a5be a414 a3be 9a0c 02bf 81aa 5e3e
00000120: 5365 b7be 23ab 31be f676 db3e 8051 18bf
00000130: f9fc 6abe a689 213d 5b18 f03c 7110 07be
00000140: 8f7e 13be 1fd1 473e 24e9 c5be 5913 7c3e
00000150: 06f9 57be bdf4 62be ba50 f3bd a848 0b3e
00000160: 7b3e 693c 74bc d2be 4a23 a0be 0b86 a53d
00000170: 7a27 70be 8b60 683d 0a70 3e3e e9ac 9e3e
00000180: 7c17 8dbe 3ce2 ab3e c9e4 453b 26ad 67be
00000190: 6c11 0ebf 271d dd3e a391 dfbe bc5e 13be
000001a0: 2390 f83e 4e44 afbe 4d15 ffbd f685 ec3d
000001b0: 02b8 023f aba5 3fbe dccc c5be 6cf5 073f
000001c0: 4fe0 c83e 9fe6 e2bd 9989 523e d14a b6be
000001d0: 31a8 1f3f a67f 38be c7f3 57bd 3398 ecbe
000001e0: 4bfd c13d c38e 79be 9d14 7fbe

_weights f4 [123]
-0.021851044 -0.3160557 -0.31120446 0.20651847 0.42137626 0.08881231 -0.30538285 -0.0030295665
0.004234548 0.28767753 0.27726862 0.4271253 0.7059753 0.17906971 -0.5420667 -0.027313301
-0.011851059 0.34618232 0.22931841 -0.52581024 -0.18546246 -0.28948057 -0.073523074 0.41846818
-0.12021432 0.6148964 -0.049254797 -0.383398 0.35931253 -0.14889114 1.0160705 -0.610224
-0.78481483 0.098777734 0.29937622 0.08540285 -0.33869746 -0.31299 -0.5718302 0.03619603
0.65007186 -0.30933213 -0.3309408 0.2758724 -0.50506073 -0.52550375 0.093380734 -0.20373887
-0.12938367 -0.65882766 0.6486817 0.37995914 0.3648388 -0.11283178 0.35699373 0.14010675
0.25886744 -0.61793953 0.0034773187 0.62374926 0.22242752 -0.325532 0.030942446 -0.0769622
-0.38046682 0.21188158 -0.37613857 -0.36535227 -0.32255024 -0.31851685 -0.5080048 0.2174473
-0.35819492 -0.1735044 0.42864197 -0.5949936 -0.22948064 0.039437912 0.029308489 -0.13189866
-0.14403747 0.19513367 -0.38654435 0.24616756 -0.21091089 -0.22163673 -0.11880632 0.13601935
0.014236088 -0.41159403 -0.31276923 0.08082207 -0.23452559 0.056732696 0.18597427 0.30991295
-0.2755698 0.3357104 0.003019618 -0.22624645 -0.55495334 0.43186304 -0.436658 -0.14391607
0.48547468 -0.342318 -0.12455235 0.115489885 0.51062024 -0.18715541 -0.38632858 0.5310886
0.39233634 -0.11079144 0.20560302 -0.35603955 0.62366015 -0.18017444 -0.05272272 -0.4620987
0.0947214 -0.24370866 -0.24910207
00000000: f600 b3bc 0dd2 a1be 3156 9fbe 9479 533e
00000010: a1be d73e 3ae3 b53d 245b 9cbe b18b 46bb
00000020: f7c1 8a3b 784a 933e 27f6 8d3e 2bb0 da3e
00000030: ccba 343f 0d5e 373e e2c4 0abf 25c0 dfbc
00000040: f22a 42bc cf3e b13e 72d2 6a3e 809b 06bf
00000050: dfe9 3dbe cc36 94be 4493 96bd 7641 d63e
00000060: ed32 f6bd da69 1d3f 66bf 49bd be4c c4be
00000070: d0f7 b73e eb76 18be 990e 823f a437 1cbf
00000080: a0e9 48bf fb4b ca3d d747 993e b0e7 ae3d
00000090: c169 adbe 3a40 a0be 7763 12bf 4a42 143d
000000a0: 1c6b 263f c860 9ebe 1371 a9be 263f 8d3e
000000b0: a94b 01bf 6a87 06bf 663e bf3d eca0 50be
000000c0: 277d 04be eea8 28bf 0110 263f 018a c23e
000000d0: 27cc ba3e 5914 e7bd e2c7 b63e 2578 0f3e
000000e0: 468a 843e 4931 1ebf bae3 633b 08ae 1f3f
000000f0: 0ac4 633e 21ac a6be 037b fd3c 5c9e 9dbd
00000100: 8ccc c2be 7cf7 583e 3c95 c0be 740f bbbe
00000110: 4e25 a5be a414 a3be 9a0c 02bf 81aa 5e3e
00000120: 5365 b7be 23ab 31be f676 db3e 8051 18bf
00000130: f9fc 6abe a689 213d 5b18 f03c 7110 07be
00000140: 8f7e 13be 1fd1 473e 24e9 c5be 5913 7c3e
00000150: 06f9 57be bdf4 62be ba50 f3bd a848 0b3e
00000160: 7b3e 693c 74bc d2be 4a23 a0be 0b86 a53d
00000170: 7a27 70be 8b60 683d 0a70 3e3e e9ac 9e3e
00000180: 7c17 8dbe 3ce2 ab3e c9e4 453b 26ad 67be
00000190: 6c11 0ebf 271d dd3e a391 dfbe bc5e 13be
000001a0: 2390 f83e 4e44 afbe 4d15 ffbd f685 ec3d
000001b0: 02b8 023f aba5 3fbe dccc c5be 6cf5 073f
000001c0: 4fe0 c83e 9fe6 e2bd 9989 523e d14a b6be
000001d0: 31a8 1f3f a67f 38be c7f3 57bd 3398 ecbe
000001e0: 4bfd c13d c38e 79be 9d14 7fbe
