output/train_angle_raw_20260210_142808/model/train_angle_raw_20260210_142808_hybrid_e2e.pth (torch, 840277 bytes, 20 tensors)

encoder.0.weight f4 [16, 1, 3, 3]
0.14235184 0.10176067 0.28823385 -0.27813014 -0.3074174 0.0021141768 0.32092112 -0.0325799
0.27870342 0.14593622 -0.031761885 -0.19046485 -0.07368096 0.2617281 -0.27288803 0.04252104
-0.24657163 0.06844787 -0.12398275 0.05348798 -0.14102559 0.056812167 0.069817066 -0.26478451
-0.30234927 -0.076462746 -0.23259172 -0.021390598 -0.026281755 -0.07296308 -0.07685439 0.25944135
-0.06128701 -0.24206829 0.1098032 -0.3112712 -0.04680904 -0.21848087 0.19794914 -0.31206715
0.18407468 -0.23299937 0.021996101 0.19407754 -0.09094592 0.28711674 -0.24756198 0.26003775
-0.110061884 0.20630047 0.14184746 -0.13173835 -0.075193845 0.2686491 -0.24610162 -0.072928
-0.07777655 0.013771772 -0.24773622 -0.12524264 0.29546842 -0.27461082 -0.0053366423 -0.021259349
0.08237978 0.29588935 0.07242894 0.21078806 -0.21437356 -0.21878242 -0.1611877 -0.039043587
-0.29233477 0.14434302 0.20939486 -0.046159506 0.25317618 -0.31903133 0.08889429 -0.29387128
-0.17587464 0.28884336 -0.23186998 0.14825451 -0.31498295 -0.12505417 -0.30555785 0.27959758
-0.032476746 -0.035140317 -0.23376235 -0.2131258 -0.0034728847 -0.30425975 0.12902984 -0.21473055
0.33269107 0.09733312 -0.14943922 -0.10394709 0.16422145 -0.23254621 0.13457541 -0.09989445
0.07165122 0.034949105 -0.14430115 0.023468575 0.1510642 0.16802292 -0.08082776 -0.16148953
0.2918149 -0.31663483 -0.040970765 0.004778306 -0.19931492 -0.17870781 0.12727281 0.09156426
0.31853706 0.1358438 -0.14536314 0.16297957 0.17710595 -0.2013844 -0.29699498 -0.029476127
0.061428707 -0.29267848 -0.2646485 0.06342988 -0.105918095 0.04266755 0.056586586 0.050113004
-0.27996826 -0.06006694 -0.00410835 0.11666405 0.042832933 -0.22151932 0.13415894 0.2755744
00000000: aec4 113e e667 d03d 6393 933e 1367 8ebe
00000010: d065 9dbe 008e 0a3b c64f a43e 8072 05bd
00000020: 37b2 8e3e 4e70 153e c018 02bd 3809 43be
00000030: 0be6 96bd 3a01 863e fbb7 8bbe 8b2a 2e3d
00000040: 467d 7cbe 662e 8c3d abea fdbd 3616 5b3d
00000050: 0369 10be e0b3 683d 40fc 8e3d d691 87be
00000060: 86cd 9abe 8098 9cbd 862c 6ebe 563b afbc
00000070: d64c d7bc ab6d 95bd d665 9dbd 7fd5 843e
00000080: 1608 7bbd c0e0 77be 80e0 e03d f05e 9fbe
00000090: d6ba 3fbd 73b9 5fbe 2eb3 4a3e 44c7 9fbe
000000a0: 137e 3c3e 6397 6ebe 2b31 b43c 43bc 463e
000000b0: db41 babd f700 933e e380 7dbe ab23 853e
000000c0: 2068 e1bd 6e40 533e 7640 113e 6be6 06be
000000d0: 3bff 99bd 608c 893e 1002 7cbe 465b 95bd
000000e0: 5049 9fbd 00a3 613c 90ae 7dbe 9b3f 00be
000000f0: a347 973e ca99 8cbe 00df aebb 1628 aebc
00000100: bbb6 a83d cf7e 973e a055 943d d3d8 573e
00000110: be84 5bbe 8008 60be 630e 25be 2bec 1fbd
00000120: e7ac 95be a8ce 133e 9b6b 563e c011 3dbd
00000130: 4fa0 813e 1358 a3be 360e b63d 4c76 96be
00000140: 7b18 34be 47e3 933e 536f 6dbe 08d0 173e
00000150: 7245 a1be 330e 00be 1472 9cbe 6a27 8f3e
00000160: 5606 05bd 4bef 0fbd 665f 6fbe a63d 5abe
00000170: 5699 63bb efc7 9bbe 6620 043e 53e2 5bbe
00000180: 7c56 aa3e 9656 c73d 9806 19be 36e2 d4bd
00000190: ab29 283e 9820 6ebe 23ce 093e 7695 ccbd
000001a0: e0bd 923d cb26 0f3d aec3 13be 2b41 c03c
000001b0: 93b0 1a3e 330e 2c3e 0689 a5bd 835d 25be
000001c0: c368 953e f61d a2be f6d0 27bd 5693 9c3b
000001d0: 3619 4cbe 2eff 36be ce53 023e 0b86 bb3d
000001e0: 4a17 a33e a31a 0b3e 13da 14be 1ee4 263e
000001f0: 435b 353e b637 4ebe ba0f 98be eb77 f1bc
00000200: ab9c 7b3d f4d9 95be 0280 87be 86e7 813d
00000210: 96eb d8bd 2bc4 2e3d 56c7 673d 4b43 4d3d
00000220: 0058 8fbe c008 76bd 569f 86bb 90ed ee3d
00000230: 9671 2f3d f6d5 62be f660 093e 1618 8d3e

encoder.0.bias f4 [16]
0.1511837 -0.24305677 0.06526705 -0.18225083 -0.27170238 0.28021884 0.32122272 0.13102996
0.25967026 0.24233183 -0.3176341 0.070283055 -0.2548364 -0.24979441 -0.192031 0.15070657
00000000: e6cf 1a3e e0e3 78be bbaa 853d f69f 3abe
00000010: 931c 8bbe d878 8f3e 4e77 a43e b82c 063e
00000020: 80f3 843e d625 783e f0a0 a2be 90f0 8f3d
00000030: eb79 82be 1bca 7fbe c6a3 44be d352 1a3e

encoder.1.weight f4 [16]
1.0 1.0 1.0 1.0 1.0 1.0 1.0 1.0
1.0 1.0 1.0 1.0 1.0 1.0 1.0 1.0
00000000: 0000 803f 0000 803f 0000 803f 0000 803f
00000010: 0000 803f 0000 803f 0000 803f 0000 803f
00000020: 0000 803f 0000 803f 0000 803f 0000 803f
00000030: 0000 803f 0000 803f 0000 803f 0000 803f

encoder.1.bias f4 [16]
0.0 0.0 0.0 0.0 0.0 0.0 0.0 0.0
0.0 0.0 0.0 0.0 0.0 0.0 0.0 0.0
00000000: 0000 0000 0000 0000 0000 0000 0000 0000
00000010: 0000 0000 0000 0000 0000 0000 0000 0000
00000020: 0000 0000 0000 0000 0000 0000 0000 0000
00000030: 0000 0000 0000 0000 0000 0000 0000 0000

encoder.1.running_mean f4 [16]
0.3387424 -0.35262093 -0.29027864 -0.346042 -0.38340884 0.5002154 0.049816903 0.13006216
0.098651186 0.11897519 -0.52108914 0.015277202 -0.32521448 -0.06895183 -0.473869 0.17337663
00000000: a56f ad3e bb8a b4be 679f 94be 6b2c b1be
00000010: 2a4e c4be 1e0e 003f cf0c 4c3d 042f 053e
00000020: a209 ca3d 44a9 f33d 1966 05bf 3b4d 7a3c
00000030: 8382 a6be 9e36 8dbd f59e f2be a589 313e

encoder.1.running_var f4 [16]
0.034227576 0.015101865 0.09939344 0.024036815 0.013848426 0.04747388 0.06939175 0.0073124426
0.024375638 0.021834554 0.042536292 0.0040223445 0.015175263 0.036797993 0.08008457 0.0075515863
00000000: 3732 0c3d d06d 773c ca8e cb3d dbe8 c43c
00000010: 82e4 623c f973 423d 431d 8e3d 379d ef3b
00000020: 6baf c73c 61de b23c 893a 2e3d dfcd 833b
00000030: aba1 783c 7eb9 163d 6103 a43d 4c73 f73b

encoder.3.weight f4 [32, 16, 3, 3]
0.034602277 0.025963446 0.024990758 0.036922805 0.053835552 0.067590885 0.023025056 -0.019303849
0.032740127 -0.0005018115 0.039139234 0.052599512 0.06748949 0.067447774 -0.028527131 -0.066194855
-0.056156874 0.073309 0.04258042 0.029506534 -0.073403895 -0.048986107 0.028284442 0.02804501
0.04172372 -0.054353297 0.07442039 -0.05276683 0.030379027 -0.020859202 0.019556414 -0.019433856
0.078325525 -0.029566508 -0.03531637 -0.018824866 -0.055791568 -0.021161607 0.06447655 0.051510107
0.07173093 -0.06548503 -0.072757415 -0.078339785 -0.030670714 0.019084355 0.06830059 0.047219813
0.028165042 -0.07485518 0.06109494 -0.07352799 0.044611566 -0.05614435 -0.03623607 -0.07624221
-0.033295494 -0.057600103 0.017234853 0.06358787 -0.050609678 0.04653762 0.040643267 -0.03704661
-0.0417691 -0.016827077 0.042041622 0.076903485 0.07643186 0.03469033 -0.04615633 -0.0013432702
0.042826593 0.08184403 0.080146894 0.010709564 0.06929078 -0.02532966 0.05840718 -0.041490458
0.039578497 0.048435044 -0.06921812 -0.046696723 -0.00450932 -0.038026504 0.07845717 -0.044714473
0.037745796 -0.04343344 0.040010642 -0.025684606 0.056108594 -0.08254197 -0.0445669 -0.037851274
-0.07343321 -0.046212297 0.05093228 -0.047161918 -0.05242931 0.067199826 -0.07687116 0.0507
-0.022762528 0.033664852 -0.024769476 0.020521324 -0.017056774 0.04240669 -0.059148204 0.0013308823
0.045255344 -0.079344645 0.08263537 -0.07780295 -0.057132624 0.035851877 0.073609285 0.004407396
-0.006925176 0.06005181 0.040813535 0.034498 -0.03834492 -0.022233566 0.014637491 0.043842208
0.056383353 0.018134922 0.0011253457 -0.07269716 0.06854534 0.020891648 -0.041214436 -0.047537904
0.07643156 0.061324 -0.042392515 -0.07089305 0.030114165 -0.025701743 0.074397594 0.05470764
0.05717362 -0.06506938 0.011202088 -0.011517416 -0.075258926 -0.00870209 0.040807467 -0.06741655
0.07842678 -0.037649713 -0.017799318 -0.0070070825 -0.0669644 -0.082330525 0.070090525 0.011543999
0.07796781 0.015761059 -0.06598231 -0.034097206 0.08041367 0.042589515 0.044705838 0.011749893
0.034928452 0.05817964 0.049376827 -0.041539233 0.055767983 0.04467135 -0.080070436 -0.08121157
0.025378376 0.029873064 -0.06340949 0.04036834 0.014796486 -0.028383296 0.06663279 -0.017072579
0.05627975 0.007266482 0.03358112 0.040038496 0.028309276 0.02505505 0.048962824 0.056829512
-0.00072315335 -0.0052036643 0.029939473 -0.001555264 0.04758861 -0.054457914 -0.02012211 0.040195875
-0.016927272 0.015694957 -0.07417588 0.015264432 0.0138634145 0.00816077 0.028134963 -0.011992614
-0.025591265 -0.08209461 -0.002852718 0.0011487901 0.005618334 0.06507772 -0.073885314 0.036939602
0.049394518 0.053888083 -0.045953512 -0.009074977 -0.063104026 0.074333966 -0.007861088 0.021311145
0.037469517 0.058516465 -0.075495474 0.03430584 0.03496393 0.027293792 -0.055193357 -0.023670446
-0.055874478 -0.021340957 0.056922596 0.06302658 -0.06670664 -0.071031496 -0.03001682 0.07205334
0.058893096 -0.051883906 -0.06998022 -0.08290078 0.02871148 -0.055270784 0.01836156 -0.038894564
-0.060147732 0.07142015 0.056750607 -0.018648665 -0.06609209 -0.056402735 -0.023848167 0.078934476
00000000: 1ebb 0d3d 4bb1 d43c 6bb9 cc3c 5e3c 173d
00000010: ab82 5c3d 176d 8a3d 0b9f bc3c 1b23 9ebc
00000020: 831a 063d 008c 03ba 7650 203d 9672 573d
00000030: ee37 8a3d 0f22 8a3d bbb1 e9bc 2b91 87bd
00000040: c004 66bd 0723 963d ce68 2e3d b0b7 f13c
00000050: c854 96bd a8a5 48bd c6b4 e73c a6be e53c
00000060: 7ee6 2a3d 90a1 5ebd b869 983d 0822 58bd
00000070: 70dd f83c ebe0 aabc c634 a03c c033 9fbc
00000080: 2269 a03d 7635 f2bc e6a7 10bd 9b36 9abc
00000090: b385 64bd 1b5b adbc 480c 843d 43fc 523d
000000a0: aae7 923d 041d 86bd d701 95bd 9c70 a0bd
000000b0: 2641 fbbc cb56 9c3c 2ee1 8b3d 9069 413d
000000c0: 60ba e63c ac4d 99bd b03e 7a3d d895 96bd
000000d0: 9eba 363d 9ef7 65bd 466c 14bd e024 9cbd
000000e0: db60 08bd 16ee 6bbd 1b30 8d3c 5b3a 823d
000000f0: 184c 4fbd 3b9e 3e3d 8e79 263d 30be 17bd
00000100: 1316 2bbd f0d8 89bc d633 2c3d 937f 9d3d
00000110: 4f88 9c3d 7317 0e3d 6b0e 3dbd ab10 b0ba
00000120: f06a 2f3d d89d a73d 0e24 a43d 2b77 2f3c
00000130: 53e8 8d3d 2680 cfbc 5e3c 6f3d e6f1 29bd
00000140: 101d 223d d363 463d 3bc2 8dbd 1045 3fbd
00000150: ebc2 93bb aec1 1bbd 27ae a03d 8626 37bd
00000160: 569b 1a3d 43e7 31bd 33e2 233d 8668 d2bc
00000170: 20d2 653d c40b a9bd c88b 36bd f009 1bbd
00000180: 2764 96bd 1b49 3dbd 5e9e 503d db2c 41bd
00000190: 1ec0 56bd 10a0 893d a06e 9dbd ceaa 4f3d
000001a0: 7b78 babc 28e4 093d 5be9 cabc 561c a83c
000001b0: a6ba 8bbc a3b2 2d3d 6345 72bd 0071 ae3a
000001c0: ab5d 393d 727f a2bd bc3c a93d 2757 9fbd
000001d0: e603 6abd 6bd9 123d 77c0 963d eb6b 903b
000001e0: 96ec e2bb e3f8 753d 182c 273d c64d 0d3d
000001f0: 900f 1dbd 2b23 b6bc 16d2 6f3c e393 333d
00000200: 3bf2 663d b08f 943c 5680 933a 40e2 94bd
00000210: 8061 8c3d f624 ab3c 78d0 28bd 1bb7 42bd
00000220: 2688 9c3d e02e 7b3d c6a3 2dbd 6030 91bd
00000230: fbb1 f63c 768c d2bc c45d 983d 1e15 603d
00000240: e32e 6a3d 1843 85bd f688 373c 8bb3 3cbc
00000250: 5a21 9abd 3693 0ebc bb25 273d b011 8abd
00000260: 389e a03d 9636 1abd e0cf 91bc ab9b e5bb
00000270: a224 89bd e89c a8bd 9f8b 8f3d 0b23 3d3c
00000280: 96ad 9f3d 561d 813c bc21 87bd 83a9 0bbd
00000290: ecaf a43d 5872 2e3d 781d 373d a082 403c
000002a0: 2311 0f3d c64d 6e3d 5b3f 4a3d 0b25 2abd
000002b0: f86c 643d 4ef9 363d f8fb a3bd 4052 a6bd
000002c0: 50e6 cf3c 5bb8 f43c d6dc 81bd 4659 253d
000002d0: f66c 723c 1684 e8bc c676 883d cbdb 8bbc
000002e0: 9885 663d ab1b ee3b 5b8c 093d 68ff 233d
000002f0: dbe8 e73c 4040 cd3c 3e8d 483d 10c6 683d
00000300: 0092 3dba 8083 aabb a043 f53c 00da cbba
00000310: 46ec 423d 430f 5fbd 20d7 a4bc 6ea4 243d
00000320: 10ab 8abc b692 803c 86e9 97bd ab17 7a3c
00000330: 6023 633c c0b4 053c 4b7b e63c ab7c 44bc
00000340: c6a4 d1bc 3821 a8bd abf4 3abb 0093 963a
00000350: 001a b83b 7847 853d 2f51 97bd fb4d 173d
00000360: e851 4a3d c0b9 5c3d c039 3cbd 36af 14bc
00000370: af3c 81bd 683c 983d cbcb 00bc b694 ae3c
00000380: a379 193d f6ae 6f3d 5f9d 9abd 4884 0c3d
00000390: 5636 0f3d 3b97 df3c 6e12 62bd 86e8 c1bc
000003a0: a3dc 64bd 3bd3 aebc ab27 693d 1414 813d
000003b0: 7e9d 88bd f678 91bd d6e5 f5bc b490 933d
000003c0: e339 713d 3884 54bd ca51 8fbd e2c7 a9bd
000003d0: 5634 eb3c 9e63 62bd fb6a 963c e84f 1fbd
000003e0: 785d 76bd ba44 923d 5373 683d 16c5 98bc
000003f0: 4a5b 87bd 8e06 67bd 3b5d c3bc 66a8 a13d

encoder.3.bias f4 [32]
-0.018073391 0.020156603 -0.036720496 0.051013045 -0.012127161 0.049131107 0.079241 -0.021556249
0.002176126 -0.069234006 0.043919623 0.060141157 -0.05708783 -0.012087068 -0.053666286 0.063354194
-0.077996135 0.042606764 0.081530385 0.06550174 -0.02586933 -0.06676557 -0.020882756 -0.0156475
-0.05548515 -0.042498916 -0.056047738 -0.05214573 0.041669488 0.009028604 -0.051956486 -0.053308606
00000000: a60e 94bc 761f a53c 3b68 16bd 0ef3 503d
00000010: 00b1 46bc b33d 493d 1b49 a23d bb96 b0bc
00000020: 569d 0e3b 8fca 8dbd 10e5 333d 9356 763d
00000030: eed4 69bd d608 46bc 2ed1 5bbd d8bf 813d
00000040: 70bc 9fbd 6e84 2e3d 67f9 a63d c725 863d
00000050: ebeb d3bc 63bc 88bd 5012 abbc 302f 80bc
00000060: 6644 63bd 5813 2ebd 5092 65bd c396 55bd
00000070: a0ad 2a3d b6ec 133c 53d0 54bd 205a 5abd

encoder.4.weight f4 [32]
1.0 1.0 1.0 1.0 1.0 1.0 1.0 1.0
1.0 1.0 1.0 1.0 1.0 1.0 1.0 1.0
1.0 1.0 1.0 1.0 1.0 1.0 1.0 1.0
1.0 1.0 1.0 1.0 1.0 1.0 1.0 1.0
00000000: 0000 803f 0000 803f 0000 803f 0000 803f
00000010: 0000 803f 0000 803f 0000 803f 0000 803f
00000020: 0000 803f 0000 803f 0000 803f 0000 803f
00000030: 0000 803f 0000 803f 0000 803f 0000 803f
00000040: 0000 803f 0000 803f 0000 803f 0000 803f
00000050: 0000 803f 0000 803f 0000 803f 0000 803f
00000060: 0000 803f 0000 803f 0000 803f 0000 803f
00000070: 0000 803f 0000 803f 0000 803f 0000 803f

encoder.4.bias f4 [32]
0.0 0.0 0.0 0.0 0.0 0.0 0.0 0.0
0.0 0.0 0.0 0.0 0.0 0.0 0.0 0.0
0.0 0.0 0.0 0.0 0.0 0.0 0.0 0.0
0.0 0.0 0.0 0.0 0.0 0.0 0.0 0.0
00000000: 0000 0000 0000 0000 0000 0000 0000 0000
00000010: 0000 0000 0000 0000 0000 0000 0000 0000
00000020: 0000 0000 0000 0000 0000 0000 0000 0000
00000030: 0000 0000 0000 0000 0000 0000 0000 0000
00000040: 0000 0000 0000 0000 0000 0000 0000 0000
00000050: 0000 0000 0000 0000 0000 0000 0000 0000
00000060: 0000 0000 0000 0000 0000 0000 0000 0000
00000070: 0000 0000 0000 0000 0000 0000 0000 0000

encoder.4.running_mean f4 [32]
0.19905747 0.16716716 -0.10989846 0.08888895 0.13176435 -0.076390475 0.06520421 -0.12686905
-0.31253257 0.015827382 0.09118864 0.05681008 -0.22635418 -0.27515653 -0.15765236 0.008651886
-0.18352605 -0.060370386 -0.24179147 -0.034063786 0.23972775 -0.17758836 -0.065757446 0.021447813
0.012174927 0.0148369465 -0.15942489 0.17677248 0.3684183 0.021698095 -0.030770985 -0.34362632
00000000: b9d5 4b3e de2d 2b3e 7212 e1bd 690b b63d
00000010: 3ced 063e 9c72 9cbd c989 853d f6e9 01be
00000020: 4504 a0be 6da8 813c 1cc1 ba3d b0b1 683d
00000030: 64c9 67be 51e1 8cbe 9f6f 21be a4c0 0d3c
00000040: 41ee 3bbe f046 77bd 2f98 77be 7886 0bbd
00000050: 317b 753e b9d9 35be d7ab 86bd 53b3 af3c
00000060: 5879 473c aa16 733c 4740 23be d803 353e
00000070: 53a1 bc3e 34c0 b13c 6f13 fcbc caef afbe

encoder.4.running_var f4 [32]
0.13390833 0.057740733 0.064346574 0.084272504 0.06344929 0.085364014 0.12551777 0.20012885
0.06959965 0.282091 0.08170755 0.059999555 0.12270784 0.12949862 0.08958842 0.04565354
0.10261607 0.11694945 0.13621281 0.054761343 0.076838404 0.058134858 0.061050985 0.27471986
0.048380025 0.08651261 0.0788443 0.050220225 0.12047711 0.06345205 0.08125112 0.20312093
00000000: 441f 093e 8c81 6c3d 23c8 833d 1097 ac3d
00000010: b4f1 813d 54d3 ae3d bb87 003e 94ee 4c3e
00000020: 438a 8e3d 3b6e 903e 4a56 a73d 18c2 753d
00000030: 3f4e fb3d 499b 043e 227a b73d 35ff 3a3d
00000040: 6028 d23d 3183 ef3d 5f7b 0b3e 6e4d 603d
00000050: 745d 9d3d d11e 6e3d 9910 7a3d 15a8 8c3e
00000060: 222a 463d 862d b13d 1f79 a13d b9b3 4d3d
00000070: b4bc f63d 26f3 813d fd66 a63d effe 4f3e

encoder.7.weight f4 [128, 1568]
-0.017238233 0.008755722 0.007003018 0.020452471 -0.006518281 -0.021560619 0.020028204 -0.0048156176
-0.021026826 0.002537442 -0.012851637 0.012268695 0.0066928896 0.0069702277 0.004837519 0.015861271
0.023491338 -0.017371591 0.0030855709 -0.011830097 -0.019047407 -0.013231389 -0.013259555 0.023716806
0.013789175 0.010355415 0.013630478 0.015653113 0.016261468 -0.0034505925 0.022105914 0.017833497
0.0015491556 0.021490889 0.003431747 0.006586321 0.0004985099 -0.011217194 -0.0028372055 0.014630686
0.0048571625 0.02012335 0.004319468 0.01599168 0.016793318 0.022805229 0.008604881 0.02202153
-0.0077539845 0.02088849 0.020728525 0.021437919 0.018060524 0.01623599 -0.013752893 0.011737572
0.0063013784 -0.005155225 -0.0036383688 -0.006441062 0.014502779 -0.015384741 0.002195306 -0.012173314
0.00066096196 -0.010902965 -0.018313833 0.0251167 -0.01732031 0.009683651 -0.004065768 0.010895906
0.011901542 0.010243063 0.008501513 0.014890009 0.023429016 0.007418002 0.014739714 -0.021845927
0.02227843 0.012403516 -0.019711798 -0.007280742 0.024150262 -0.016733106 0.017782072 0.014674392
0.0056686457 0.0121782115 -0.005435297 -0.0061430326 -0.015299143 0.0106010735 -0.013256915 0.024146589
-0.0013046587 -0.005508039 -0.01630056 -0.001767967 -0.012006147 -0.02261762 0.004914687 -0.021530356
0.0058844495 0.018096494 -0.02494929 0.019163158 0.020462723 -0.013296762 -0.01871045 -0.0034273546
-0.017889518 -0.0002186157 0.02398929 0.012426562 -0.02162512 -0.0045433943 -0.015481467 -0.0005616308
-0.021572843 -0.006877974 -0.005906164 -0.006866739 -0.0025625646 -0.018068766 0.013226172 0.0045913844
-0.0032572108 0.016403927 -0.020871444 -0.021102743 -0.0087969 -0.008991949 -0.017309476 -0.012215286
-0.0056826686 0.0053942637 -0.006474993 -0.013562522 -0.005140498 -0.024775755 0.008827901 0.021174442
-0.010574075 -0.008115942 0.0037863676 -0.020967534 -0.013670005 -0.024420513 -0.014807194 -0.009869657
-0.019937016 0.024768775 0.013488677 -0.0035859712 0.019878173 -0.018940855 0.022010442 -0.0050707296
-0.008130527 0.021723805 0.020488657 -0.0052943607 0.0062250025 0.010264236 0.012844671 -0.015961438
0.020857748 0.0017361642 -0.018478587 -0.023242395 0.011381402 0.019939004 0.0070449873 -0.0065724035
-0.01000015 0.024323942 -0.023338934 -0.0005092754 -0.021679066 0.008104354 0.011790139 0.00050898944
-0.02411971 -0.0016986293 0.013375125 -0.023287745 0.0011642916 0.024086447 -0.023675086 0.0096819075
-0.0047773 -0.013012304 -0.0015036189 0.011488481 0.003071861 0.011138015 0.013885108 -0.00260519
0.024774948 0.023214018 -0.007777557 -0.022558006 0.012307061 0.015895063 -0.014287577 -0.024556756
-0.01643423 -0.020420864 -0.0017654502 -0.005548374 0.023296658 -0.018106557 -0.003277074 0.019648109
-0.013769995 -0.005838329 -0.00731902 0.019248936 -0.013112222 0.002322767 -0.01306785 0.015486664
0.0077132736 -0.007830818 0.012851697 0.023704384 -0.0062170546 0.018260134 0.0013318163 -0.01011938
0.020390486 0.012943435 -0.023266276 0.024866553 0.0021659597 -0.0060011484 0.01990615 -0.008159118
0.0079267835 -0.015532827 -0.014350376 0.00066533015 0.0048578638 0.004373521 -0.005623377 -0.009489475
0.0039450987 0.00023675691 0.024913153 -0.012365657 0.021083968 0.017858222 0.015700463 -0.018763596
00000000: 3237 8dbc 2974 0f3c 9379 e53b f18b a73c
00000010: 4e97 d5bb e59f b0bc 3012 a43c 54cc 9dbb
00000020: 7340 acbc 364b 263b ac8f 52bc a302 493c
00000030: 0750 db3b 8266 e43b 0d84 9e3b 7fef 813c
00000040: e870 c03c de4e 8ebc 4a37 4a3b 06d3 41bc
00000050: 4f09 9cbc 78c8 58bc 9b3e 59bc bf49 c23c
00000060: feeb 613c c2a9 293c 5e52 5f3c f53a 803c
00000070: c536 853c 5623 62bb 7617 b53c 8e17 923c
00000080: 090d cb3a a90d b03c 29e7 603b 11d2 d73b
00000090: 6fae 023a 52c8 37bc 69f0 39bb 8bb5 6f3c
000000a0: d528 9f3b b9d9 a43c 538a 8d3b fc00 833c
000000b0: 2492 893c 08d2 ba3c 7dfb 0c3c 7f66 b43c
000000c0: 2315 febb 571e ab3c dece a93c 939e af3c
000000d0: aaf3 933c 5701 853c d053 61bc f24e 403c
000000e0: cb7b ce3b 29ed a8bb b371 6ebb 8b0f d3bb
000000f0: 109d 6d3c 4810 7cbc 1fdf 0f3b 9472 47bc
00000100: 6844 2d3a 5aa2 32bc e406 96bc 8ac1 cd3c
00000110: 53e3 8dbc 2da8 1e3c 223a 85bb be84 323c
00000120: affe 423c 85d2 273c ee49 0b3c 39f5 733c
00000130: 35ee bf3c b612 f33b d77e 713c 3bf6 b2bc
00000140: 4181 b63c 1e38 4b3c a37a a1bc 4a93 eebb
00000150: c5d6 c53c de13 89bc b5ab 913c dc6c 703c
00000160: 0cc0 b93b 1f87 473c 931a b2bb 7e4b c9bb
00000170: 42a9 7abc 20b0 2d3c 8833 59bc 11cf c53c
00000180: 1501 abba c87c b4bb c188 85bc 21bb e7ba
00000190: 6eb5 44bc 9648 b9bc 620b a13b 6e60 b0bc
000001a0: 57d2 c03b 193f 943c 7462 ccbc 0efc 9c3c
000001b0: 71a1 a73c a9da 59bc a846 99bc 789d 60bb
000001c0: 0a8d 92bc 353c 65b9 3085 c43c c798 4b3c
000001d0: 2a27 b1bc c1e0 94bb fba5 7dbc 683a 13ba
000001e0: 88b9 b0bc a160 e1bb 7f88 c1bb 6202 e1bb
000001f0: b3f0 27bb f304 94bc 96b2 583c 5373 963b
00000200: ee76 55bb 8761 863c 97fa aabc a9df acbc
00000210: df20 10bc f852 13bc 9acc 8dbc 9f22 48bc
00000220: ae35 babb 5dc2 b03b 2e2c d4bb 5735 5ebc
00000230: 9f71 a8bb 86f6 cabc e7a2 103c 0676 ad3c
00000240: e33e 2dbc baf8 04bc b524 783b 1bc4 abbc
00000250: 28f8 5fbc 870d c8bc df99 72bc 58b4 21bc
00000260: f452 a3bc e3e7 ca3c 9dff 5c3c 9d02 6bbb
00000270: 8dd7 a23c da29 9bbc 3e4f b43c 5d28 a6bb
00000280: e735 05bc 1ff6 b13c d4d7 a73c 517c adbb
00000290: 1bfb cb3b 532b 283c 7472 523c 90c1 82bc
000002a0: dedd aa3c 0190 e33a 6860 97bc d666 bebc
000002b0: 0f79 3a3c 1f57 a33c a3d9 e63b 515d d7bb
000002c0: abd7 23bc 0143 c73c 4b31 bfbc e580 05ba
000002d0: 4c98 b1bc 20c8 043c 6d2b 413c b46d 053a
000002e0: b396 c5bc 8ba4 deba 5723 5b3c f1c5 bebc
000002f0: 259b 983a f150 c53c 41f2 c1bc dda0 1e3c
00000300: e68a 9cbb 8f31 55bc 1415 c5ba 2f3a 3c3c
00000310: 4751 493b 397c 363c 5d7e 633c d6bb 2abb
00000320: d5f4 ca3c 532b be3c e0da febb 91cb b8bc
00000330: 8ea3 493c 5d36 823c 7116 6abc 402b c9bc
00000340: 14a1 86bc a849 a7bc ae66 e7ba 22cf b5bb
00000350: a2d8 be3c 3454 94bc 2ec4 56bb 12f5 a03c
00000360: 8c9b 61bc 744f bfbb 64d4 efbb f2af 9d3c
00000370: a5d4 56bc 9039 183b 891a 56bc c7bb 7d3c
00000380: a1bf fc3b d54c 00bc ed8f 523c b22f c23c
00000390: 6fb8 cbbb 4796 953c 5790 ae3a c2cb 25bc
000003a0: f309 a73c b410 543c eb98 bebc f1b4 cb3c
000003b0: c6f2 0d3b 48a5 c4bb 3912 a33c d2ad 05bc
000003c0: 57df 013c 667d 7ebc d71d 6bbc 8d69 2e3a
000003d0: b72e 9f3b c14f 8f3b 4e44 b8bb be79 1bbc
000003e0: e345 813b f341 7839 ab16 cc3c 5399 4abc
000003f0: 49b8 ac3c 684b 923c 429e 803c 1db6 99bc

encoder.7.bias f4 [128]
0.020447323 -0.0038435247 -0.013456622 0.010555211 0.025074635 -0.010649762 0.015624674 -0.022070128
-0.020649249 -0.017996049 -0.0011299119 0.0026140981 -0.016062811 0.025246035 -0.008696728 0.019808432
0.022132954 -0.012127031 -0.022093887 0.012894118 -0.009452776 -0.004069528 -0.012992983 0.009759594
-0.0026340967 -0.017808251 -0.021005722 -0.0025200022 0.00704033 -0.0098717045 -0.0002866919 -0.015148255
0.013010997 0.005821967 -0.01462862 0.02225338 -0.001942181 0.005952797 0.015968658 0.017397301
-0.020589408 -0.0019134398 -0.018565105 0.020342866 -0.0068185264 -0.021451596 0.022751138 0.021407288
-0.007843745 -0.0017210576 -0.008895499 -0.004863593 -0.013597793 -0.023025196 0.0006312394 0.0020837402
0.011420763 0.0103676645 0.021736229 0.023439566 -0.02421371 -0.012085766 -0.011748615 0.006032283
0.019999752 -0.0071991184 0.020288283 -0.00227823 -0.017418107 -0.0055881273 -0.018657582 0.024899513
0.022970261 -0.017551359 0.0028802285 0.020066064 0.015072346 0.017555758 -0.0090036355 0.023204917
0.008804847 -0.019574039 0.0018629931 -0.006626523 -0.0014287962 -0.019578684 0.022617336 0.003035961
-0.009483757 -0.013225877 0.004461566 -0.013986549 -0.020287972 -0.023970863 0.008141091 -0.014546822
0.0040102303 0.012476015 -0.009797851 0.0023974332 -0.0031869551 0.010411027 -0.0056467927 -0.004623076
0.017982883 0.004978121 0.019188853 -0.01467879 0.017992781 0.003292611 -0.024356706 0.013291497
0.024495661 -0.011927878 -0.014104952 0.016040022 0.015678827 0.01926842 -0.009835909 0.008836063
0.023010632 0.0062670377 0.019597692 -0.0044915774 -0.0033650948 -0.0074181254 0.025017237 0.024073496
00000000: 2581 a73c a5e3 7bbb 2a79 5cbc c4ef 2c3c
00000010: 5269 cd3c 577c 2ebc a2fe 7f3c 6acc b4bc
00000020: 9d28 a9bc 736c 93bc 8d19 94ba 4a51 2b3b
00000030: 2896 83bc c6d0 ce3c b97c 0ebc 4b45 a23c
00000040: 2b50 b53c 74b0 46bc 3dfe b4bc da41 533c
00000050: d1df 1abc ad59 85bb 85e0 54bc b4e6 1f3c
00000060: cfa0 2cbb 9ce2 91bc 3114 acbc 9f26 25bb
00000070: 92b2 e63b eebc 21bc 234f 96b9 6330 78bc
00000080: 142c 553c 33c6 be3b e1ac 6fbc b84c b63c
00000090: c890 feba ae0f c33b b4d0 823c c984 8e3c
000000a0: 1eab a8bc 63cc faba d915 98bc 15a6 a63c
000000b0: f26d dfbb 42bb afbc 9860 ba3c 565e af3c
000000c0: 0d83 00bc 1c95 e1ba 6dbe 11bc c65e 9fbb
000000d0: 47c9 5ebc 569f bcbc c279 253a 5c8f 083b
000000e0: 271e 3b3c 23dd 293c 2d10 b23c 5504 c03c
000000f0: d55b c6bc 6003 46bc 437d 40bc 75aa c53b
00000100: 85d6 a33c 95e6 ebbb 9d33 a63c 5b4e 15bb
00000110: 6bb0 8ebc 9c1c b7bb c9d7 98bc 10fa cb3c
00000120: 212c bc3c dec7 8fbc 37c2 3c3b 9661 a43c
00000130: 00f2 763c 18d1 8f3c fc83 13bc 3d18 be3c
00000140: 3442 103c bc59 a0bc ad2f f43a 4e23 d9bb
00000150: 7246 bbba 7a63 a0bc fe47 b93c f9f6 463b
00000160: c361 1bbc 59b1 58bc 5432 923b d727 65bc
00000170: f632 a6bc 8b5e c4bc 3662 053c cb55 6ebc
00000180: 4068 833b 3368 4c3c 2a87 20bc 411e 1d3b
00000190: 3cdc 50bb 0393 2a3c bb08 b9bb 2c7d 97bb
000001a0: d750 933c 811f a33b f131 9d3c 4f7f 70bc
000001b0: 9965 933c d9c8 573b b787 c7bc 94c4 593c
000001c0: 20ab c83c 256d 43bc 7518 67bc 5d66 833c
000001d0: e270 803c ced8 9d3c cb26 21bc 22c5 103c
000001e0: cb80 bc3c b95b cd3b 578b a03c 152e 93bb
000001f0: ec88 5cbb bf13 f3bb f3f0 cc3c c835 c53c

encoder.9.weight f4 [16, 128]
0.030301182 0.039375197 0.088386625 -0.07309953 0.07368009 0.029603977 -0.030930897 0.05376072
0.0028875754 0.020122338 0.08154198 -0.048997797 0.044526912 0.040539358 0.0862116 -0.021365987
0.060176942 -0.087972164 0.07070514 0.043716196 0.046922717 0.044352844 -0.058874793 -0.04437155
-0.016285373 0.011719616 0.021372413 -0.05136017 0.064191155 0.017575752 0.034615923 -0.032641217
0.0063622035 0.058054227 0.05892043 0.026184825 0.04620934 0.027372744 -0.036245257 0.021270704
0.07862343 -0.04642059 -0.012924742 0.06625841 -0.007417856 0.086580075 -0.07956728 -0.030872334
0.024216998 -0.08036228 -0.038407568 -0.04415253 -0.0651263 -0.06096023 0.0016239602 -0.030907359
-0.069438584 -0.037703697 -0.03812038 0.028217189 -0.07247737 0.053972863 -0.036747575 0.028385576
0.06391576 0.0655417 -0.040805902 0.07904942 0.07381445 -0.0035972756 -0.029827725 0.06352588
-0.02702498 -0.05300986 -0.060018796 0.025589816 0.015372241 0.086278014 -0.04340252 0.0853115
0.08426222 0.02060707 -0.013892202 -0.08473031 -0.07520652 0.066552214 0.068463035 0.040273484
0.03893293 0.058365617 0.05914406 0.046682175 0.042482335 -0.04343773 -0.011514139 -0.07008922
-0.04710872 -0.0064674653 -0.0006448573 -0.03530647 -0.028323852 -0.036995556 -0.019824022 -0.023540564
0.017469574 0.010971731 0.0015969336 -0.006816441 0.02535823 -0.014983731 0.004540659 0.08584468
0.081684165 -0.038748264 -0.049146995 0.024531268 -0.064067036 -0.058701675 0.06034867 0.038747936
0.049112752 0.005215335 -0.08206742 -0.010761334 0.080032185 0.07846305 -0.04666479 -0.06039245
0.008704609 0.062227745 0.018078279 0.0101488875 -0.041400563 -0.08436467 0.081174724 0.021277394
0.08090781 -0.011215655 -0.032112896 -0.08091163 0.030948915 0.026052179 0.06512399 0.02753877
-0.045628797 -0.062211003 -0.048272237 0.03832315 0.0039302465 -0.06865211 -0.030202864 -0.015136102
0.017880274 0.013714142 -0.06707891 -0.053852007 -0.056534413 0.03790461 -0.0024977908 0.08543506
-0.08309656 -0.054913096 -0.041877467 0.03465792 0.0371973 -0.04299994 0.05883978 0.036984682
0.08259746 0.0778765 -0.0052451226 -0.022220366 0.076667294 0.048801173 0.047626738 -0.0029882116
0.030073958 -0.04059789 0.01687838 -0.07886202 -0.025040781 0.014160403 -0.024790639 0.0476364
0.068354495 -0.07892869 -0.06656273 0.036678135 0.021218335 0.03738063 -0.017952377 -0.013847905
-0.050330605 0.013349603 0.045973804 0.03504169 0.06819633 -0.08735753 -0.01578431 -0.007767264
-0.08012205 -0.06470653 -0.063376844 0.0149595495 -0.07295298 0.058435194 0.047307137 0.011618727
-0.03222924 -0.032305118 0.06726997 0.02617238 0.022326639 -0.021576626 -0.047208726 0.013805379
-0.013573539 -0.009587671 0.04447952 -0.04114581 -0.02227678 -0.08635747 -0.044704888 0.07039507
0.016465046 -0.017484093 0.020291178 0.0124387145 0.039578818 -0.022942679 -0.002154336 0.0332632
0.080601126 -0.043662734 -0.010081105 0.075413026 -0.0334739 -0.0754651 -0.005512913 0.024884278
-0.07425538 -0.0033229208 0.0013063626 -0.0015158008 -0.032091886 -0.06363347 -0.035494093 2.0536052e-05
-0.0023001432 -0.0016930599 0.008654982 -0.054187886 -0.0662638 0.023924595 0.0849759 0.020700803
00000000: 2f3a f83c e347 213d 0c04 b53d 35b5 95bd
00000010: 96e5 963d 0a84 f23c cb62 fdbc 3334 5c3d
00000020: 7a3d 3d3b 9ad7 a43c 7bff a63d eab1 48bd
00000030: da61 363d 990c 263d b58f b03d b907 afbc
00000040: 197c 763d c02a b4bd dbcd 903d c10f 333d
00000050: 0932 403d 54ab 353d b226 71bd f1be 35bd
00000060: e768 85bc a203 403c 3315 af3c 0b5f 52bd
00000070: a776 833d 06fb 8f3c 6dc9 0d3d ccb2 05bd
00000080: 087a d03b 45ca 6d3d 8c56 713d 8f81 d63c
00000090: 0146 3d3d ce3c e03c e875 14bd e63f ae3c
000000a0: 5205 a13d 8423 3ebd 4cc2 53bc 7db2 873d
000000b0: 7c11 f3bb e550 b13d 2cf4 a2bd fae7 fcbc
000000c0: ba62 c63c fb94 a4bd 4151 1dbd 49d9 34bd
000000d0: f060 85bd 6fb1 79bd 10db d43a 6e31 fdbc
000000e0: d135 8ebd 316f 1abd 1e24 1cbd bc27 e73c
000000f0: 046f 94bd a612 5d3d a084 16bd de88 e83c
00000100: 44e6 823d ba3a 863d 1724 27bd aae4 a13d
00000110: 082c 973d 45c0 6bbb 4659 f4bc db19 823d
00000120: 7e63 ddbc de20 59bd 45d6 75bd bca1 d13c
00000130: dadb 7b3c 87b2 b03d d7c6 31bd ccb7 ae3d
00000140: ac91 ac3d 28d0 a83c 1e9c 63bc 1687 adbd
00000150: e005 9abd 874c 883d 5936 8c3d cff5 243d
00000160: 2378 1f3d c910 6f3d 0b41 723d cf35 3f3d
00000170: f501 2e3d c3eb 31bd cda5 3cbc f08a 8fbd
00000180: 13f5 40bd 08ed d3bb a40b 29ba 849d 10bd
00000190: 6c07 e8bc a788 17bd fd65 a2bc 24d8 c0bc
000001a0: 5a1c 8f3c c6c2 333c 3350 d13a 745c dfbb
000001b0: 10bc cf3c 537e 75bc cfc9 943b 56cf af3d
000001c0: 074a a73d 80b6 1ebd 5c4e 49bd ccf5 c83c
000001d0: 9435 83bd 2b71 70bd 2b30 773d 28b6 1e3d
000001e0: 742a 493d 67e5 aa3b f712 a8bd 4e50 30bc
000001f0: eae7 a33d 3cb1 a03d 9423 3fbd 135e 77bd
00000200: c79d 0e3c 85e2 7e3d e618 943c 8547 263c
00000210: a393 29bd 62c7 acbd ef3e a63d ee4d ae3c
00000220: feb2 a53d dec1 37bc d088 03bd ffb4 a5bd
00000230: 9488 fd3c 616b d53c ba5f 853d fd98 e13c
00000240: 43e5 3abd f7d0 7ebd 1cb9 45bd bcf8 1c3d
00000250: 4cc9 803b 7a99 8cbd ff6b f7bc 6afd 77bc
00000260: a779 923c 48b1 603c ab60 89bd ec93 5cbd
00000270: a190 67bd dd41 1b3d fab1 23bb 94f8 ae3d
00000280: 872e aabd 8eec 60bd b587 2bbd 77f5 0d3d
00000290: 325c 183d b520 30bd fb01 713d 407d 173d
000002a0: db28 a93d b77d 9f3d 47df abbb 7c07 b6bc
000002b0: be03 9d3d bde3 473d 4114 433d dfd5 43bb
000002c0: a95d f63c f949 26bd 8744 8a3c 6982 a1bd
000002d0: 5322 cdbc 0901 683c bd15 cbbc 631e 433d
000002e0: 71fd 8b3d 5da5 a1bd 0a52 88bd d03b 163d
000002f0: 13d2 ad3c 6e1c 193d dd10 93bc 53e2 62bc
00000300: 7727 4ebd 4bb8 5a3c 074f 3c3d e087 0f3d
00000310: 84aa 8b3d 81e8 b2bd 194e 81bc 8884 febb
00000320: 0817 a4bd db84 84bd b8cb 81bd e618 753c
00000330: 5f68 95bd be59 6f3d 21c5 413d 795c 3e3c
00000340: cf02 04bd 5f52 04bd d7c4 893d 7667 d63c
00000350: 5be6 b63c 77c1 b0bc f05d 41bd f52f 623c
00000360: 8d63 5ebc 9b15 1dbc 2830 363d 8288 28bd
00000370: cb7d b6bc 2fdc b0bd 791c 37bd 4a2b 903d
00000380: b4e1 863c cd3a 8fbc af39 a63c c0cb 4b3c
00000390: 661d 223d 49f2 bbbc c32f 0dbb fe3e 083d
000003a0: 3412 a53d b2d7 32bd 382b 25bc 2572 9a3d
000003b0: ee1b 09bd 728d 9abd aba5 b4bb 1dda cb3c
000003c0: 3413 98bd 5cc5 59bb 413a ab3a d6ad c6ba
000003d0: c872 03bd 4452 82bd 4162 11bd d644 ac37
000003e0: 00be 16bb aae9 ddba a0cd 0d3c 1ef4 5dbd
000003f0: 51b5 87bd 83fd c33c d807 ae3d bb94 a93c

encoder.9.bias f4 [16]
-0.03325949 0.022311477 0.0034307218 0.049016837 0.04213257 -0.060687173 0.065427035 0.03017707
-0.04164644 -0.019206014 0.07920869 0.055664048 0.03616271 -0.04178724 -0.03948126 -0.07412934
00000000: 1a3b 08bd 8fc6 b63c f6d5 603b e1c5 483d
00000010: 3493 2c3d 1d93 78bd 9cfe 853d e735 f73c
00000020: 7595 2abd ee55 9dbc 2a38 a23d fcff 633d
00000030: 5a1f 143d 1929 2bbd 1ab7 21bd 20d1 97bd

projection.weight f4 [4, 16]
-0.030139387 -0.18639094 0.07069653 0.19187614 -0.09728339 -0.096910864 0.05881408 0.11905566
-0.24111012 -0.048538715 0.0468556 -2.43783e-05 0.11313537 0.02692771 -0.10761449 0.15681008
-0.20086864 0.20924106 0.13191468 0.20935053 -0.017077297 -0.13808584 0.17263749 0.15408725
0.21790195 0.048453122 -0.018078953 0.17735508 -0.057093322 -0.21188259 -0.15317693 -0.15468639
0.11124489 -0.1904105 -0.12605527 0.04576537 -0.23093086 -0.02416259 -0.018829912 -0.23421848
-0.06622976 0.07739124 0.14499465 0.18694061 0.029123902 0.2368238 -0.062772274 0.06109202
0.089132816 0.049316853 -0.16427597 0.15492791 0.08099952 -0.024298787 0.16374725 0.11966768
0.17111823 0.14323887 0.21582946 0.23339626 -0.098939896 -0.00838244 -0.20208615 0.24768773
00000000: e0e6 f6bc 44dd 3ebe 58c9 903d 2e7b 443e
00000010: 843c c7bd 3479 c6bd 08e7 703d 74d3 f33d
00000020: 92e5 76be 88d0 46bd a8eb 3f3d 0080 ccb7
00000030: 84b3 e73d 8097 dc3c fc64 dcbd d292 203e
00000040: 82b0 4dbe 4a43 563e a414 073e fc5f 563e
00000050: b0e5 8bbc 6066 0dbe e2c7 303e 0cc9 1d3e
00000060: b021 5f3e c876 463d 501a 94bc 929c 353e
00000070: b0da 69bd c0f7 58be 6ada 1cbe 1c66 1ebe
00000080: 5cd4 e33d f8fa 42be a214 01be 7874 3b3d
00000090: 2479 6cbe a0f0 c5bc 3041 9abc f8d6 6fbe
000000a0: 78a3 87bd 4c7f 9e3d 7a79 143e 5c6d 3f3e
000000b0: 4095 ee3c f081 723e c08e 80bd a03b 7a3d
000000c0: 448b b63d 7800 4a3d f637 28be 6ca5 1e3e
000000d0: 14e3 a53d 400e c7bc 5cad 273e 5414 f53d
000000e0: 9e39 2f3e 36ad 123e 6602 5d3e 6eff 6e3e
000000f0: 00a1 cabd 8056 09bc acef 4ebe daa1 7d3e

projection.bias f4 [4]
-0.03778082 -0.13243878 0.15553007 -0.05207476
00000000: 10c0 1abd 089e 07be 4643 1f3e 584c 55bd

quantum_layer.weight f4 [21]
-0.021186454 -0.33509624 0.06970169 0.62369925 0.60045433 -0.9094282 0.667176 0.044979148
0.7777944 -0.36232615 -0.5327095 0.93971044 0.12771893 -0.07787636 -0.39679796 -0.7752613
-0.5882764 1.0085454 0.7604574 -0.43711963 0.7697063
00000000: 378f adbc bc91 abbe c2bf 8e3d c1aa 1f3f
00000010: 60b7 193f 49d0 68bf 0ccc 2a3f 0e3c 383d
00000020: 891d 473f d082 b9be a65f 08bf dd90 703f
00000030: c0c8 023e a47d 9fbd 1a29 cbbe 8677 46bf
00000040: 4899 16bf 0418 813f 56ad 423f 25ce dfbe
00000050: 790b 453f

quantum_layer._weights f4 [21]
-0.021186454 -0.33509624 0.06970169 0.62369925 0.60045433 -0.9094282 0.667176 0.044979148
0.7777944 -0.36232615 -0.5327095 0.93971044 0.12771893 -0.07787636 -0.39679796 -0.7752613
-0.5882764 1.0085454 0.7604574 -0.43711963 0.7697063
00000000: 378f adbc bc91 abbe c2bf 8e3d c1aa 1f3f
00000010: 60b7 193f 49d0 68bf 0ccc 2a3f 0e3c 383d
00000020: 891d 473f d082 b9be a65f 08bf dd90 703f
00000030: c0c8 023e a47d 9fbd 1a29 cbbe 8677 46bf
00000040: 4899 16bf 0418 813f 56ad 423f 25ce dfbe
00000050: 790b 453f
