output/None_angle_autoencoder16_20260212_114530/checkpoints/None_angle_autoencoder16_20260212_114530_checkpoint.pth.tar (torch, 9085 bytes, 4 tensors)

weight f4 [123]
0.10536633 -0.19558983 -0.33533284 -0.50747687 0.33070418 -0.08081651 -0.1563879 0.28409266
-0.0013131333 -0.28668052 0.9702887 -0.30462414 0.57774043 -0.076117456 -0.12848788 -0.01064422
0.105902165 -0.7049647 -0.35413525 0.09016589 -0.02841169 0.14778513 0.5587708 0.2148118
-0.37088716 0.3600964 -1.2082139 0.1688121 -0.084986284 -0.27131104 -0.04112716 0.094898485
1.0745894 0.044071022 0.10659374 0.31714818 0.14096485 -0.5763985 -0.20225187 -0.30191845
0.59824926 0.32191554 0.5378715 0.3153036 0.4122748 -0.03195889 -0.5407531 -0.20771176
-0.9211585 1.2490786 -1.3559287 -0.31919247 0.19710654 -0.56195843 -0.09163709 0.40995052
-0.6594533 1.0546329 -0.45393124 -0.007700532 -0.46775842 -0.3069948 -0.41764218 0.9666141
-0.40467376 0.17473254 0.9454024 -0.05240348 0.3067797 -0.0067203287 -0.39505658 0.13532925
-0.1586329 -0.29039812 0.19383939 -0.5723413 -0.16702291 -0.3878952 1.0213139 -0.5180308
0.9124268 -0.30830348 0.6099294 0.083537154 -0.00482395 -0.5071433 -0.43611526 -0.91840786
-0.49715957 0.9978489 0.1354326 -0.13736758 -0.09983858 -0.20200643 -0.23412502 0.40142733
-0.011288503 0.19498652 -0.15073471 -0.3146027 0.37067276 -0.45039818 0.04463351 0.30295387
0.021603368 -0.5614561 -0.110648386 0.6683649 0.033250824 0.42665303 0.12858877 0.34857404
-0.04677977 -0.64793533 0.32606876 -0.27793303 -0.09358431 0.23295909 0.044556905 -0.17680936
-0.0020234562 -0.21321689 0.49222398
00000000: 4dca d73d b348 48be bfb0 abbe 01ea 01bf
00000010: 0f52 a93e 2083 a5bd 2624 20be 9874 913e
00000020: 711d acba cac7 92be d764 783f b2f7 9bbe
00000030: cce6 133f 78e3 9bbd 5492 03be 1865 2ebc
00000040: 3ce3 d83d 9178 34bf 3751 b5be e5a8 b83d
00000050: a2bf e8bc fc54 173e 9a0b 0f3f a0f7 5b3e
00000060: ece4 bdbe 8e5e b83e c1a6 9abf 14dd 2c3e
00000070: 4a0d aebd 48e9 8abe f474 28bd 235a c23d
00000080: 258c 893f d183 343d d24d da3d 3f61 a23e
00000090: 1759 103e da8e 13bf 1d1b 4fbe 0e95 9abe
000000a0: dd26 193f 1dd2 a43e f2b1 093f 796f a13e
000000b0: af15 d33e 53e7 02bd cc6e 0abf 64b2 54be
000000c0: 0bd1 6bbf cfe1 9f3f 128f adbf 326d a3be
000000d0: 4cd6 493e 82dc 0fbf 3aac bbbd 09e5 d13e
000000e0: eed1 28bf 36fe 863f ad69 e8be bf54 fcbb
000000f0: 087e efbe 6c2e 9dbe 32d5 d5be 0674 773f
00000100: 6631 cfbe 16ed 323e e405 723f 08a5 56bd
00000110: 3b12 9d3e 3436 dcbb db44 cabe c093 0a3e
00000120: aa70 22be 10af 94be d57d 463e f684 12bf
00000130: 0e08 2bbe 339a c6be 6aba 823f ab9d 04bf
00000140: ce94 693f f4d9 9dbe 5524 1c3f 8715 ab3d
00000150: 3a12 9ebb 25d4 01bf 804a dfbe c71c 6bbf
00000160: b38b febe 0773 7f3f d8ae 0a3e 16aa 0cbe
00000170: 2b78 ccbd c6da 4ebe 78be 6fbe e287 cd3e
00000180: 6af3 38bc 8caa 473e 335a 1abe 9b13 a1be
00000190: d2c8 bd3e 979a e6be a1d1 363d c51c 9b3e
000001a0: 8cf9 b03c 96bb 0fbf 9f9b e2bd f619 2b3f
000001b0: 0432 083d 4472 da3e c6ac 033e 4c78 b23e
000001c0: 259c 3fbd 17df 25bf 7cf2 a63e 3d4d 8ebe
000001d0: 21a9 bfbd d48c 6e3e 4d81 363d 830d 35be
000001e0: f69b 04bb 8755 5abe c804 fc3e

_weights f4 [123]
0.10536633 -0.19558983 -0.33533284 -0.50747687 0.33070418 -0.08081651 -0.1563879 0.28409266
-0.0013131333 -0.28668052 0.9702887 -0.30462414 0.57774043 -0.076117456 -0.12848788 -0.01064422
0.105902165 -0.7049647 -0.35413525 0.09016589 -0.02841169 0.14778513 0.5587708 0.2148118
-0.37088716 0.3600964 -1.2082139 0.1688121 -0.084986284 -0.27131104 -0.04112716 0.094898485
1.0745894 0.044071022 0.10659374 0.31714818 0.14096485 -0.5763985 -0.20225187 -0.30191845
0.59824926 0.32191554 0.5378715 0.3153036 0.4122748 -0.03195889 -0.5407531 -0.20771176
-0.9211585 1.2490786 -1.3559287 -0.31919247 0.19710654 -0.56195843 -0.09163709 0.40995052
-0.6594533 1.0546329 -0.45393124 -0.007700532 -0.46775842 -0.3069948 -0.41764218 0.9666141
-0.40467376 0.17473254 0.9454024 -0.05240348 0.3067797 -0.0067203287 -0.39505658 0.13532925
-0.1586329 -0.29039812 0.19383939 -0.5723413 -0.16702291 -0.3878952 1.0213139 -0.5180308
0.9124268 -0.30830348 0.6099294 0.083537154 -0.00482395 -0.5071433 -0.43611526 -0.91840786
-0.49715957 0.9978489 0.1354326 -0.13736758 -0.09983858 -0.20200643 -0.23412502 0.40142733
-0.011288503 0.19498652 -0.15073471 -0.3146027 0.37067276 -0.45039818 0.04463351 0.30295387
0.021603368 -0.5614561 -0.110648386 0.6683649 0.033250824 0.42665303 0.12858877 0.34857404
-0.04677977 -0.64793533 0.32606876 -0.27793303 -0.09358431 0.23295909 0.044556905 -0.17680936
-0.0020234562 -0.21321689 0.49222398
00000000: 4dca d73d b348 48be bfb0 abbe 01ea 01bf
00000010: 0f52 a93e 2083 a5bd 2624 20be 9874 913e
00000020: 711d acba cac7 92be d764 783f b2f7 9bbe
00000030: cce6 133f 78e3 9bbd 5492 03be 1865 2ebc
00000040: 3ce3 d83d 9178 34bf 3751 b5be e5a8 b83d
00000050: a2bf e8bc fc54 173e 9a0b 0f3f a0f7 5b3e
00000060: ece4 bdbe 8e5e b83e c1a6 9abf 14dd 2c3e
00000070: 4a0d aebd 48e9 8abe f474 28bd 235a c23d
00000080: 258c 893f d183 343d d24d da3d 3f61 a23e
00000090: 1759 103e da8e 13bf 1d1b 4fbe 0e95 9abe
000000a0: dd26 193f 1dd2 a43e f2b1 093f 796f a13e
000000b0: af15 d33e 53e7 02bd cc6e 0abf 64b2 54be
000000c0: 0bd1 6bbf cfe1 9f3f 128f adbf 326d a3be
000000d0: 4cd6 493e 82dc 0fbf 3aac bbbd 09e5 d13e
000000e0: eed1 28bf 36fe 863f ad69 e8be bf54 fcbb
000000f0: 087e efbe 6c2e 9dbe 32d5 d5be 0674 773f
00000100: 6631 cfbe 16ed 323e e405 723f 08a5 56bd
00000110: 3b12 9d3e 3436 dcbb db44 cabe c093 0a3e
00000120: aa70 22be 10af 94be d57d 463e f684 12bf
00000130: 0e08 2bbe 339a c6be 6aba 823f ab9d 04bf
00000140: ce94 693f f4d9 9dbe 5524 1c3f 8715 ab3d
00000150: 3a12 9ebb 25d4 01bf 804a dfbe c71c 6bbf
00000160: b38b febe 0773 7f3f d8ae 0a3e 16aa 0cbe
00000170: 2b78 ccbd c6da 4ebe 78be 6fbe e287 cd3e
00000180: 6af3 38bc 8caa 473e 335a 1abe 9b13 a1be
00000190: d2c8 bd3e 979a e6be a1d1 363d c51c 9b3e
000001a0: 8cf9 b03c 96bb 0fbf 9f9b e2bd f619 2b3f
000001b0: 0432 083d 4472 da3e c6ac 033e 4c78 b23e
000001c0: 259c 3fbd 17df 25bf 7cf2 a63e 3d4d 8ebe
000001d0: 21a9 bfbd d48c 6e3e 4d81 363d 830d 35be
000001e0: f69b 04bb 8755 5abe c804 fc3e

exp_avg f4 [123]
0.0063686343 -0.002813125 0.028028494 0.007017923 0.035038084 -0.06507032 0.034626015 0.022052228
-0.07852807 -0.006518171 -0.028296405 0.013438359 0.024065208 0.019664062 -0.0028245081 0.035471555
0.003412372 -0.013774998 0.014872018 -0.005878262 -3.060652e-05 0.032754686 -0.07181176 -0.012219886
-0.021203035 0.03533198 -0.008949745 -0.012167476 -0.008841061 -0.019848363 -0.028699351 -0.030971672
0.014315536 0.04182314 0.054399084 0.018517844 -0.024816096 -0.016073583 -0.018730076 0.042497486
0.010878809 -0.015902951 0.013366715 -0.016488362 -0.0333535 -0.040103585 0.007118161 0.03884565
0.0016255844 -0.031385496 0.013158258 -0.02072607 0.010503634 -0.013956461 -0.054030582 0.05345948
0.01691931 0.01351893 -0.0019457554 0.016714705 0.0072116973 0.044754885 -0.047889683 -0.043339342
0.03612992 -0.0027876133 -0.0012343129 -0.0056626145 -0.012008831 0.0153290685 -0.0037984839 0.044302575
-0.011884762 0.025771031 -0.012962309 0.04270731 0.025063768 0.012331935 0.05719319 0.02773492
0.028187623 0.0116083855 0.045421854 0.017649356 -0.039157536 0.0046455767 0.011835614 0.019480677
-0.021245407 -0.039181367 0.02720145 -0.06803477 -0.017120583 0.048299678 0.008775547 0.028895114
0.00077816565 0.0092037115 0.010174333 -0.03316061 0.03528212 0.005116092 -0.039576374 -0.050759196
-0.035610825 -0.012768488 0.012600956 0.026591897 0.006571794 0.04300538 -0.008260672 -0.0071581323
-0.062240135 0.0037391605 -0.006014336 -0.005615253 -0.015139753 -0.020135082 -0.012818921 0.04271242
-0.04865551 -0.019407831 0.041544013
00000000: faaf d03b 685c 38bb 039c e53c 9bf6 e53b
00000010: 1884 0f3d 9743 85bd 02d4 0d3d e0a6 b43c
00000020: 53d3 a0bd 6296 d5bb ddcd e7bc 902c 5c3c
00000030: 6624 c53c 8716 a13c 621b 39bb 9f4a 113d
00000040: 1aa2 5f3b 87b0 61bc c4a9 733c 709e c0bb
00000050: 805f 00b8 c729 063d 0b12 93bd eb35 48bc
00000060: fdb1 adbc 44b8 103d f4a1 12bc 185a 47bc
00000070: 19da 10bc 0999 a2bc e71a ebbc 4eb8 fdbc
00000080: b68b 6a3c be4e 2b3d 93d1 5e3d bcb2 973c
00000090: 204b cbbc bfac 83bc d16f 99bc d811 2e3d
000000a0: 083d 323c e846 82bc 1100 5b3c 9a12 87bc
000000b0: ae9d 08bd a843 24bd 763f e93b 9e1c 1f3d
000000c0: 9011 d53a 148e 00bd bc95 573c b8c9 a9bc
000000d0: 6f17 2c3c a4a9 64bc 2c4f 5dbd 54f8 5a3d
000000e0: 5d9a 8a3c 817e 5d3c b808 ffba 47ed 883c
000000f0: 1a50 ec3b e650 373d f927 44bd 9884 31bd
00000100: f8fc 133d 64b0 36bb abc8 a1ba 748d b9bb
00000110: b0c0 44bc c626 7b3c fcef 78bb 9e76 353d
00000120: 4eb8 42bc c51d d33c dd5f 54bc dced 2e3d
00000130: 8852 cd3c e20b 4a3c 6843 6a3d 5834 e33c
00000140: bbe9 e63c 1931 3e3c 440c 3a3d 6295 903c
00000150: a763 20bd ec39 983b 2aea 413c f195 9f3c
00000160: d90a aebc a47c 20bd 93d5 de3c d055 8bbd
00000170: 7740 8cbc e2d5 453d 50c7 0f3c 72b5 ec3c
00000180: d0fd 4b3a 2acb 163c 3fb2 263c 6bd3 07bd
00000190: fc83 103d e4a4 a73b d61a 22bd e0e8 4fbd
000001a0: a8dc 11bd ec32 51bc 3d74 4e3c 40d7 d93c
000001b0: 3458 d73b 6926 303d c557 07bc c48e eabb
000001c0: 83ef 7ebd b40c 753b e813 c5bb 2800 b8bb
000001d0: ba0c 78bc 54f2 a4bc 7406 52bc 38f3 2e3d
000001e0: 004b 47bd 2cfd 9ebc 0e2a 2a3d

exp_avg_sq f4 [123]
0.0010898144 0.0010817791 0.0011876147 0.001281381 0.0010408359 0.0010688265 0.0012393055 0.0012377214
0.0014723126 0.0009053716 0.00081110647 0.0012125969 0.0011710434 0.0013989666 0.001231509 0.0009596546
0.001367715 0.001154805 0.001120682 0.0012490739 0.0013734753 0.0011904241 0.0009923378 0.001521645
0.0011715026 0.0016192745 0.0011334204 0.0013594035 0.001112865 0.0013998213 0.0010641046 0.0012301849
0.0016274086 0.0010993646 0.0013699302 0.0012661729 0.0013830285 0.0011810575 0.0012459798 0.00088983454
0.0014212785 0.0012755389 0.0011388602 0.0011273692 0.0013777253 0.0010870666 0.0010084341 0.0013739378
0.0013133038 0.001538554 0.0012175505 0.0013702522 0.0008751313 0.00110839 0.0011173632 0.0014807021
0.00083077257 0.0010903415 0.0011957313 0.0014224732 0.0011269507 0.0011209454 0.0012078518 0.0011864563
0.0011791362 0.00094411895 0.0010836455 0.0014263976 0.0012635529 0.0011790756 0.00090216513 0.0012550156
0.0009761511 0.0012120757 0.0009337025 0.0010552569 0.0017023765 0.0012373968 0.0009267566 0.0013793344
0.001274892 0.0014419459 0.0011378063 0.0013565473 0.0012686981 0.0009982812 0.0010370916 0.0011961719
0.0013764341 0.0014538917 0.0017201855 0.0012924079 0.0011370063 0.0009860122 0.0012840441 0.0013191928
0.0011719292 0.0015022082 0.0010052266 0.0012357406 0.0013553584 0.0013439659 0.0014369871 0.0012933875
0.0014326291 0.0011055531 0.0011751717 0.0013528732 0.0013006807 0.0016467148 0.0013831514 0.0013819943
0.0009052272 0.0012561372 0.0011546254 0.0013114063 0.0014180053 0.00079275254 0.001535654 0.0013932994
0.0010781666 0.001544958 0.0013748652
00000000: 1ad8 8e3a 7cca 8d3a bda9 9b3a 03f4 a73a
00000010: a86c 883a de17 8c3a 3170 a23a 0a3b a23a
00000020: 9dfa c03a 7656 6d3a 6fa0 543a 00f0 9e3a
00000030: b27d 993a 885d b73a 966a a13a 5491 7b3a
00000040: e644 b33a d35c 973a d9e3 923a f7b7 a33a
00000050: 2f06 b43a 0108 9c3a 5511 823a ef71 c73a
00000060: 1b8d 993a d63d d43a 478f 943a 032e b23a
00000070: 8edd 913a 357a b73a 6d79 8b3a 283e a13a
00000080: c54e d53a 8e18 903a 3b8f b33a b6f5 a53a
00000090: bc46 b53a b7cd 9a3a 2550 a33a c943 693a
000000a0: 314a ba3a fc2f a73a cf45 953a 3cc4 933a
000000b0: ca94 b43a e77b 8e3a 6f2d 843a b415 b43a
000000c0: 2a23 ac3a 4ea9 c93a 3796 9f3a 099a b33a
000000d0: 1169 653a 6647 913a 7d74 923a 1e14 c23a
000000e0: 34c8 593a cae9 8e3a 16ba 9c3a 4872 ba3a
000000f0: 31b6 933a b0ec 923a c850 9e3a de82 9b3a
00000100: 3f8d 9a3a c07e 773a 1c09 8e3a f6f5 ba3a
00000110: cd9d a53a 368b 9a3a 477f 6c3a 567f a43a
00000120: 64e4 7f3a 83de 9e3a b7c3 743a 8c50 8a3a
00000130: 4722 df3a 2630 a23a 95f1 723a c8ca b43a
00000140: 471a a73a adff bc3a 7222 953a 2dce b13a
00000150: 724a a63a c2d8 823a 05ef 873a dec8 9c3a
00000160: 7769 b43a 8390 be3a d977 e13a 0366 a93a
00000170: 9a07 953a 143d 813a 5f4d a83a c4e8 ac3a
00000180: 6b9b 993a bee5 c43a cfc1 833a 93f8 a13a
00000190: 48a6 b13a 0328 b03a 4959 bc3a e286 a93a
000001a0: 0ec7 bb3a 35e8 903a 3808 9a3a e452 b13a
000001b0: 9a7b aa3a 94d6 d73a dc4a b53a 0924 b53a
000001c0: c54c 6d3a f8a4 a43a cd56 973a 7ee3 ab3a
000001d0: 5ddc b93a b9d0 4f3a ff47 c93a 5f9f b63a
000001e0: 4551 8d3a 3080 ca3a d234 b43a
