output/train_angle_autoencoder16_20260210_080126/checkpoints/train_angle_autoencoder16_20260210_080126_checkpoint.pth.tar (torch, 6535 bytes, 4 tensors)

weight f4 [123]
0.0641433 -0.07610095 -0.012402338 0.40403253 -0.28672192 0.4590126 0.4918681 0.4427588
0.12216213 -0.14320603 -0.46870208 -0.4519038 -0.25667402 -0.12203847 0.43643188 -0.46601045
-0.02633471 0.108617716 0.3615226 0.4269688 -0.17182267 -0.36477956 0.43220592 0.3141474
-0.20127286 0.39032167 0.020434877 -0.16277236 -0.34155762 -0.1228496 0.033864155 0.47953424
0.41719526 -0.2832687 0.19043788 -0.18243319 -0.3902763 -0.21757874 0.3061492 0.4478668
-0.40085754 -0.36541706 -0.4064551 0.24310777 0.15516438 0.18267979 0.18483013 -0.35283172
0.06818342 -0.49772844 -0.34406617 0.072295204 0.045292027 -0.23382695 0.15794957 0.034552746
0.33075866 0.0006839082 0.26789725 0.49714258 -0.17959206 0.483135 -0.43319172 0.41162974
-0.08340909 0.31739303 0.46493936 -0.11238258 -0.20969637 0.15078697 0.47020915 0.12274174
0.39583746 -0.039811123 0.25128862 0.34845495 -0.10801622 0.2671643 -0.2004925 -0.45585206
0.16112632 0.37245193 -0.3568003 -0.21069139 0.03915396 0.32870737 -0.24978866 -0.4084964
-0.29183912 -0.41667762 -0.45243305 -0.28484312 -0.21627188 0.049626186 0.45054445 -0.3277109
0.119600676 0.38631457 -0.4450354 -0.4336589 -0.29860815 -0.043025833 0.5017616 0.21098295
0.44823813 -0.0011858757 0.12749436 -0.33836573 0.41986382 0.5128352 -0.3351047 -0.10225767
0.40081766 0.20855664 -0.2887801 0.21376488 -0.13374552 0.37096313 -0.10927756 0.25555187
-0.15534729 0.2215877 -0.06994567
00000000: 905d 833d d1da 9bbd 2d33 4bbc 5add ce3e
00000010: 37cd 92be b303 eb3e 23d6 fb3e 48b1 e23e
00000020: 2430 fa3d 9aa4 12be b8f9 efbe ef5f e7be
00000030: c76a 83be 4eef f9bd 0074 df3e ec98 eebe
00000040: e4bb d7bc f772 de3d 7d19 b93e a89b da3e
00000050: 48f2 2fbe 63c4 babe 184a dd3e eed7 a03e
00000060: 791a 4ebe 3ed8 c73e 0b67 a73c ccad 26be
00000070: a4e0 aebe 9298 fbbd 24b5 0a3d 8385 f53e
00000080: 9e9a d53e 9808 91be 2602 433e c4cf 3abe
00000090: 4cd2 c7be f6cc 5ebe 97bf 9c3e cc4e e53e
000000a0: 333d cdbe f217 bbbe e21a d0be 3ef1 783e
000000b0: 69e3 1e3e 6910 3b3e 1c44 3d3e 5ca6 b4be
000000c0: c0a3 8b3d 43d6 febe 7129 b0be 820f 943d
000000d0: 2284 393d 5570 6fbe 88bd 213e 2e87 0d3d
000000e0: 3359 a93e 4d48 333a d429 893e 7989 fe3e
000000f0: fbe6 37be 795d f73e 4ecb ddbe 22c1 d23e
00000100: 63d2 aabd 5781 a23e 880c ee3e d728 e6bd
00000110: a5ba 56be e667 1a3e 41bf f03e 0560 fb3d
00000120: 35ab ca3e fd10 23bd e7a8 803e b068 b23e
00000130: 9c37 ddbd c2c9 883e e84d 4dbe 7165 e9be
00000140: 4cfe 243e 05b2 be3e 87ae b6be 7cbf 57be
00000150: e75f 203d 554c a83e 99c8 7fbe 7126 d1be
00000160: f06b 95be c556 d5be 4ea5 e7be f5d6 91be
00000170: 6076 5dbe d444 4b3d c3ad e63e b9c9 a7be
00000180: 33f1 f43d 06cb c53e aedb e3be 8a08 debe
00000190: 2be3 98be db3b 30bd 7373 003f ea0b 583e
000001a0: 787f e53e 636f 9bba e28d 023e 463e adbe
000001b0: 64f8 d63e 2b49 033f d892 abbe 786c d1bd
000001c0: f937 cd3e df8f 553e fcda 93be 2ee5 5a3e
000001d0: 96f4 08be e1ee bd3e eacc dfbd b2d7 823e
000001e0: 5c13 1fbe e3e7 623e ad3f 8fbd

_weights f4 [123]
0.0641433 -0.07610095 -0.012402338 0.40403253 -0.28672192 0.4590126 0.4918681 0.4427588
0.12216213 -0.14320603 -0.46870208 -0.4519038 -0.25667402 -0.12203847 0.43643188 -0.46601045
-0.02633471 0.108617716 0.3615226 0.4269688 -0.17182267 -0.36477956 0.43220592 0.3141474
-0.20127286 0.39032167 0.020434877 -0.16277236 -0.34155762 -0.1228496 0.033864155 0.47953424
0.41719526 -0.2832687 0.19043788 -0.18243319 -0.3902763 -0.21757874 0.3061492 0.4478668
-0.40085754 -0.36541706 -0.4064551 0.24310777 0.15516438 0.18267979 0.18483013 -0.35283172
0.06818342 -0.49772844 -0.34406617 0.072295204 0.045292027 -0.23382695 0.15794957 0.034552746
0.33075866 0.0006839082 0.26789725 0.49714258 -0.17959206 0.483135 -0.43319172 0.41162974
-0.08340909 0.31739303 0.46493936 -0.11238258 -0.20969637 0.15078697 0.47020915 0.12274174
0.39583746 -0.039811123 0.25128862 0.34845495 -0.10801622 0.2671643 -0.2004925 -0.45585206
0.16112632 0.37245193 -0.3568003 -0.21069139 0.03915396 0.32870737 -0.24978866 -0.4084964
-0.29183912 -0.41667762 -0.45243305 -0.28484312 -0.21627188 0.049626186 0.45054445 -0.3277109
0.119600676 0.38631457 -0.4450354 -0.4336589 -0.29860815 -0.043025833 0.5017616 0.21098295
0.44823813 -0.0011858757 0.12749436 -0.33836573 0.41986382 0.5128352 -0.3351047 -0.10225767
0.40081766 0.20855664 -0.2887801 0.21376488 -0.13374552 0.37096313 -0.10927756 0.25555187
-0.15534729 0.2215877 -0.06994567
00000000: 905d 833d d1da 9bbd 2d33 4bbc 5add ce3e
00000010: 37cd 92be b303 eb3e 23d6 fb3e 48b1 e23e
00000020: 2430 fa3d 9aa4 12be b8f9 efbe ef5f e7be
00000030: c76a 83be 4eef f9bd 0074 df3e ec98 eebe
00000040: e4bb d7bc f772 de3d 7d19 b93e a89b da3e
00000050: 48f2 2fbe 63c4 babe 184a dd3e eed7 a03e
00000060: 791a 4ebe 3ed8 c73e 0b67 a73c ccad 26be
00000070: a4e0 aebe 9298 fbbd 24b5 0a3d 8385 f53e
00000080: 9e9a d53e 9808 91be 2602 433e c4cf 3abe
00000090: 4cd2 c7be f6cc 5ebe 97bf 9c3e cc4e e53e
000000a0: 333d cdbe f217 bbbe e21a d0be 3ef1 783e
000000b0: 69e3 1e3e 6910 3b3e 1c44 3d3e 5ca6 b4be
000000c0: c0a3 8b3d 43d6 febe 7129 b0be 820f 943d
000000d0: 2284 393d 5570 6fbe 88bd 213e 2e87 0d3d
000000e0: 3359 a93e 4d48 333a d429 893e 7989 fe3e
000000f0: fbe6 37be 795d f73e 4ecb ddbe 22c1 d23e
00000100: 63d2 aabd 5781 a23e 880c ee3e d728 e6bd
00000110: a5ba 56be e667 1a3e 41bf f03e 0560 fb3d
00000120: 35ab ca3e fd10 23bd e7a8 803e b068 b23e
00000130: 9c37 ddbd c2c9 883e e84d 4dbe 7165 e9be
00000140: 4cfe 243e 05b2 be3e 87ae b6be 7cbf 57be
00000150: e75f 203d 554c a83e 99c8 7fbe 7126 d1be
00000160: f06b 95be c556 d5be 4ea5 e7be f5d6 91be
00000170: 6076 5dbe d444 4b3d c3ad e63e b9c9 a7be
00000180: 33f1 f43d 06cb c53e aedb e3be 8a08 debe
00000190: 2be3 98be db3b 30bd 7373 003f ea0b 583e
000001a0: 787f e53e 636f 9bba e28d 023e 463e adbe
000001b0: 64f8 d63e 2b49 033f d892 abbe 786c d1bd
000001c0: f937 cd3e df8f 553e fcda 93be 2ee5 5a3e
000001d0: 96f4 08be e1ee bd3e eacc dfbd b2d7 823e
000001e0: 5c13 1fbe e3e7 623e ad3f 8fbd

exp_avg f4 [123]
0.017369948 -0.03605845 0.013263623 -0.00096251845 0.006853597 -0.027103376 -0.044501636 0.08235897
0.19999099 -0.033960994 0.07275222 0.009348984 -0.0022509908 0.030354416 0.010403949 -0.00035806643
0.004749932 -0.004762361 -0.04018621 0.00274538 0.027002184 0.019013956 0.02831217 0.00046546044
0.01920633 -0.004826898 -0.04142081 -0.026553543 0.0024188242 0.10810519 -0.06833858 0.068983234
0.0044288044 0.011143033 0.037565283 -0.032001894 0.020483067 0.02097738 -0.023922043 -0.003989397
0.017842038 -0.055836625 -0.0142445415 -0.011096027 -0.014013139 -0.04332957 -0.018524926 -0.009234974
0.004337233 0.19598044 0.15439731 -0.0021236243 -0.032033216 -0.050279353 -0.010631926 -0.054843068
-0.0085292775 0.013045162 -0.021746755 -0.052072108 -0.026800092 0.026027888 0.011872972 -0.008825475
-0.0059494264 0.003000762 -0.029044893 -0.00096060586 -0.016759768 0.016551781 -0.02062905 0.19318831
0.0064878734 0.02603262 -0.005342665 -0.03135323 0.0044201906 0.010371917 -0.008139181 -0.023931991
0.0068821535 0.010188461 -0.008936516 0.042174723 -0.026192369 -0.004556048 -0.007017111 -0.0043850075
-0.031631663 0.012636216 0.0029894274 -0.09096448 0.16524667 -0.023742218 -0.0017603517 0.043224674
0.03147045 -0.013409119 -0.00845547 0.0024649682 0.050282992 -0.03095986 0.00076432736 0.005038467
0.042697314 -0.02276011 0.0016540077 0.007449919 0.00061643875 -0.09474923 0.060853634 0.015410478
-0.013837422 -0.005083454 -0.029311068 -0.006241452 0.0053384006 -0.01607468 0.037335314 0.071938954
-0.020270133 0.0432734 0.009898548
00000000: 6c4b 8e3c 06b2 13bd ab4f 593c 8551 7cba
00000010: 2394 e03b e607 debc 5947 36bd d2ab a83d
00000020: 70ca 4c3e af1a 0bbd 1eff 943d 7b2c 193c
00000030: 5c85 13bb d3a9 f83c 5375 2a3c ddba bbb9
00000040: 51a5 9b3b 940d 9cbb 4c9a 24bd d5eb 333b
00000050: af33 dd3c 28c3 9b3c edee e73c 0b09 f439
00000060: 9856 9d3c f52a 9ebb dea8 29bd d186 d9bc
00000070: 2385 1e3b 4166 dd3d 19f5 8bbd 1547 8d3d
00000080: 811f 913b 4591 363c 0ede 193d 6b14 03bd
00000090: 1bcc a73c c1d8 ab3c 29f8 c3bc 7db9 82bb
000000a0: 7729 923c f2b4 64bd f061 69bc 1ccc 35bc
000000b0: 5d97 65bc 597a 31bd 96c1 97bc 4a4e 17bc
000000c0: 591f 8e3b 19af 483e 541a 1e3e 812c 0bbb
000000d0: 4335 03bd b9f1 4dbd 8831 2ebc 20a3 60bd
000000e0: 62be 0bbc 60bb 553c 4026 b2bc 9049 55bd
000000f0: de8b dbbc 7038 d53c db86 423c ba98 10bc
00000100: 68f3 c2bb 6fa8 443b 8eef edbc 2bd1 7bba
00000110: c84b 89bc 9a97 873c 41fe a8bc 28d3 453e
00000120: 3a98 d43b 5c42 d53c 8611 afbb 3f6c 00bd
00000130: 3fd7 903b f9ee 293c 335a 05bc 060d c4bc
00000140: b083 e13b 81ed 263c 776a 12bc 67bf 2c3d
00000150: 6191 d6bc e74a 95bb cbef e5bb 1cb0 8fbb
00000160: 3490 01bd 2208 4f3c 45ea 433b 964b babd
00000170: 6c36 293e 0a7f c2bc 9abb e6ba 5b0c 313d
00000180: 29e7 003d ecb1 5bbc d088 0abc 4e8b 213b
00000190: 8af5 4d3d 889f fdbc 245d 483a b919 a53b
000001a0: 61e3 2e3d 6973 babc 4acb d83a 731e f43b
000001b0: 8198 213a e20b c2bd a941 793d 3b7c 7c3c
000001c0: 5bb6 62bc 1a93 a6bb c41d f0bc 1885 ccbb
000001d0: c0ed ae3b 0caf 83bc eaec 183d bb54 933d
000001e0: 8d0d a6bc 733f 313d 852d 223c

exp_avg_sq f4 [123]
0.00033795147 0.0002936862 0.0002674788 0.00041088343 0.00031982068 0.00028389887 0.00019357135 0.00047052823
0.0013095426 0.00036364526 0.00030689387 0.00039186963 0.00025658018 0.00035577023 0.0002869227 0.00024844924
0.00016304782 0.00016990612 0.00038342297 0.00028974624 0.00027395855 0.0002968421 0.00025075127 0.000222315
0.00013747373 0.00023085119 0.0003510894 0.0002289549 0.00020197692 0.00060859125 0.00047118348 0.0003778642
0.00017250903 0.00029075134 0.00027912323 0.00029996686 0.00025798896 0.00031123898 0.0002625554 0.0003251245
0.0002925076 0.00018852537 0.0002629672 0.00023994435 0.0002817509 0.00021977999 0.00030166988 0.00027344187
0.00028554618 0.0013179095 0.0011000099 0.00018765904 0.00016729278 0.0002689896 0.0002507163 0.00027426405
0.00029208887 0.0001849121 0.0002406861 0.00030593123 0.00035283837 0.00028284025 0.00023489652 0.00021911446
0.00031693937 0.00029336207 0.00030432537 0.00039201725 0.0003229 0.00028660268 0.00030318007 0.001661322
0.00021403392 0.00022779219 0.00025043223 0.00022678927 0.00025928987 0.0002024848 0.0002937666 0.00032746352
0.0001989553 0.0002210279 0.00027725697 0.00031256804 0.00036429134 0.00023416626 0.0003439605 0.00026855464
0.0003474048 0.00029950924 0.00020951264 0.0007500878 0.001037564 0.00027162605 0.00045245944 0.00028829311
0.00029030265 0.0002142132 0.00018775268 0.00029915504 0.00033627404 0.0002418431 0.00016457977 0.00027019045
0.00039836447 0.00037674207 0.0003480121 0.00028301112 0.00048108562 0.00044126305 0.00048838236 0.0004041565
0.0001374087 0.00021717501 0.00015187183 0.00032878487 0.00036380457 0.00031001534 0.0002784806 0.00040544078
0.00019800631 0.00037036923 0.00026809136
00000000: 142f b139 e5f9 9939 663c 8c39 d76b d739
00000010: 9bad a739 43d8 9439 6af9 4a39 3bb1 f639
00000020: f5a4 ab3a a4a7 be39 99e6 a039 da73 cd39
00000030: 9c85 8639 ac86 ba39 1d6e 9639 4b42 8239
00000040: d1f7 2a39 d428 3239 2906 c939 15e9 9739
00000050: 18a2 8f39 79a1 9b39 4477 8339 3a1d 6939
00000060: d326 1039 a510 7239 6c12 b839 9d13 7039
00000070: c4c9 5339 de89 1f3a 2d09 f739 131c c639
00000080: 8ae3 3439 fc6f 9839 4957 9239 df44 9d39
00000090: b142 8739 ca2d a339 97a7 8939 7975 aa39
000000a0: b55b 9939 e5ae 4539 dcde 8939 9299 7b39
000000b0: f7b7 9339 be74 6639 7229 9e39 bf5c 8f39
000000c0: 5cb5 9539 b4bd ac3a 352e 903a 57c6 4439
000000d0: 506b 2f39 2c07 8d39 9272 8339 19cb 8f39
000000e0: 8123 9939 f7e4 4139 af60 7c39 6565 a039
000000f0: 2afd b839 2d4a 9439 8e4e 7639 17c2 6539
00000100: e22a a639 64ce 9939 dc8d 9f39 aa87 cd39
00000110: e84a a939 2943 9639 24f4 9e39 b7c0 d93a
00000120: 4b6e 6039 80db 6e39 724c 8339 48ce 6d39
00000130: 4cf1 8739 1a52 5439 b004 9a39 69af ab39
00000140: a89e 5039 bac3 6739 cd5c 9139 2ce0 a339
00000150: 5bfe be39 878a 7539 9955 b439 cbcc 8c39
00000160: e223 b639 7307 9d39 9fb0 5b39 8aa1 443a
00000170: dffe 873a 0869 8e39 1438 ed39 0c26 9739
00000180: c333 9839 6b9e 6039 7adf 4439 e9d7 9c39
00000190: f04d b039 4397 7d39 0c93 2c39 59a8 8d39
000001a0: 93db d039 7785 c539 6575 b639 1c61 9439
000001b0: 383a fc39 5359 e739 c906 003a f8e4 d339
000001c0: 5e15 1039 79b9 6339 c93f 1f39 c260 ac39
000001d0: 06bd be39 8e89 a239 0901 9239 5791 d439
000001e0: ea9f 4f39 1e2e c239 9d8e 8c39
