output/mnist_38_ae_train_angle_autoencoder16_20260203_231016/model/train_angle_autoencoder16_20260203_231016_trained_qcnn.pth (torch, 2738 bytes, 2 tensors)

weight f4 [123]
-0.13920172 0.22396635 -1.4565029 0.2743139 -0.03604972 -0.9223876 -0.20964806 -0.010220831
0.15461521 0.5673983 -0.2195982 0.1014059 0.11178247 0.10738949 -0.56254816 0.524202
-0.3116028 0.72518164 -0.123247445 0.16985181 0.009775297 0.024313215 0.03852125 0.6584616
0.57885265 -0.56859386 -0.5093258 0.33897203 -0.1828406 -0.10077343 0.788273 -0.09917121
-1.0885206 -0.31415933 0.54057366 -0.37089425 -0.276251 -0.13633095 1.3387563 0.040980965
0.50065464 -0.43175182 0.20918243 -0.16092587 0.113190435 0.2726181 0.3605873 0.04506293
0.68791664 -0.79227406 -0.55095166 0.02359947 1.1000279 -1.4028419 0.37188223 -0.6064004
-0.82592744 0.4116049 0.49526387 0.25537547 0.8206755 0.5097439 -0.052573685 -0.41847447
0.2208415 -1.158318 0.34881434 0.47990358 -0.61112344 -0.53282946 0.6639302 -0.74261975
0.27626047 -0.73331493 -0.062056586 -0.6105311 -0.54465604 0.27964732 0.6615771 -0.41152653
-0.0038778177 0.014825014 -0.22281669 -0.2149723 0.5910192 0.056781445 -0.19877778 0.8192987
-0.27414435 -0.5725017 -0.6722624 0.4044956 0.32276252 0.48740745 -0.3611469 0.39675716
0.21140651 -0.15324171 0.6705512 0.12499236 0.0071997805 -0.4090547 0.2922643 0.24086323
-0.028514251 0.4993965 -0.0011535904 -0.056642406 -0.41399273 0.6305531 -0.75574976 -0.080113515
0.081601635 -0.13641337 0.4107082 0.67710376 0.4485755 0.45916742 0.27857134 -0.3891172
0.15922317 -0.33188373 0.4648353
00000000: e58a 0ebe 6f57 653e b06e babf df72 8c3e
00000010: dfa8 13bd 9821 6cbf fbad 56be 4675 27bc
00000020: 7353 1e3e 0441 113f 5ade 60be e6ad cf3d
00000030: 35ee e43d 05ef db3d 2803 10bf 1a32 063f
00000040: 678a 9fbe 81a5 393f 2869 fcbd a2ed 2d3e
00000050: 9128 203c 822c c73c 75c8 1d3d f090 283f
00000060: b02f 143f 5e8f 11bf 2d63 02bf be8d ad3e
00000070: 913a 3bbe 4d62 cebd 42cc 493f 461a cbbd
00000080: a554 8bbf 7ed9 a0be 0963 0a3f dae5 bdbe
00000090: c570 8dbe 579a 0bbe 5e5c ab3f a8db 273d
000000a0: e72a 003f 930e ddbe eb33 563e c0c9 24be
000000b0: 63d0 e73d 9994 8b3e e69e b83e e893 383d
000000c0: 4e1b 303f 79d2 4abf 2b0b 0dbf ad53 c13c
000000d0: b7cd 8c3f 5390 b3bf 5967 be3e 0e3d 1bbf
000000e0: fb6f 53bf e1bd d23e 3a93 fd3e 93c0 823e
000000f0: ca17 523f 947e 023f 8157 57bd 4942 d6be
00000100: 4624 623e c443 94bf cb97 b23e ecb5 f53e
00000110: 9672 1cbf 8367 08bf 54f7 293f 541c 3ebf
00000120: 0372 8d3e 87ba 3bbf 0c2f 7ebd c44b 1cbf
00000130: 946e 0bbf ef2d 8f3e 1e5d 293f 9bb3 d2be
00000140: fc22 7ebb 9ee4 723c 0f2a 64be b321 5cbe
00000150: 094d 173f a993 683d 678c 4bbe 8fbd 513f
00000160: a65c 8cbe 798f 12bf 6319 2cbf 0c1a cf3e
00000170: 2141 a53e 788d f93e 3fe8 b8be c123 cb3e
00000180: f37a 583e 65eb 1cbe 3ea9 2b3f fffb ff3d
00000190: 23ec eb3b 9e6f d1be aba3 953e daa4 763e
000001a0: b896 e9bc e6b0 ff3e 1234 97ba de01 68bd
000001b0: dbf6 d3be ee6b 213f d178 41bf 8e12 a4bd
000001c0: c21e a73d f2af 0bbe 5848 d23e ac56 2d3f
000001d0: b0ab e53e fe17 eb3e e7a0 8e3e 5f3a c7be
000001e0: 660b 233e aaec a9be e4fe ed3e

_weights f4 [123]
-0.13920172 0.22396635 -1.4565029 0.2743139 -0.03604972 -0.9223876 -0.20964806 -0.010220831
0.15461521 0.5673983 -0.2195982 0.1014059 0.11178247 0.10738949 -0.56254816 0.524202
-0.3116028 0.72518164 -0.123247445 0.16985181 0.009775297 0.024313215 0.03852125 0.6584616
0.57885265 -0.56859386 -0.5093258 0.33897203 -0.1828406 -0.10077343 0.788273 -0.09917121
-1.0885206 -0.31415933 0.54057366 -0.37089425 -0.276251 -0.13633095 1.3387563 0.040980965
0.50065464 -0.43175182 0.20918243 -0.16092587 0.113190435 0.2726181 0.3605873 0.04506293
0.68791664 -0.79227406 -0.55095166 0.02359947 1.1000279 -1.4028419 0.37188223 -0.6064004
-0.82592744 0.4116049 0.49526387 0.25537547 0.8206755 0.5097439 -0.052573685 -0.41847447
0.2208415 -1.158318 0.34881434 0.47990358 -0.61112344 -0.53282946 0.6639302 -0.74261975
0.27626047 -0.73331493 -0.062056586 -0.6105311 -0.54465604 0.27964732 0.6615771 -0.41152653
-0.0038778177 0.014825014 -0.22281669 -0.2149723 0.5910192 0.056781445 -0.19877778 0.8192987
-0.27414435 -0.5725017 -0.6722624 0.4044956 0.32276252 0.48740745 -0.3611469 0.39675716
0.21140651 -0.15324171 0.6705512 0.12499236 0.0071997805 -0.4090547 0.2922643 0.24086323
-0.028514251 0.4993965 -0.0011535904 -0.056642406 -0.41399273 0.6305531 -0.75574976 -0.080113515
0.081601635 -0.13641337 0.4107082 0.67710376 0.4485755 0.45916742 0.27857134 -0.3891172
0.15922317 -0.33188373 0.4648353
00000000: e58a 0ebe 6f57 653e b06e babf df72 8c3e
00000010: dfa8 13bd 9821 6cbf fbad 56be 4675 27bc
00000020: 7353 1e3e 0441 113f 5ade 60be e6ad cf3d
00000030: 35ee e43d 05ef db3d 2803 10bf 1a32 063f
00000040: 678a 9fbe 81a5 393f 2869 fcbd a2ed 2d3e
00000050: 9128 203c 822c c73c 75c8 1d3d f090 283f
00000060: b02f 143f 5e8f 11bf 2d63 02bf be8d ad3e
00000070: 913a 3bbe 4d62 cebd 42cc 493f 461a cbbd
00000080: a554 8bbf 7ed9 a0be 0963 0a3f dae5 bdbe
00000090: c570 8dbe 579a 0bbe 5e5c ab3f a8db 273d
000000a0: e72a 003f 930e ddbe eb33 563e c0c9 24be
000000b0: 63d0 e73d 9994 8b3e e69e b83e e893 383d
000000c0: 4e1b 303f 79d2 4abf 2b0b 0dbf ad53 c13c
000000d0: b7cd 8c3f 5390 b3bf 5967 be3e 0e3d 1bbf
000000e0: fb6f 53bf e1bd d23e 3a93 fd3e 93c0 823e
000000f0: ca17 523f 947e 023f 8157 57bd 4942 d6be
00000100: 4624 623e c443 94bf cb97 b23e ecb5 f53e
00000110: 9672 1cbf 8367 08bf 54f7 293f 541c 3ebf
00000120: 0372 8d3e 87ba 3bbf 0c2f 7ebd c44b 1cbf
00000130: 946e 0bbf ef2d 8f3e 1e5d 293f 9bb3 d2be
00000140: fc22 7ebb 9ee4 723c 0f2a 64be b321 5cbe
00000150: 094d 173f a993 683d 678c 4bbe 8fbd 513f
00000160: a65c 8cbe 798f 12bf 6319 2cbf 0c1a cf3e
00000170: 2141 a53e 788d f93e 3fe8 b8be c123 cb3e
00000180: f37a 583e 65eb 1cbe 3ea9 2b3f fffb ff3d
00000190: 23ec eb3b 9e6f d1be aba3 953e daa4 763e
000001a0: b896 e9bc e6b0 ff3e 1234 97ba de01 68bd
000001b0: dbf6 d3be ee6b 213f d178 41bf 8e12 a4bd
000001c0: c21e a73d f2af 0bbe 5848 d23e ac56 2d3f
000001d0: b0ab e53e fe17 eb3e e7a0 8e3e 5f3a c7be
000001e0: 660b 233e aaec a9be e4fe ed3e
