output/train_angle_raw_20260210_132209/model/train_angle_raw_20260210_132209_hybrid_e2e.pth (torch, 840277 bytes, 20 tensors)

encoder.0.weight f4 [16, 1, 3, 3]
00000000: 3653 3a3d 1621 9dbc 5619 1bbc 2e04 5abe
00000010: 76e8 0fbe 803e 003c eaec 893e d0a1 953d
00000020: 4b46 1c3d aba8 c83d 5631 f6bc fbb0 84be
00000030: b3da 153e 0bc9 20bd a6a9 283e cb43 06bd
00000040: 83a0 88be 0bbb 4bbd 0068 453d c41b 9f3e
00000050: 90d7 71be 9398 643e 30fa 123e 6be1 6bbd
00000060: a66d a23e 1cc9 953e fec0 353e a348 3d3e
00000070: 7b80 ae3d da38 863e c6df afbd e20b 93be
00000080: 0370 81be 206b 53bd 6686 8bbe 966c 113d
00000090: 76cf 2bbe 0b41 853d eb1b 66bd a3cb 8bbe
000000a0: cf31 a3be 8edc 33be 002b a9bc dc66 993e
000000b0: 804e c3bc 8ba0 8e3e 7682 4cbd ebdf e4bc
000000c0: d01c 4ebe c0ca bcbc f80f 9c3e e6e6 5b3e
000000d0: 035d 6bbe 807d 733d 261b d5bd 4b0e 18be
000000e0: 361f 743d dbe9 5f3e ae6d 963e 48dd 8a3e
000000f0: 4664 a53e b8b5 5fbe d022 283e b318 353e
00000100: a072 ff3d 83e9 4cbe 0024 e5bb 965d cbbc
00000110: 2e21 993e 6fa8 a3be 603b 1bbd 866d 17be
00000120: 7b3c dbbd 945c 93be 3e65 143e 6035 1abd
00000130: eb26 813d 4004 203e 6622 dd3d 10e6 b53d
00000140: 2f38 a1be 27bc 9abe 10b1 50be 20a4 7a3d
00000150: a833 30be e07f 1a3d 0639 b53d e674 e5bd
00000160: e473 803e 9606 8c3d 33f4 80be dc7e 873e
00000170: 7b57 5c3e 56ae a73c b3d0 3a3e 73dd 6d3e
00000180: b6b1 b3bd 1f37 993e c60b acbd 805e 6abe
00000190: 161f 0a3e cac9 9a3e 3bac 523e 23c9 183e
000001a0: 802b e93c 563a e83d 1659 8ebc e072 a3be
000001b0: 40e3 b73c f853 37be b612 5f3e 36a3 883d
000001c0: 36a1 8f3d 469f 12be 6b85 163d 577e 82be
000001d0: 0b31 2dbe 8325 a1be c0b7 8dbe 1333 4dbe
000001e0: b0dc 8abe 6b04 903d 0040 b1ba a8e2 2d3e
000001f0: 6e64 2c3e 4350 70be 10ca 7d3e 30cb c2bd
00000200: ab7e 65bc 90b2 b0bd fe29 983e 80c7 4a3d
00000210: 3b9d e3bd 5bc8 a93e e0ea ad3d e8f8 703e
00000220: bb63 2bbe eaaf 9d3e 00be 483d 7bff 8c3e
00000230: f3cc 7b3e c0e4 a0bd 03b9 15be 7e0d 2a3e
0.045489512 -0.019180816 -0.00946649 -0.21290657 -0.1405352 0.007827401 0.26938564 0.07306254
0.038152974 0.09797796 -0.030052822 -0.25916275 0.14634208 -0.03925423 0.16470966 -0.032779496
-0.2668496 -0.049738925 0.048194885 0.3107587 -0.23617387 0.22323827 0.14353251 -0.057588022
0.3172428 0.29254997 0.17749402 0.1848474 0.085205995 0.2621525 -0.08587603 -0.28720003
-0.2528077 -0.051615834 -0.27250975 0.035503946 -0.16778359 0.065065466 -0.05617897 -0.273038
-0.31873938 -0.17564604 -0.020650387 0.29961288 -0.023841143 0.2785686 -0.049929105 -0.027938804
-0.20128179 -0.023045897 0.30480933 0.214748 -0.229847 0.059445858 -0.10405569 -0.14849202
0.059600078 0.21866553 0.29380554 0.2712195 0.32303065 -0.21846664 0.1641953 0.17685203
0.12473035 -0.20010953 -0.006992817 -0.024824899 0.29908127 -0.31964442 -0.03789842 -0.14787874
-0.10704895 -0.2878157 0.14491746 -0.03764856 0.06306251 0.15626621 0.107975766 0.088817716
-0.31488177 -0.30221674 -0.20380044 0.061191678 -0.17207205 0.037719607 0.08848767 -0.11203937
0.25088418 0.06837194 -0.2518631 0.26463974 0.21517746 0.020468872 0.18243675 0.23229007
-0.0877413 0.29924867 -0.08400683 -0.22887611 0.13488421 0.30232078 0.20573513 0.14920478
0.028463125 0.11339252 -0.017376464 -0.3192358 0.022447228 -0.17903125 0.21784481 0.06671755
0.070131704 -0.1431857 0.03674833 -0.25487015 -0.1691324 -0.31473932 -0.27679253 -0.20039015
-0.27121496 0.07032093 -0.0013523102 0.16980994 0.16835186 -0.23468117 0.24784112 -0.09511411
-0.014007251 -0.08627808 0.29719537 0.049506664 -0.11113974 0.33160672 0.084920645 0.2353245
-0.16737263 0.30798274 0.049009323 0.27538666 0.245899 -0.078561306 -0.14621358 0.1660671

encoder.0.bias f4 [16]
00000000: 0080 5238 ec48 85be 4b62 a43d 9022 ea3d
00000010: 936b 6bbe 7671 2a3e cb7a bebd c019 16be
00000020: 6e66 a03e bbda afbd 0073 6a3c 64d7 a3be
00000030: 56d7 ef3c fea4 98be fe9d 4dbe 86e1 5cbe
5.018711e-05 -0.26032197 0.080265604 0.114323735 -0.22990255 0.16644844 -0.09300765 -0.1465826
0.31328148 -0.085866414 0.014309645 -0.32000268 0.029277485 -0.2981338 -0.200798 -0.21570405

encoder.1.weight f4 [16]
00000000: 0000 803f 0000 803f 0000 803f 0000 803f
00000010: 0000 803f 0000 803f 0000 803f 0000 803f
00000020: 0000 803f 0000 803f 0000 803f 0000 803f
00000030: 0000 803f 0000 803f 0000 803f 0000 803f
1.0 1.0 1.0 1.0 1.0 1.0 1.0 1.0
1.0 1.0 1.0 1.0 1.0 1.0 1.0 1.0

encoder.1.bias f4 [16]
00000000: 0000 0000 0000 0000 0000 0000 0000 0000
00000010: 0000 0000 0000 0000 0000 0000 0000 0000
00000020: 0000 0000 0000 0000 0000 0000 0000 0000
00000030: 0000 0000 0000 0000 0000 0000 0000 0000
0.0 0.0 0.0 0.0 0.0 0.0 0.0 0.0
0.0 0.0 0.0 0.0 0.0 0.0 0.0 0.0

encoder.1.running_mean f4 [16]
00000000: 0d9c 943c fdc9 b3be 3533 ff3e c04f b6bc
00000010: cccc eabe 1c8a 8d3e 1b37 513e 52c6 47be
00000020: d8d2 803e 7afc 36be 6e35 913e a979 48be
00000030: e5a4 afbd fda5 18bf fb22 243d 020d af3d
0.018140817 -0.35115042 0.49843755 -0.022254825 -0.45859373 0.27644432 0.20431177 -0.19509247
0.2516086 -0.1786975 0.28361076 -0.1957766 -0.08576373 -0.5962828 0.040072422 0.08547403

encoder.1.running_var f4 [16]
00000000: 8899 4e3b a568 433c 0c67 273e eb91 ce3c
00000010: 91c3 563d 769e 583c 7455 9f3d e405 f33b
00000020: db9a c53b 2c5b bc3c eef8 a13d 7197 a93c
00000030: 2df1 803c 6622 b33d 456a 603d aaa6 b13d
0.0031524617 0.011926805 0.16347903 0.025216063 0.0524326 0.013221374 0.07779971 0.0074164737
0.006030423 0.022992693 0.07908808 0.020702096 0.015740002 0.08746795 0.054788847 0.08674367

encoder.3.weight f4 [32, 16, 3, 3]
00000000: 00e2 9c3b 4bb1 0d3d 0bfc 743c cbd5 8ebc
00000010: 96ed 65bd f30c 19bd 4e3e 4f3d 88a3 313d
00000020: de41 3d3d 140c 89bd 6b21 df3b 40d0 ff3c
00000030: db57 d0bc 3edf 233d 3655 0ebd 7b55 e13c
00000040: 5874 50bd 13c3 47bd 6c99 993d d346 563d
00000050: eb9c 40bc aec5 76bd ee3c 453d f69f e33c
00000060: 7693 f8bc 2ee3 0f3d 26ac a0bc f07a f83c
00000070: 6485 823d cb70 20bc 28d1 6cbd ceb3 33bd
00000080: 7043 243d f8c8 4fbd fed1 a53d 68be 84bd
00000090: 6089 d73c e8c2 6e3d 963a 21bc 563d 393c
000000a0: c369 963d e0a7 5c3d 5b0f 4c3d 28fa 713d
000000b0: d6e7 233c 5658 3ebb 0b57 0e3c 4ba3 7bbc
000000c0: 96f8 2a3c 1630 36bd 60d3 6a3d d847 713d
000000d0: 6899 05bd 5e62 a2bd 9f64 92bd 6603 45bd
000000e0: 5812 63bd 7baa 49bd d67c dd3b 7092 acbc
000000f0: 20ac 40bc 08d7 763d b6f4 00bd f8a3 313d
00000100: 001b 7b3d fb95 61bd d05c 463d fb0b 71bd
00000110: 469b 4dbd 401f a3bd 88ed a1bd 739c 5b3d
00000120: ee76 36bd 2033 9a3c a83b 8d3d 4a73 9b3d
00000130: 9694 b83c 8a13 a7bd 4e9d 6cbd 8ee9 483d
00000140: 8b21 cb3c 46c1 d4bc c0da bdbb d672 a33c
00000150: cbae 14bd 80e6 883d 163b 9e3b d0b3 803c
00000160: ca4b 9ebd 2600 413d 9849 14bd 8ea8 79bd
00000170: e8c7 8abd bb76 e2bc ae8f 943d 86e7 f93c
00000180: c3b0 283d 847a 873d de0d 283d e05c 46bd
00000190: c066 b83b 7882 80bd 8013 2d3c f05f f7bc
000001a0: 782a aa3d 9b1d 46bd 58aa 4abd 6f28 a33d
000001b0: 84b8 803d 4079 83bd 768a c6bc d6d6 3c3b
000001c0: a661 f83c f02c 0cbd d4e9 973d 8eb3 53bd
000001d0: b89a 86bd 969d 8d3c 0080 12bb 37eb 993d
000001e0: 6c61 a83d cf44 91bd e2d0 a2bd 7b8f 9bbc
000001f0: 2001 593d 6654 d2bc 60a2 513d 267e bcbc
00000200: e89a 773d 2e03 3fbd 3477 8b3d ba37 91bd
00000210: 1cd7 813d 20b7 863c debb 9a3d b4bf a2bd
00000220: f79e 913d 7b39 9abc cb0a 29bc 00b1 61bc
00000230: e248 983d 6449 9c3d b7d3 8dbd 5633 7fba
00000240: 4f7d a9bd 6656 4a3d 901c a1bc 36af 793c
00000250: 36be 5fbc 6eec 82bd c61d b13c 1626 62bd
00000260: 905e 8f3d 56c2 a9bd 2e79 993d 0ad1 a73d
00000270: 40cf b2bc c6fa 433d bb47 ce3c 0e3e 403d
00000280: f280 993d 3b1c 7e3d ff4b 97bd d648 3e3b
00000290: 80b6 81bc d887 8dbd e3ca 773d db45 f2bc
000002a0: 10da 3f3d abfa f839 060e 2c3d 907b 89bc
000002b0: 2bc9 5d3b 5315 89bd 1621 1cbd 4f37 aabd
000002c0: a397 5b3d 16a0 753c 900a c53c 46bf 38bd
000002d0: 38c0 65bd c643 513d 2841 023d deda 98bd
000002e0: b0b7 2e3d a7d7 a73d 565e 0a3b 7ba1 42bd
000002f0: f34c 363d 4cec a2bd 8e9a 0abd b8bf 883d
00000300: 1044 e9bc e27e a0bd 704a f33c e394 7cbd
00000310: 90fb 57bd 7359 12bd 0b28 a7bd d6e2 e43b
00000320: 4b41 2abd 76ec 3b3c a8ce a9bd a019 11bd
00000330: 80f7 64bc e356 30bd 7f07 90bd a0e9 30bc
00000340: bb15 883d 2b11 4f3d 1f62 95bd ce47 a3bd
00000350: b066 753d 0031 083d 10d8 47bd 705d 4b3d
00000360: ec61 a33d a893 3d3d c065 c73c 5b5b babc
00000370: 535f 23bd 868a 913d 6bab c53b a6d8 513d
00000380: 0036 433a 56b1 22ba dca2 a9bd 030f a3bd
00000390: 404c 093c a2e4 8fbd 1b86 ba3c 770b 943d
000003a0: 1822 333d f3bb 3e3d f808 0cbd a69e 2c3d
000003b0: 9b72 54bd 8bd8 923d 12b1 983d c8f3 683d
000003c0: f37b 5bbd b005 d43c 5603 6eba 568f e1ba
000003d0: 06e2 cd3c f0c1 a23c e3d2 65bd 4630 a1bc
000003e0: 1619 f53c 7bb5 ddbc bb57 2f3d 342b 89bd
000003f0: fe19 583d b89d a0bd 2662 56bd d6c5 803c
0.0047876835 0.034592908 0.01495267 -0.017435929 -0.056134783 -0.037365865 0.050596528 0.043368846
0.046205394 -0.06691757 0.0068094037 0.031227231 -0.025432518 0.040007822 -0.034749232 0.02750658
-0.050892204 -0.04877002 0.07499966 0.052313637 -0.011756162 -0.060247116 0.04815381 0.027786236
-0.030343752 0.035128765 -0.019613337 0.030332059 0.063730985 -0.009792517 -0.057816654 -0.043872647
0.040103376 -0.050728768 0.080966935 -0.064816296 0.026310623 0.058291346 -0.009840628 0.0113061275
0.07344391 0.053871036 0.04981933 0.05907646 0.010004004 -0.0029044352 0.008687745 -0.015358756
0.010435244 -0.044479452 0.05733049 0.058906406 -0.032617003 -0.07928918 -0.07148098 -0.048098944
-0.055437416 -0.04923485 0.0067592664 -0.02106592 -0.011759788 0.060263664 -0.031483375 0.043369263
0.061305046 -0.055074673 0.048428357 -0.058849316 -0.05019691 -0.07964945 -0.079066336 0.053616
-0.044547014 0.018823206 0.06896144 0.07590349 0.022531789 -0.08158024 -0.057767205 0.04905086
0.024796268 -0.025971066 -0.0057938993 0.019952219 -0.036299508 0.066845894 0.004828821 0.015710741
-0.07729299 0.047119282 -0.036202997 -0.060951762 -0.0677641 -0.027644506 0.07253967 0.030505907
0.041184198 0.06615165 0.04102885 -0.048428416 0.005627483 -0.06274885 0.010563731 -0.030197114
0.083088815 -0.048368078 -0.04947886 0.079666965 0.062851936 -0.06419611 -0.024235945 0.0028814576
0.03032 -0.034222543 0.07417646 -0.05168491 -0.06572479 0.017287057 -0.0022354126 0.07515567
0.08221707 -0.07093202 -0.079499975 -0.018989315 0.05297959 -0.02567501 0.051180243 -0.023009371
0.060450464 -0.04663389 0.068098456 -0.07090707 0.06339857 0.016444743 0.07555364 -0.07946721
0.07110398 -0.018826237 -0.010317515 -0.01377511 0.07435776 0.07631186 -0.06925147 -0.00097351277
-0.08275854 0.049398802 -0.01966694 0.015239527 -0.01365619 -0.06392752 0.021620642 -0.055212103
0.07000458 -0.0828902 0.07493816 0.08194168 -0.02182734 0.047846578 0.025180688 0.04693418
0.074952975 0.06203864 -0.07387542 0.0029035113 -0.015834093 -0.06910676 0.060496222 -0.029574325
0.04683882 0.00047489008 0.04200556 -0.016782552 0.003384183 -0.066935204 -0.03811749 -0.083113305
0.05361141 0.014991781 0.024052888 -0.045104288 -0.056091517 0.051090024 0.03180042 -0.074636206
0.042655647 0.08195429 0.0021113358 -0.04751728 0.04450698 -0.07955226 -0.0338388 0.066771924
-0.028474838 -0.07836701 0.02969858 -0.061665427 -0.052730143 -0.035729837 -0.081619345 0.0069850488
-0.041566174 0.011469951 -0.0829137 -0.03542483 -0.013975024 -0.04305161 -0.0703268 -0.010797888
0.0664477 0.050553482 -0.07294106 -0.0797268 0.059912384 0.033249855 -0.048790038 0.049649656
0.079776615 0.046283394 0.02434051 -0.02274864 -0.03988583 0.071064994 0.0060323975 0.051232003
0.00074467063 -0.00062062347 -0.08283016 -0.07961848 0.008379996 -0.0702603 0.022769025 0.07228749
0.043733686 0.04656596 -0.03418824 0.042143486 -0.05186711 0.071702085 0.074556485 0.056873113
-0.053585004 0.025881618 -0.00090794766 -0.0017208855 0.02513219 0.019867867 -0.05610932 -0.019676339
0.029919188 -0.027064076 0.042808276 -0.066976935 0.052759163 -0.078425825 -0.052339695 0.015719336

encoder.3.bias f4 [32]
00000000: 3852 853d 73fc 2cbd 0071 9bba 5baa 59bd
00000010: 16a3 e8bc 339a 743d 93aa 253d 5302 623d
00000020: 8f36 a03d 0072 55bb fb7d 9cbd 46fb f63c
00000030: b6e0 013c a019 17bc 5bb2 a0bc ecef 813d
00000040: a0d8 a33c 9021 753d 10c6 913c 4ba2 52bd
00000050: ab4a ed38 4312 46bd 80d5 373b f6de ecbc
00000060: e0ba 433d 8465 a03d e85a 2dbd 5212 9cbd
00000070: 26f2 a33c db8f 8bbd 4e1e 8e3d 6071 4dbc
0.065098226 -0.04223294 -0.0011859238 -0.05314098 -0.028398078 0.05971737 0.040445875 0.055177998
0.07822906 -0.003256917 -0.07641216 0.030149113 0.00792711 -0.009222418 -0.019616297 0.063445896
0.020000756 0.05984646 0.017794639 -0.051424306 0.00011314949 -0.04835726 0.002805084 -0.02891491
0.04778564 0.078318626 -0.042323023 -0.07620682 0.020012926 -0.06814548 0.06939374 -0.012539238

encoder.4.weight f4 [32]
00000000: 0000 803f 0000 803f 0000 803f 0000 803f
00000010: 0000 803f 0000 803f 0000 803f 0000 803f
00000020: 0000 803f 0000 803f 0000 803f 0000 803f
00000030: 0000 803f 0000 803f 0000 803f 0000 803f
00000040: 0000 803f 0000 803f 0000 803f 0000 803f
00000050: 0000 803f 0000 803f 0000 803f 0000 803f
00000060: 0000 803f 0000 803f 0000 803f 0000 803f
00000070: 0000 803f 0000 803f 0000 803f 0000 803f
1.0 1.0 1.0 1.0 1.0 1.0 1.0 1.0
1.0 1.0 1.0 1.0 1.0 1.0 1.0 1.0
1.0 1.0 1.0 1.0 1.0 1.0 1.0 1.0
1.0 1.0 1.0 1.0 1.0 1.0 1.0 1.0

encoder.4.bias f4 [32]
00000000: 0000 0000 0000 0000 0000 0000 0000 0000
00000010: 0000 0000 0000 0000 0000 0000 0000 0000
00000020: 0000 0000 0000 0000 0000 0000 0000 0000
00000030: 0000 0000 0000 0000 0000 0000 0000 0000
00000040: 0000 0000 0000 0000 0000 0000 0000 0000
00000050: 0000 0000 0000 0000 0000 0000 0000 0000
00000060: 0000 0000 0000 0000 0000 0000 0000 0000
00000070: 0000 0000 0000 0000 0000 0000 0000 0000
0.0 0.0 0.0 0.0 0.0 0.0 0.0 0.0
0.0 0.0 0.0 0.0 0.0 0.0 0.0 0.0
0.0 0.0 0.0 0.0 0.0 0.0 0.0 0.0
0.0 0.0 0.0 0.0 0.0 0.0 0.0 0.0

encoder.4.running_mean f4 [32]
00000000: bc41 d13d 2080 fdbd b4fd eabc 111f acbe
00000010: ba24 613e 5e7d 1a3c 52d8 893d 5d63 d43d
00000020: ba47 2b3e 0fea c8bd b833 71be a885 873e
00000030: 935e 2b3e 82c1 d8bd f4b8 053e 8d39 a23d
00000040: 78f1 5f3d 7e08 0d3f e073 14bd 9906 38be
00000050: fbfe 9e3e 9bc8 b93e 6dd8 493e 5861 19be
00000060: c48f c7bd 98cd e1bd 20f7 8bbe 0008 3b3e
00000070: 5bad 803d 7464 3dbe 9463 373e 8cb2 90be
0.10217616 -0.123779535 -0.028685428 -0.33617452 0.21986666 0.009429304 0.06730713 0.103705145
0.1672658 -0.09810268 -0.23554885 0.2646916 0.16735296 -0.10583784 0.13058835 0.07921133
0.054673642 0.55091083 -0.03624332 -0.17971267 0.3105391 0.36285862 0.19711466 -0.1497854
-0.09744218 -0.11025542 -0.2733698 0.1826477 0.06283065 -0.18495351 0.1790908 -0.2826122

encoder.4.running_var f4 [32]
00000000: 0fc8 d23d 0ae5 973e 2545 cf3d d114 be3e
00000010: 14c4 413e e47c 813d 45df 143e 13a0 a63d
00000020: 3b43 c03d 02e7 813d 9072 273e 1ae0 c53e
00000030: b564 9e3d 0749 c83d 20b9 f33d 4c45 713d
00000040: 061f 533e 64ec a83d 2d69 ba3d b7c9 aa3d
00000050: 5ad1 c13d 39d1 2b3e fb5a 453d 6ea9 9b3e
00000060: 07f5 8b3d 790d b33e c18b 913d bb0c 623d
00000070: d1d6 0f3d 1ff0 573d 4418 9d3d 4a2e 513d
0.102920644 0.2966693 0.1012061 0.37125257 0.18922454 0.06322649 0.14538296 0.081360005
0.09387823 0.06342889 0.16352296 0.38647538 0.07734052 0.09779554 0.11900544 0.058903977
0.20617303 0.08248213 0.09102092 0.08339255 0.09463759 0.16779031 0.04818247 0.30402702
0.06833845 0.34971216 0.07106734 0.055187922 0.035116974 0.05271923 0.07670644 0.051069535

encoder.7.weight f4 [128, 1568]
00000000: a79b 943c a763 533c 8034 9f3b e753 8dbc
00000010: a02d cc3c 1d34 6bbb bead c63c a739 a13c
00000020: 5b7d a6bc d76d 5b3c d492 4cbc 2fba f73a
00000030: 4484 82bc d908 8a3c e94e 2dba 56e1 9ebc
00000040: f2d7 36bb 139f 353c a3d6 cb3c cd27 3b3c
00000050: 1ee9 cabc bc99 ae3b 3b6b 99bc 16ef b13b
00000060: df32 e03b 5a57 5b3c df61 78ba 09bd a4bc
00000070: 52da 2fbc eabe c43b d6d9 dbbb 318d ab3c
00000080: e187 abbc dc8b ab3c 0d26 d03a 7850 613b
00000090: 6a09 b8bc 7af1 06bc f589 9dbc f0f3 a43c
000000a0: 1f35 30bc eec7 a03b 895e 543c cb4c 9f3b
000000b0: 4522 c1bc 17da c53c a9fa 51bb d1b1 7c3c
000000c0: 14a7 cd3c 8ae8 d83b 9ec6 c6bc 7122 c4ba
000000d0: a316 cc3c 9fa5 81bb a117 babb af1a c63c
000000e0: 0b8b 44bb 62fe b83c aed8 9abc c557 85bc
000000f0: 4b82 81bb 08ed 91bb f6b9 40bc 615c 9abc
00000100: 9b8a 7d3c 0d5b 893c 336a 253b 212d 65bc
00000110: b5c2 b33c 8d04 2cbc 85d3 383c 83eb b13c
00000120: 6da6 8a3c 5dab 4cbc 4b49 d73b 193a af3b
00000130: b6d2 c4ba 025d c83c eca3 6b3c 8c66 043c
00000140: 0526 8e3c 0a08 af3c f21a 71bb eb43 24bc
00000150: 44c1 723c f339 513c e7d7 97bc 6d2d a33c
00000160: 7a04 993c 75f3 243b e0d2 c4bc a525 69bc
00000170: 686c 52bc f2be febb 06ab cebc bb5e babc
00000180: 2e9b e7bb 6f16 56ba d7f0 943b 98cf 8e3c
00000190: 710b 9f3c 5804 1dbb c130 2f3b 89a1 e03b
000001a0: 579e 1d3a 4290 79bb f4bc bdbc 8bb3 1d3c
000001b0: f297 1bbc e49a d63b 535f c63c 34d1 65bc
000001c0: 17ba 993c 772b 71bb 4cc1 c8bc 151c da3b
000001d0: 42b1 a0bc 070b c53c aad6 143c b32f b73c
000001e0: daca bf3c c694 8c3c fc0b aebb 623a 2bbc
000001f0: 06ca 863c e854 903c aefc a5bc b169 7c3b
00000200: a2dc babb e45d 933c 31c8 cbbb d5ec 163c
00000210: 61b1 6d3c ec5a bebb 5fd2 503c 1067 413b
00000220: e251 07bc 7ce8 e73b 06f2 abbc 2607 c13b
00000230: 016b 84ba 5584 763c 61d4 20bc cd3d 9bbc
00000240: f48e 6abb d8b0 eaba 3233 1a3c 55f1 fabb
00000250: 027c bb3b 751a 8abb 6cc6 b43a 6682 233c
00000260: 571b ea3a 34bf 68bc 78ec a9bc 903d af3c
00000270: f635 38bc 9d4d 50bc 548e cebb 5cc8 e739
00000280: dece df3b e3bf 873c 504d 55bc 133e 9c3c
00000290: 93b9 bc3a b513 013a efef 06bb 223c 4b3c
000002a0: 0799 9a3c 0374 2b3c 9c0c b5bc f062 51ba
000002b0: 0edb 03bc 2e11 943c 1c3f 363a 16fd f638
000002c0: bdf7 a33c 1bc1 abbc b778 043c b579 62bb
000002d0: a28f 22bc fd91 4abc dd16 edbb 0032 a23c
000002e0: aba2 9abb cb32 823b bdb4 243c 424b 853b
000002f0: 38b4 c0bc b24a c33b 6ef8 4a3c ac1b a0bc
00000300: 5579 c2bc 6316 72bc d56b 8bbc 4b33 413c
00000310: 2389 4abc 718e b0bc 49d7 61bc 4fa0 2abc
00000320: 90f4 753c 3b56 4d3c cf55 44bb 5a5f 8cbc
00000330: c108 aebb 862e 44bc 6209 ec3b 18ce 9c3c
00000340: 103c c7bc 8aa4 c93c 0ece bebb 050c 2f3c
00000350: 94f5 1fbc 8d7a b8ba de02 ecbb 4be7 d0ba
00000360: 5c2f c0bc 2112 30bc 0c4f e43b 8218 c1bc
00000370: 7441 ccbc baf8 41bc a3de 0cbc aeac c8bc
00000380: 9f55 ce3c 41fd 803b 49fa 9c3c d425 cb3c
00000390: 8a4d 01bc 106c c139 9470 683c 847d 28b9
000003a0: 3834 563c 5928 b9bc 7275 d3bb 0c2f b53b
000003b0: 2890 c3bc bc59 ae3c 8e55 263c 464b 883a
000003c0: d6de c43b b504 603c 1dd9 7a3b 152d a7bc
000003d0: cd12 7e3c 9737 7a3a 89c4 5abc 080b c3bb
000003e0: b740 2f3b 5b3b 6ebc 0319 7f3c 057a a7bc
000003f0: 9172 223b 2047 a23c 227b 073b 8518 c0bc
0.018140627 0.012902177 0.0048585534 -0.017251922 0.0249241 -0.0035889216 0.024252769 0.019680811
-0.020323446 0.013392887 -0.012486178 0.0018900092 -0.01593221 0.016849922 -0.0006611185 -0.019394558
-0.002789971 0.0110852895 0.02488262 0.011423063 -0.024769362 0.005328385 -0.01872789 0.0054301126
0.006842002 0.013387525 -0.0009475033 -0.02010967 -0.010733204 0.006004204 -0.0067093177 0.020941349
-0.020938816 0.020940714 0.0015880481 0.0034380239 -0.022465426 -0.008236283 -0.019230822 0.02013585
-0.010754853 0.004906646 0.012961992 0.0048614494 -0.023575911 0.024151845 -0.0032040274 0.015423254
0.025104083 0.0066195177 -0.02426463 -0.0014963878 0.024913138 -0.003956511 -0.0056790863 0.024182646
-0.0029990103 0.022582237 -0.018902149 -0.016277203 -0.0039522997 -0.004453305 -0.011763087 -0.018842878
0.015474941 0.01676705 0.0025240302 -0.01398781 0.02194343 -0.010499132 0.011280899 0.021718746
0.016925061 -0.012492028 0.0065700165 0.005347502 -0.001501641 0.024458412 0.014382344 0.00808109
0.017352114 0.021366138 -0.0036789742 -0.0100259585 0.014816586 0.012770164 -0.018535567 0.019919122
0.018678892 0.0025169526 -0.024026334 -0.014230167 -0.012843229 -0.0077742273 -0.025228035 -0.02275025
-0.0070680594 -0.0008166795 0.004545312 0.017432973 0.019414635 -0.0023958888 0.002673194 0.006855194
0.0006012669 -0.003808037 -0.023161389 0.009625326 -0.009496676 0.006549226 0.024215376 -0.014026929
0.018765492 -0.0036799589 -0.024506234 0.0066561797 -0.019615773 0.02405311 0.009084383 0.022361612
0.023412157 0.017160784 -0.0053114872 -0.010450931 0.016453754 0.017618611 -0.020262089 0.0038515145
-0.005702571 0.017989106 -0.006218933 0.009211739 0.014507622 -0.0058091786 0.012745469 0.0029510893
-0.0082592685 0.007077275 -0.02098943 0.0058907447 -0.001010269 0.015046199 -0.00981626 -0.018950367
-0.0035790773 -0.0017905487 0.00941162 -0.0076581636 0.00572157 -0.0042145797 0.0013792044 0.00997982
0.0017860931 -0.014205743 -0.02074264 0.02139166 -0.011243334 -0.012713817 -0.006303588 0.00044209033
0.0068300804 0.01657099 -0.013018921 0.019072568 0.0014398567 0.0004923896 -0.002058979 0.0124044735
0.018871797 0.010464671 -0.02210074 -0.000798746 -0.008047832 0.018074598 0.0006952153 0.00011777335
0.020015592 -0.020966103 0.008085421 -0.0034557406 -0.00992194 -0.012363908 -0.0072353915 0.019799232
-0.0047190986 0.00397334 0.010052857 0.0040678093 -0.023523435 0.005959832 0.012388332 -0.019544445
-0.023739496 -0.014775845 -0.017019192 0.011792014 -0.0123617975 -0.021552296 -0.013784238 -0.010414197
0.0150119215 0.012532766 -0.0029958372 -0.01713531 -0.005311102 -0.011973983 0.007203267 0.019141242
-0.024320632 0.024614591 -0.0058229035 0.010684018 -0.00976314 -0.0014074609 -0.0072024902 -0.0015938071
-0.023460083 -0.01074651 0.006967431 -0.023571257 -0.024933554 -0.011839086 -0.008598003 -0.024496403
0.025187312 0.00393644 0.019162314 0.024798311 -0.007892022 0.0003689234 0.014186997 -0.00016068487
0.013073973 -0.022602247 -0.0064532096 0.00552929 -0.02387245 0.021283023 0.010152234 0.001039841
0.0060080094 0.013672997 0.0038276382 -0.020407239 0.015507412 0.00095450267 -0.013352522 -0.0059522428
0.0026741454 -0.014540519 0.015569928 -0.020443926 0.0024787525 0.019809306 0.0020672758 -0.023449192

encoder.7.bias f4 [128]
00000000: c03f b63c f757 8fbb c36e 723b b598 793c
00000010: a8e2 033c 0bd3 1f3c 4ef9 4e3c d5db ce3b
00000020: 65f9 7839 c27a 8b3c bc93 83bc 0ab4 80bc
00000030: a80f 4e3c 1dbe 65ba d4ae b8bb 024f babb
00000040: 30e3 1b3c 1f04 57bc bca0 563c 32c2 b5bc
00000050: f5c6 ac3c 95b6 a73c bfb0 43bc fb70 b8bb
00000060: 2e7e c7ba cae7 013b 665a 4cbc 7f96 a8bc
00000070: b351 8abc f2c6 c3bb 6b33 9dbb 3843 21bc
00000080: f5c0 88bc 7535 6839 ae35 0fbc 4d2f 5f3c
00000090: 8143 913c 2454 c73c 4b4f 7fbb 6445 6ebc
000000a0: fc6e b5bc 0ef7 80bc ace6 403c d5fe 803c
000000b0: e1bb 463b 9799 e7ba 4edc 09ba 43ae b03b
000000c0: 5f5e 5bbb cd93 593c d09c b8bc 6ecc 913a
000000d0: 238c fd3b b319 213c 09f6 24bc f203 563c
000000e0: 983c 983a ac53 bcbc a92b 95bc e5b7 923c
000000f0: 6564 663c b907 56bc 1c41 cb3c 60dc 7f3c
00000100: 5fca 3cbc b182 583c 96cd 49bc 7245 37bb
00000110: 606f 0e3c b67a ad3c ca1f c3bc 6e74 0cbb
00000120: 73d3 1d3c a2bd be3c 15ad 70bc 3827 293a
00000130: 8b02 08bb dfcf a5bc 36e5 8b3c 00bd b5bc
00000140: 6d6b dc3b 71a7 98bb 1b17 bcbc 79ac 533c
00000150: 468f a8bc e986 c03c 4b7d a83c 3a73 e93b
00000160: d67e 0cbc fdf1 1bbc c5c9 5e3b 1d53 9cbc
00000170: 3e3f 56bb 704b b6bc 8898 24bc 2ec6 223c
00000180: d82a a83c a5e5 bcbc 717e a03b 5e5a c33c
00000190: 3b38 093c 4ea2 293c e250 8dbc 2fd5 15bc
000001a0: 25fc bdbc bd4c 453b ba74 333a 4581 68bb
000001b0: f0cd 1b3c 72d6 eabb f52d 203c 9312 3cbc
000001c0: 800a 8b3c 2db5 923c f983 4a3c 9328 1c3c
000001d0: 3bee 2a3c 8ea9 65bc cc49 5dbc e779 583c
000001e0: bff5 8bbc d07c c0bc b17b c93c f0fc bb3c
000001f0: 00e3 683b 793d 8bbc 4082 f6bb 9117 9e3c
0.022247195 -0.0043745 0.0036992289 0.015234162 0.0080496445 0.009754906 0.012632681 0.006312827
0.0002374403 0.017026309 -0.016061656 -0.01571085 0.012576975 -0.0008763986 -0.0056360755 -0.005685688
0.009514615 -0.013123541 0.0130998455 -0.022187326 0.021090964 0.020472804 -0.011943995 -0.0056287027
-0.00152201 0.0019821995 -0.012472725 -0.020579575 -0.01688466 -0.005974644 -0.0047973893 -0.009842686
-0.016693572 0.00022145158 -0.008740826 0.013622117 0.017732384 0.024332114 -0.0038957174 -0.014542911
-0.022147648 -0.015742805 0.011773746 0.015746513 0.0030324387 -0.0017669675 -0.0005258963 0.0053918674
-0.0033472998 0.013279867 -0.022535712 0.0011123547 0.007737653 0.009832787 -0.010068425 0.013062464
0.0011614738 -0.022989117 -0.018209295 0.017909953 0.014062022 -0.013063365 0.02481132 0.015616506
-0.011522858 0.013214753 -0.012317082 -0.0027964977 0.008693546 0.021176677 -0.02381887 -0.0021431702
0.009632933 0.023283783 -0.0146897035 0.00064526824 -0.002075347 -0.020240722 0.01707707 -0.022184849
0.0067266733 -0.0046586324 -0.022960236 0.012919539 -0.02057613 0.02350183 0.020567557 0.007124332
-0.008575162 -0.009518144 0.0033994776 -0.0190826 -0.0032691504 -0.022252768 -0.010046132 0.009934945
0.020528242 -0.023058722 0.0048978855 0.023846801 0.008375223 0.010353638 -0.017250482 -0.009145065
-0.023191521 0.0030105554 0.0006845702 -0.0035477441 0.009509549 -0.007166677 0.009776582 -0.011479038
0.01697278 0.017908657 0.012360566 0.009531158 0.010432775 -0.014017476 -0.013506364 0.0132126575
-0.017084954 -0.023497015 0.024595113 0.022947758 0.0035535693 -0.016997086 -0.007522851 0.019298347

encoder.9.weight f4 [16, 128]
00000000: fa85 fc3c 6058 703d 3348 44bd d577 b0bd
00000010: cab4 95bc ecb0 4a3d d7b0 7bbd b955 afb9
00000020: 31d6 8abb dd8a 47bd bc0d e1bc 9cc6 a33d
00000030: c220 203d 727a debc dd3b 813d 41a9 19bd
00000040: bf8b cdbc de33 8abd 5896 18bb d9ab 8abd
00000050: 7aec f5bc ae2d 5cbd 009b dd3b 3128 ac3d
00000060: ee15 2b3d 9b03 7c3d f518 1c3d da57 87bd
00000070: 73d5 003d 1a6e 88bd c715 54ba f46a 15bd
00000080: e3f9 aa3d 38b3 e13c d76d e4bc 9fee 14bc
00000090: 3251 33bb 696f 79bd 3412 a5bd 4571 0bbd
000000a0: 2f45 0bbd a26e 413d 82be 66bc 3f40 983d
000000b0: ce97 573d a956 4b3d 249c b03c f96a 8d3d
000000c0: ea7c 203d 5bae 6a3d fb6c 82bd 7408 bfbc
000000d0: 2450 14bd 8094 b83c 69a0 87bd d24b 4dbd
000000e0: 9543 afbc b412 b3bd 1154 c03c 150b 393d
000000f0: 3d84 16bd 4e1f 903d 5ce3 3f3d ea79 45bd
00000100: 61d1 88bd 3c14 0cbd 0075 18bd 5dbd 99bc
00000110: 1275 743a a7ef 853d 1406 97bd b960 32bd
00000120: 93df a7bd 4145 1b3c 363d 2ebd 0576 a2bd
00000130: 0fd8 883c 6756 1b3c d5cc aabb c23c 37ba
00000140: 6b79 b13d d666 843d edb2 9fbd 9771 093d
00000150: c275 413c d99f 963d 46c2 573d 23da 64bc
00000160: 7bb4 2a3d f1a0 5bbd b624 7bbc d66e b1bc
00000170: 0d4e 733d c9de 933b a21f 803c 806f 9fbd
00000180: d0fb 62bd e55a 7b3b dee2 a9bc adc4 723c
00000190: a2d8 3fbd 06f2 36bc fceb af3d 4f49 133d
000001a0: aa05 36bd 18ce b6ba 8fab 163d cdae 22bd
000001b0: d325 30bd b0a3 fa3c ee20 863c f36a 8bbc
000001c0: 392b a53d 3b0d 273d 1f6b a2bd 19ab 76bd
000001d0: 45c0 1b3d 1e5d 5d3d dd11 593d 4928 e3bb
000001e0: 344e 693d 203a 03bd a61f 3abd 33aa 96bd
000001f0: e6cc 993c 3fc0 28bc 2251 b2bc 9cb5 b6bb
00000200: 0e8e 843d e361 96bd faee be3c f1e8 88bc
00000210: d373 98bd 98df 43bc 95f1 603d 94cf 1abd
00000220: 4f17 513d d41c c73c 3bd9 893d d847 c03c
00000230: abc1 35bd 58fd 523d d2c4 9b3d d567 29bc
00000240: fcd0 8d3c 099e 2f3d 0fb1 4bbd 41a4 7b3d
00000250: 6615 2f3d b6f8 af3d b3a9 083b 37aa 913d
00000260: 0502 ad3d 194a 10bd cbbb a0bd 983f 423c
00000270: ac45 b43d a10f a9bd 9a8d b2bd afc9 36bd
00000280: 19c6 d3bc 0a46 9a3d 0d4d 9b3d 5c5c 58bd
00000290: dc57 a33d aebb 8b3d 4647 42bd 35ad dd3c
000002a0: 0c9b 41bd 0f12 1f3d 5762 913d 7931 31bc
000002b0: a3b4 363c 5e33 993c 9542 bdbc 4218 c738
000002c0: 134c 9d3c 21b9 61bd d417 683d db0d aabd
000002d0: 6ddc abbd 75af 92bc 8e6b 793d db3e 813d
000002e0: 366b 833d 697e 83bd 1b45 af3b 4ba4 e7bc
000002f0: 49d4 b13c 22bf 83bd 2b33 bf3c 0935 7ebd
00000300: 52aa 853d 8194 e53b e0aa 95bd ade2 1b3d
00000310: b797 6cbc 15f8 f0bc 19ae 143c 979a f4bc
00000320: 7148 94bd 5338 b1bc 8518 aabc a7f5 b93c
00000330: e0c3 233c aab6 5b3d f3b3 d83c 0b96 823c
00000340: 1601 8abb 990d 2fb8 27b8 f13c c8cb 133d
00000350: 1549 3abd cbdc 6ebd 4e0c 9a3d e2e4 133d
00000360: e548 68bc ee70 563d bcb3 643d b84f fe3c
00000370: 9ad9 913c b1b3 99bd 4231 36bd d96d 473d
00000380: 5e58 4e3c 7840 8dbb a94d 72bd 8830 a7bc
00000390: e2e2 8c3d eebb e4bc 0114 753d a4a8 143d
000003a0: 5f8d dcbc da33 a6bb 566e 103d 05b4 5abd
000003b0: c5c6 d1bc fd45 81bd 6c04 ad3d 4294 483d
000003c0: be11 6ebd 9900 a23d e5a8 553d dc83 d1bc
000003d0: 2104 d3bc d678 2bbd 49ec 283d 374b 3a3c
000003e0: 0e78 8e3d 889e 66bd 9db7 adbd 17da 2abc
000003f0: e92a 2d3d 9ebf 3fbd a7b9 993d 0af5 253d
0.030825604 0.05867803 -0.047920417 -0.08616606 -0.018274684 0.049485132 -0.061447944 -0.0003344247
-0.0042369594 -0.048716415 -0.02747237 0.07996866 0.03909374 -0.027157996 0.06310246 -0.03751493
-0.02509105 -0.06748174 -0.0023282971 -0.067710586 -0.030019987 -0.0537545 0.006762862 0.084061034
0.04176896 0.061526876 0.03810974 -0.06608553 0.03145356 -0.06661625 -0.0008090403 -0.03647895
0.08348443 0.027551278 -0.027884407 -0.009090095 -0.0027361629 -0.060897265 -0.080601126 -0.03404357
-0.034001525 0.04722465 -0.014083507 0.07434129 0.052635007 0.049643192 0.021558829 0.06905169
0.039181627 0.057295185 -0.063684426 -0.02331946 -0.03620924 0.022531748 -0.06622393 -0.050121136
-0.02139453 -0.08743802 0.023477586 0.045176584 -0.036747206 0.07037221 0.046847686 -0.04821197
-0.06680561 -0.034198985 -0.037220955 -0.018767053 0.0009325306 0.06539851 -0.07374206 -0.043549273
-0.0819694 0.009476961 -0.042538844 -0.07932667 0.016704587 0.009481049 -0.005212406 -0.00069899496
0.08665737 0.06464927 -0.07797799 0.033555593 0.011807861 0.07354707 0.052675508 -0.0139680235
0.041676026 -0.053620283 -0.015328577 -0.021659296 0.059400607 0.004512642 0.015640084 -0.07784939
-0.05541593 0.0038353738 -0.020738062 0.014817399 -0.046837457 -0.011166101 0.08589932 0.035958584
-0.044438995 -0.0013946919 0.036784705 -0.039717484 -0.043004822 0.03059563 0.016373124 -0.01701877
0.08064885 0.040784102 -0.07930588 -0.060221765 0.03802516 0.05404388 0.05299555 -0.0069322926
0.056959346 -0.032037854 -0.04544034 -0.07356682 0.018774461 -0.010299741 -0.021767203 -0.0055758487
0.06472407 -0.07342889 0.023307312 -0.016712638 -0.07443967 -0.011955164 0.05491789 -0.03779562
0.05104762 0.024305739 0.067308865 0.023471758 -0.04437415 0.05151114 0.076059 -0.010339697
0.017311566 0.042875323 -0.049729403 0.06143594 0.042745017 0.0859236 0.0020853102 0.07112544
0.08447651 -0.035226915 -0.07848319 0.011855982 0.08802351 -0.08254934 -0.087184146 -0.044625934
-0.025851296 0.0753289 0.07583056 -0.052822456 0.07975742 0.068229064 -0.047431253 0.02706013
-0.047267005 0.03883558 0.07098835 -0.010815018 0.011151466 0.018701252 -0.023103038 9.493578e-05
0.019201314 -0.055108193 0.05666335 -0.08303424 -0.08391652 -0.01790593 0.060893588 0.06310817
0.06416933 -0.06420595 0.005348814 -0.028276583 0.02170767 -0.0643294 0.023339828 -0.062062297
0.06526627 0.0070062284 -0.073079824 0.03805797 -0.0144404685 -0.02941517 0.009074711 -0.02985887
-0.072403796 -0.021633303 -0.020763645 0.022700144 0.009995431 0.053641 0.026452994 0.015940687
-0.0042115552 -4.1735915e-05 0.029506756 0.036083013 -0.045479853 -0.058316033 0.07521878 0.03610695
-0.014177536 0.052353792 0.05583547 0.031043872 0.017803956 -0.075049765 -0.04448057 0.048688743
0.012594311 -0.004310664 -0.059156094 -0.020408884 0.06879212 -0.027921643 0.05983353 0.03629364
-0.02692288 -0.005072099 0.035261475 -0.053394336 -0.025607476 -0.06312177 0.08448109 0.048969515
-0.05812239 0.0791027 0.052163024 -0.02557557 -0.025758805 -0.041863285 0.041240964 0.011370472
0.06956492 -0.05630353 -0.08482287 -0.010427973 0.04227725 -0.0468136 0.075061135 0.04051689

encoder.9.bias f4 [16]
00000000: 4080 613d c1d9 093c 4f61 9f3d f585 323d
00000010: 06ad a8bc 3478 81bd 3b75 b13d e54c a8bd
00000020: 0cc2 8c3d 96bf efbc 87d8 e8bc 4dfd ac3b
00000030: 4ebc 08bd e996 37bc 79de f8bc 387c 61bc
0.05505395 0.008413733 0.07782232 0.043584783 -0.020590317 -0.06321755 0.08664938 -0.082177915
0.06872949 -0.02926616 -0.02842356 0.0052792192 -0.033382706 -0.011205413 -0.03037952 -0.013762526

projection.weight f4 [4, 16]
00000000: 28df 233d a8e2 7a3d bc1a 563e 3449 e73d
00000010: 18d9 973d 4c91 7a3e 0092 31bd 0090 0db9
00000020: 502b 28be b410 3b3e 2ac8 67be 209f 64bc
00000030: 20d3 b13c 5491 583e bcf6 2b3e 0054 3dbd
00000040: b664 3a3e bc39 42be fae8 4c3e 722b 78be
00000050: 8001 5bbc 4453 89bd 9046 74be 16f8 77be
00000060: eebf 44be c047 723e c6dd 6ebe 940a e8bd
00000070: a074 6bbd 70fd b23d 60d5 3d3d a8b5 2d3d
00000080: 985a 483e 7ca2 893d a05a f4bd c0e0 733e
00000090: fc10 a23d 6c2f 05be 3c6d e63d 403e 6bbd
000000a0: 6cc3 623e b83d 0d3e b0a7 e4bd 9068 e2bc
000000b0: 80fa a73c cca7 7f3e 9852 b53d 4a0c 02be
000000c0: 18d6 243e de84 443e 1050 953d 10ac 44be
000000d0: 0427 9d3d 5042 b9bd e87d 733d b093 41be
000000e0: f0f1 9d3c 6e53 76be 3cb8 133e 7898 593e
000000f0: 0e9c 40be 1c98 353e 5066 eb3c 7078 b33d
0.04000774 0.061251312 0.20908636 0.11293259 0.07414454 0.24469489 -0.043352127 -0.00013500452
-0.16422772 0.1826809 -0.2263495 -0.013953954 0.021707118 0.21149188 0.1679334 -0.046222687
0.1820248 -0.18967336 0.20010749 -0.24235323 -0.013367057 -0.06705335 -0.23855042 -0.24215731
-0.1921384 0.23660183 -0.23326787 -0.113301426 -0.05748427 0.087397456 0.04634607 0.04240957
0.19565809 0.067204446 -0.11931348 0.23816204 0.07913396 -0.13006371 0.112513036 -0.057432413
0.2214486 0.13793075 -0.11164796 -0.02763775 0.02050519 0.24966353 0.08853644 -0.127
0.16097295 0.1919131 0.07290661 -0.19206262 0.07673457 -0.09045851 0.059446245 -0.18903995
0.019280404 -0.24055263 0.14425749 0.21249568 -0.1880953 0.17733806 0.02873531 0.08763206

projection.bias f4 [4]
00000000: 4266 40be 2a53 31be c04a d0bd b80f 0bbe
-0.18789008 -0.17316881 -0.101705074 -0.13580215

quantum_layer.weight f4 [21]
00000000: fd71 36bf 300e 043e 7a94 643f cee8 45bf
00000010: 3d80 3f3f 18ba 333c ffb8 99be 8609 863e
00000020: ae60 94bf e0f5 ad3d 6036 d63d 4234 323f
00000030: ec9c 1d3f 9608 70be 4043 7cbf 805c b6bc
00000040: e9c8 2abe 19a2 9e3f e00b f1bd 5262 5d3c
00000050: 68bb 853f
-0.7126768 0.12896037 0.8928906 -0.77308357 0.7480505 0.010969661 -0.30023953 0.2617914
-1.1592004 0.084941626 0.1045959 0.6961099 0.6156757 -0.23440775 -0.98540115 -0.022260904
-0.16678204 1.2393218 -0.11769843 0.013512211 1.0447817

quantum_layer._weights f4 [21]
00000000: fd71 36bf 300e 043e 7a94 643f cee8 45bf
00000010: 3d80 3f3f 18ba 333c ffb8 99be 8609 863e
00000020: ae60 94bf e0f5 ad3d 6036 d63d 4234 323f
00000030: ec9c 1d3f 9608 70be 4043 7cbf 805c b6bc
00000040: e9c8 2abe 19a2 9e3f e00b f1bd 5262 5d3c
00000050: 68bb 853f
-0.7126768 0.12896037 0.8928906 -0.77308357 0.7480505 0.010969661 -0.30023953 0.2617914
-1.1592004 0.084941626 0.1045959 0.6961099 0.6156757 -0.23440775 -0.98540115 -0.022260904
-0.16678204 1.2393218 -0.11769843 0.013512211 1.0447817
