output/train_angle_autoencoder16_20260207_103331/checkpoints/train_angle_autoencoder16_20260207_103331_checkpoint.pth.tar (torch, 9095 bytes, 4 tensors)

weight f4 [123]
-0.0024694556 -0.35406026 -1.0863318 0.2340896 -0.20185062 -0.6771966 0.6658163 -0.35543188
-0.11476778 0.017133705 -0.12796232 0.53896797 -0.19283995 0.09197561 -0.06215618 -0.14941986
0.3812838 1.4165969 -0.17013273 0.20104282 0.36950988 -0.46933693 0.49060288 0.1308035
0.47478452 -0.47675288 0.13569921 0.3483076 -0.36242333 0.18226553 0.37215674 -0.32079378
-0.3875658 0.29029155 -0.46032757 -0.84491485 -0.090728454 0.6538231 -0.21013962 0.48264992
-0.69344133 0.2272308 -0.18204488 0.0014608991 -0.1339134 0.17766808 0.3989407 0.0678244
-0.68135947 0.96683943 -0.447913 -1.3582714 -0.6713332 0.12266307 -0.33168834 0.934935
0.35906145 -0.50185 -0.5023927 0.11589484 -0.56764936 -0.058677852 -0.6376177 0.7073231
0.14040264 -0.06241846 -0.16268659 -0.2876849 0.7036436 0.2294166 -0.08729877 -0.5412181
-0.16934511 0.5113886 0.255268 1.1109222 -0.83051443 -0.48958236 -0.33023596 0.07264146
-0.35055026 -0.29658732 0.2718377 0.47623172 0.22665353 -0.04272818 -0.031783067 -0.21083921
0.07293005 0.13167581 0.23053466 0.959925 -0.4891868 -1.202748 0.36096296 -1.0122538
0.6205806 0.17644429 0.0007377337 0.68830246 0.30193666 0.37340048 0.036637582 0.3155006
-0.038489435 -0.863496 -0.3393761 0.5291577 0.6453921 -1.0982786 0.98788977 -0.9002537
-0.014848632 -0.31208277 -0.5960726 0.6696224 -0.9178639 0.35612807 -0.14517632 0.25360453
-0.23586068 0.07894966 -0.18714751
00000000: 97d6 21bb 6347 b5be ec0c 8bbf 2fb5 6f3e
00000010: eeb1 4ebe c25c 2dbf f072 2a3f 2bfb b5be
00000020: 5f0b ebbd fc5b 8c3c 8e08 03be cef9 093f
00000030: d677 45be b55d bc3d 7b97 7ebd 8501 19be
00000040: a137 c33e 0c53 b53f 4637 2ebe 2bde 4d3e
00000050: 6630 bd3e ee4c f0be 4d30 fb3e 5af1 053e
00000060: f516 f33e f418 f4be bcf4 0a3e 6055 b23e
00000070: 8d8f b9be d1a3 3a3e 548b be3e 153f a4be
00000080: 066f c6be 18a1 943e 0eb0 ebbe 574c 58bf
00000090: d7cf b9bd f360 273f d72e 57be e41d f73e
000000a0: 5f85 31bf 31af 683e f969 3abe a47b bf3a
000000b0: 9820 09be 9fee 353e f541 cc3e 85e7 8a3d
000000c0: 936d 2ebf ca82 773f da54 e5be d6db adbf
000000d0: 7edc 2bbf c736 fb3d 0ed3 a9be e657 6f3f
000000e0: e7d6 b73e 3e79 00bf cf9c 00bf 465a ed3d
000000f0: 7851 11bf 3058 70bd ea3a 23bf 2013 353f
00000100: b6c5 0f3e 80aa 7fbd 5097 26be 6f4b 93be
00000110: fd21 343f 2fec 6a3e b3c9 b2bd 458d 0abf
00000120: ce68 2dbe 5dea 023f 7db2 823e b332 8e3f
00000130: 989c 54bf 8aaa fabe b014 a9be 0cc5 943d
00000140: 537b b3be 4bda 97be 502e 8b3e a5d4 f33e
00000150: dd17 683e be03 2fbd f62e 02bd 3ce6 57be
00000160: 5a5c 953d 06d6 063e 4711 6c3e a5bd 753f
00000170: b176 fabe a5f3 99bf 23d0 b83e 8891 81bf
00000180: 5fde 1e3f d0ad 343e 7864 413a 9734 303f
00000190: 7197 9a3e 592e bf3e 4a11 163d 4b89 a13e
000001a0: 19a7 1dbd 130e 5dbf b4c2 adbe e176 073f
000001b0: 6b38 253f 6594 8cbf 58e6 7c3f 0777 66bf
000001c0: ad47 73bc 50c9 9fbe 3798 18bf 606c 2b3f
000001d0: 21f9 6abf 6b56 b63e 1aa9 14be 74d8 813e
000001e0: 7685 71be 5cb0 a13d 99a3 3fbe

_weights f4 [123]
-0.0024694556 -0.35406026 -1.0863318 0.2340896 -0.20185062 -0.6771966 0.6658163 -0.35543188
-0.11476778 0.017133705 -0.12796232 0.53896797 -0.19283995 0.09197561 -0.06215618 -0.14941986
0.3812838 1.4165969 -0.17013273 0.20104282 0.36950988 -0.46933693 0.49060288 0.1308035
0.47478452 -0.47675288 0.13569921 0.3483076 -0.36242333 0.18226553 0.37215674 -0.32079378
-0.3875658 0.29029155 -0.46032757 -0.84491485 -0.090728454 0.6538231 -0.21013962 0.48264992
-0.69344133 0.2272308 -0.18204488 0.0014608991 -0.1339134 0.17766808 0.3989407 0.0678244
-0.68135947 0.96683943 -0.447913 -1.3582714 -0.6713332 0.12266307 -0.33168834 0.934935
0.35906145 -0.50185 -0.5023927 0.11589484 -0.56764936 -0.058677852 -0.6376177 0.7073231
0.14040264 -0.06241846 -0.16268659 -0.2876849 0.7036436 0.2294166 -0.08729877 -0.5412181
-0.16934511 0.5113886 0.255268 1.1109222 -0.83051443 -0.48958236 -0.33023596 0.07264146
-0.35055026 -0.29658732 0.2718377 0.47623172 0.22665353 -0.04272818 -0.031783067 -0.21083921
0.07293005 0.13167581 0.23053466 0.959925 -0.4891868 -1.202748 0.36096296 -1.0122538
0.6205806 0.17644429 0.0007377337 0.68830246 0.30193666 0.37340048 0.036637582 0.3155006
-0.038489435 -0.863496 -0.3393761 0.5291577 0.6453921 -1.0982786 0.98788977 -0.9002537
-0.014848632 -0.31208277 -0.5960726 0.6696224 -0.9178639 0.35612807 -0.14517632 0.25360453
-0.23586068 0.07894966 -0.18714751
00000000: 97d6 21bb 6347 b5be ec0c 8bbf 2fb5 6f3e
00000010: eeb1 4ebe c25c 2dbf f072 2a3f 2bfb b5be
00000020: 5f0b ebbd fc5b 8c3c 8e08 03be cef9 093f
00000030: d677 45be b55d bc3d 7b97 7ebd 8501 19be
00000040: a137 c33e 0c53 b53f 4637 2ebe 2bde 4d3e
00000050: 6630 bd3e ee4c f0be 4d30 fb3e 5af1 053e
00000060: f516 f33e f418 f4be bcf4 0a3e 6055 b23e
00000070: 8d8f b9be d1a3 3a3e 548b be3e 153f a4be
00000080: 066f c6be 18a1 943e 0eb0 ebbe 574c 58bf
00000090: d7cf b9bd f360 273f d72e 57be e41d f73e
000000a0: 5f85 31bf 31af 683e f969 3abe a47b bf3a
000000b0: 9820 09be 9fee 353e f541 cc3e 85e7 8a3d
000000c0: 936d 2ebf ca82 773f da54 e5be d6db adbf
000000d0: 7edc 2bbf c736 fb3d 0ed3 a9be e657 6f3f
000000e0: e7d6 b73e 3e79 00bf cf9c 00bf 465a ed3d
000000f0: 7851 11bf 3058 70bd ea3a 23bf 2013 353f
00000100: b6c5 0f3e 80aa 7fbd 5097 26be 6f4b 93be
00000110: fd21 343f 2fec 6a3e b3c9 b2bd 458d 0abf
00000120: ce68 2dbe 5dea 023f 7db2 823e b332 8e3f
00000130: 989c 54bf 8aaa fabe b014 a9be 0cc5 943d
00000140: 537b b3be 4bda 97be 502e 8b3e a5d4 f33e
00000150: dd17 683e be03 2fbd f62e 02bd 3ce6 57be
00000160: 5a5c 953d 06d6 063e 4711 6c3e a5bd 753f
00000170: b176 fabe a5f3 99bf 23d0 b83e 8891 81bf
00000180: 5fde 1e3f d0ad 343e 7864 413a 9734 303f
00000190: 7197 9a3e 592e bf3e 4a11 163d 4b89 a13e
000001a0: 19a7 1dbd 130e 5dbf b4c2 adbe e176 073f
000001b0: 6b38 253f 6594 8cbf 58e6 7c3f 0777 66bf
000001c0: ad47 73bc 50c9 9fbe 3798 18bf 606c 2b3f
000001d0: 21f9 6abf 6b56 b63e 1aa9 14be 74d8 813e
000001e0: 7685 71be 5cb0 a13d 99a3 3fbe

exp_avg f4 [123]
-0.0060308743 -0.0016047707 -0.002453173 -0.02377234 -0.00045830058 -0.0159581 0.010679385 -0.009569443
0.005743092 -0.015980827 -0.015048068 -0.003802045 -0.005933861 0.025715835 0.00023251207 0.00737642
-0.018593967 -0.028870402 -0.011216537 -0.02042483 -0.005326939 -0.0035047387 -0.0026628715 -0.015130756
0.009394787 0.010284611 0.004227256 -0.013747206 0.013436303 -0.012774132 0.020323552 -0.00030996464
-0.00844715 -0.008888194 0.029503612 0.02901046 0.0105525255 -0.010034825 0.025298461 0.0003478409
0.019900914 -0.014282435 -0.028980605 -0.018968519 0.04629132 -0.032963917 -0.0034800237 -0.0029179868
-0.009881131 -0.0041295844 -0.0024052977 0.00036083267 -0.017763851 -0.0016733917 0.0044867666 -0.014168762
0.017863706 -0.011826642 -0.007449247 -0.0066786166 0.007928415 0.017490966 0.004531654 -0.0002845662
0.014662233 -0.000112904 0.0048533776 -0.013750324 -0.023777997 0.014243525 0.0012650726 -0.021530887
0.019818006 -0.0037413323 0.0001279396 0.014903204 0.0073474487 0.0034139364 -0.036704738 0.004908621
-0.012804709 0.029978817 0.012007878 0.0017787697 -0.017536564 0.019410267 0.022630312 0.012679787
-0.002308469 0.025139285 -0.0080331415 0.007548323 0.002316958 -0.00033672983 -0.0037350017 0.0067903143
0.010438116 0.009736965 -0.009023462 0.020748993 -0.0015001527 0.010214295 0.0019211252 -0.0077285934
0.0033529203 -0.0012197953 -0.0052430406 0.01939856 -0.013591312 0.005688088 0.0076941736 0.043100085
-0.0048407936 -0.03231067 0.005781299 -0.026251508 0.024957547 0.014928989 0.0017841604 0.016421655
-0.012965851 -0.0025388212 0.004073422
00000000: a49e c5bb 2b57 d2ba 6ac5 20bb 36be c2bc
00000010: 1048 f0b9 90ba 82bc 96f8 2e3c 27c9 1cbc
00000020: 8c30 bc3b 39ea 82bc 2c8c 76bc bb2b 79bb
00000030: d570 c2bb 04aa d23c 7cce 7339 e5b5 f13b
00000040: 6052 98bc 9f81 ecbc 91c5 37bc f951 a7bc
00000050: 9a8d aebb c2af 65bb 9283 2ebb fee6 77bc
00000060: 98ec 193c c980 283c cb84 8a3b f63b 61bc
00000070: f023 5c3c 984a 51bc 947d a63c c082 a2b9
00000080: ea65 0abc ca9f 11bc 8fb1 f13c 58a7 ed3c
00000090: 80e4 2c3c 1b69 24bc b83e cf3c 6a5e b639
000000a0: 3e07 a33c e000 6abc bc68 edbc de63 9bbc
000000b0: f89b 3d3d 2c05 07bd 1c11 64bb b23b 3fbb
000000c0: 78e4 21bc 7751 87bb 33a2 1dbb 242e bd39
000000d0: 7f85 91bc b555 dbba ba05 933b 1824 68bc
000000e0: e856 923c 88c4 41bc d018 f4bb 4cd8 dabb
000000f0: 2fe6 013c 3749 8f3c 457e 943b d431 95b9
00000100: dd39 703c e0c6 ecb8 1509 9f3b 0a49 61bc
00000110: 13ca c2bc ad5d 693c cbd0 a53a 8b61 b0bc
00000120: 5f59 a23c 2431 75bb 8627 0639 912c 743c
00000130: dec2 f03b 59bc 5f3b b557 16bd 7fd8 a03b
00000140: d8ca 51bc 2396 f53c b1bc 443c 9b25 e93a
00000150: d7a8 8fbc 4802 9f3c 3463 b93c e2be 4f3c
00000160: af49 17bb e7f0 cd3c 709d 03bc ec57 f73b
00000170: 1bd8 173b 1d8b b0b9 eec6 74bb 4981 de3b
00000180: a204 2b3c cb87 1f3c 25d7 13bc cbf9 a93c
00000190: c6a0 c4ba dc59 273c 44ce fb3a 2440 fdbb
000001a0: abbc 5b3b 8ae1 9fba d0cd abbb bbe9 9e3c
000001b0: 18ae 5ebc 2463 ba3b 681f fc3b b789 303d
000001c0: 859f 9ebb 3158 04bd 0d71 bd3b 670d d7bc
000001d0: c573 cc3c b898 743c 7dda e93a b586 863c
000001e0: b96e 54bc 5a62 26bb 577a 853b

exp_avg_sq f4 [123]
0.00042843225 0.0005113745 0.00046101937 0.0004346643 0.00047968986 0.00044438193 0.00046731936 0.0002994047
0.0005234353 0.00044217336 0.00043120742 0.00042853263 0.0004642675 0.00052452047 0.00054260436 0.00034532804
0.0003361307 0.00045719158 0.00036671397 0.00040241992 0.00048867293 0.00036671615 0.0004178702 0.00041846407
0.00038518806 0.0003610273 0.00037468376 0.00044528808 0.00037542227 0.0004912274 0.00049955666 0.0004153149
0.0003518592 0.00047485234 0.0004881162 0.0003504886 0.0005698757 0.0004130646 0.00047784107 0.0003788292
0.00043464295 0.0004622176 0.00041650143 0.00053728255 0.00050584995 0.00041153783 0.00039603122 0.00042666096
0.0004452533 0.0007319993 0.00041182488 0.00039321577 0.00032185207 0.00034704315 0.00038588519 0.00052677386
0.00047456022 0.0004973297 0.00044828668 0.00037713707 0.00038339486 0.00042370002 0.00035339815 0.0005485657
0.00036714604 0.0003858841 0.00040846958 0.00038762984 0.00041312005 0.0005334169 0.00050652435 0.00040249625
0.00046086026 0.00045567346 0.00028530636 0.0005131424 0.00045929072 0.00040257393 0.0004479828 0.000420044
0.00040556543 0.00045058946 0.0004907784 0.00047337593 0.00044249918 0.00037613822 0.00052823656 0.00035195064
0.0004977028 0.00049402105 0.00042336748 0.00047667738 0.00039532594 0.00039787003 0.00047447483 0.00040129994
0.00044824023 0.0004684897 0.00041286973 0.0004112309 0.00043707914 0.0004749323 0.00039414095 0.00044658687
0.00039418144 0.000406935 0.0004991781 0.00047869218 0.00039563814 0.00055581145 0.00038421756 0.00054324383
0.00046791678 0.00040446376 0.00036075327 0.0005572535 0.0006129248 0.00041662273 0.0004402559 0.0004422037
0.00045760674 0.00043258973 0.00049894163
00000000: 349f e039 c30d 063a f9b4 f139 a8e3 e339
00000010: e27e fb39 effb e839 8b02 f539 6bf9 9c39
00000020: 2637 093a 81d3 e739 ae13 e239 adac e039
00000030: ee68 f339 f97f 093a 903d 0e3a 250d b539
00000040: b33a b039 37b3 ef39 8443 c039 e3fb d239
00000050: 491a 003a cf43 c039 9715 db39 4c65 db39
00000060: 11f3 c939 4448 bd39 3471 c439 8e75 e939
00000070: 53d4 c439 b6c5 003a aef4 023a 9fbe d939
00000080: be79 b839 9af5 f839 d9e9 ff39 c9c1 b739
00000090: b663 153a 9890 d839 be86 fa39 989d c639
000000a0: cae0 e339 cc55 f239 e05d da39 6cd8 0c3a
000000b0: 049b 043a acc3 d739 69a2 cf39 77b1 df39
000000c0: e370 e939 a4e3 3f3a 33ea d739 8728 ce39
000000d0: 41be a839 58f3 b539 a250 ca39 3217 0a3a
000000e0: 65ce f839 3b5f 023a 0508 eb39 7bba c539
000000f0: 6302 c939 0e24 de39 4c48 b939 9fcd 0f3a
00000100: 827d c039 7d50 ca39 dc27 d639 cc3a cb39
00000110: 0998 d839 01d5 0b3a 46c8 043a 2206 d339
00000120: 9e9f f139 75e7 ee39 2c95 9539 6784 063a
00000130: f5cc f039 8f10 d339 3cdf ea39 5a39 dc39
00000140: 12a2 d439 183d ec39 95a7 003a 712f f839
00000150: 3cff e739 6b34 c539 5b79 0a3a 0486 b839
00000160: 4578 023a 3181 013a 6cf7 dd39 8eea f939
00000170: c043 cf39 3699 d039 efc2 f839 9165 d239
00000180: c901 eb39 a09f f539 7076 d839 7a9a d739
00000190: c527 e539 5600 f939 b4a4 ce39 e023 ea39
000001a0: 23aa ce39 e459 d539 46db 023a faf8 fa39
000001b0: a76d cf39 e0b3 113a cf70 c939 7a68 0e3a
000001c0: ba52 f539 350e d439 7c23 bd39 a614 123a
000001d0: b0ac 203a 286e da39 26d2 e639 93d7 e739
000001e0: f0ea ef39 36cd e239 68cb 023a
