output/train_angle_autoencoder16_20260207_103611/model/train_angle_autoencoder16_20260207_103611_trained_qcnn.pth (torch, 2738 bytes, 2 tensors)

weight f4 [123]
0.018160656 -0.29342344 0.15208697 -0.2553114 -0.1630272 -0.62819886 -0.048677802 0.08087306
0.59556335 0.6591621 0.12158306 -0.58422434 -0.11976242 0.22035876 -0.3884216 -0.10484199
0.2914117 0.35769942 0.053083386 0.5896429 0.0135359755 -0.10735312 -0.53849435 -0.19278625
-0.088031754 -0.24438463 0.47383475 0.48164696 -0.5759684 0.51754296 -0.46213737 -0.03672816
0.16408843 -0.2466488 0.58088607 0.094836056 0.096385226 -0.13538922 -0.058829587 0.8530538
0.0079964 0.25074577 -0.2375622 0.10391098 0.10483653 -0.010866791 -0.638247 -0.24784248
-0.56331384 0.6377364 -0.2539222 0.7204876 -0.43887314 -0.09540128 -0.10312 -0.25453386
0.11538081 -0.2747428 0.15818782 0.7051682 0.39389697 -0.28773385 0.1306976 0.66068864
0.24104883 0.10714195 0.2708954 -0.41882962 -0.35262975 -0.014035025 0.072682805 0.37177822
-0.014119253 -0.043311786 -0.39470294 -0.2074529 0.22661415 -0.18631066 -0.15427813 -0.04388397
0.063893735 0.09121298 0.71403843 0.45987523 0.026290856 -0.2640484 0.5258595 -0.36064932
0.16487738 -0.28061005 -0.025928088 0.18482868 -0.03624414 -0.064015426 -0.37987715 -0.048429467
-0.22476299 -0.3736545 -0.6783772 -0.059967276 0.48556668 -0.5677939 -0.504804 0.82182413
-0.6015863 0.33122498 -0.053248435 0.018285908 -0.025293272 -0.26747295 0.31743345 -0.28727236
0.18547513 0.6211116 0.24444924 -0.34955823 -0.24573202 -0.39192054 0.28207234 0.21606638
0.16961299 0.24409261 -0.69038975
00000000: a8c5 943c 993b 96be b0bc 1b3e 2db8 82be
00000010: 9af0 26be a4d1 20bf 6062 47bd c6a0 a53d
00000020: d776 183f d9be 283f 8a00 f93d ba8f 15bf
00000030: 0046 f5bd baa5 613e 32df c6be 66b7 d6bd
00000040: ea33 953e 6124 b73e f76d 593d d6f2 163f
00000050: ffc5 5d3c f4db dbbd c4da 09bf c269 45be
00000060: fe49 b4bd f73f 7abe 789a f23e 6e9a f63e
00000070: aa72 13bf b27d 043f 459d ecbe 4470 16bd
00000080: cc06 283e 8191 7cbe f3b4 143f 6839 c23d
00000090: 9e65 c53d 79a3 0abe 4bf7 70bd bc61 5a3f
000000a0: 5503 033c c061 803e 8143 73be 48cf d43d
000000b0: 89b4 d63d a00a 32bc 2864 23bf 6bca 7dbe
000000c0: 5635 10bf b142 233f 1702 82be e071 383f
000000d0: fbb3 e0be bf61 c3bd 9430 d3bd 4352 82be
000000e0: c64c ec3d 17ab 8cbe fdfb 213e e785 343f
000000f0: ddac c93e da51 93be 97d5 053e e422 293f
00000100: 81d5 763e 3d6d db3d cdb2 8a3e d670 d6be
00000110: e38b b4be 29f3 65bc b9da 943d b759 be3e
00000120: 7054 67bc b367 31bd 8116 cabe 886e 54be
00000130: 8a0d 683e 39c8 3ebe 16fb 1dbe adbf 33bd
00000140: b8da 823d dfcd ba3d 39cb 363f c474 eb3e
00000150: ec5f d73c 5a31 87be ba9e 063f 07a7 b8be
00000160: 9ed5 283e 1fac 8fbe 2467 d4bc bb43 3d3e
00000170: bc74 14bd 851a 83bd 427f c2be fa5d 46bd
00000180: 4528 66be a54f bfbe 21aa 2dbf 3fa0 75bd
00000190: 329c f83e f15a 11bf d63a 01bf 1163 523f
000001a0: 8f01 1abf 5296 a93e 081b 5abd 54cc 953c
000001b0: d633 cfbc 37f2 88be a386 a23e 5d15 93be
000001c0: 31ed 3d3e 2b01 1f3f e750 7a3e 4cf9 b2be
000001d0: 2da1 7bbe cfa9 c8be c96b 903e 8140 5d3e
000001e0: 07af 2d3e 6af3 793e 62bd 30bf

_weights f4 [123]
0.018160656 -0.29342344 0.15208697 -0.2553114 -0.1630272 -0.62819886 -0.048677802 0.08087306
0.59556335 0.6591621 0.12158306 -0.58422434 -0.11976242 0.22035876 -0.3884216 -0.10484199
0.2914117 0.35769942 0.053083386 0.5896429 0.0135359755 -0.10735312 -0.53849435 -0.19278625
-0.088031754 -0.24438463 0.47383475 0.48164696 -0.5759684 0.51754296 -0.46213737 -0.03672816
0.16408843 -0.2466488 0.58088607 0.094836056 0.096385226 -0.13538922 -0.058829587 0.8530538
0.0079964 0.25074577 -0.2375622 0.10391098 0.10483653 -0.010866791 -0.638247 -0.24784248
-0.56331384 0.6377364 -0.2539222 0.7204876 -0.43887314 -0.09540128 -0.10312 -0.25453386
0.11538081 -0.2747428 0.15818782 0.7051682 0.39389697 -0.28773385 0.1306976 0.66068864
0.24104883 0.10714195 0.2708954 -0.41882962 -0.35262975 -0.014035025 0.072682805 0.37177822
-0.014119253 -0.043311786 -0.39470294 -0.2074529 0.22661415 -0.18631066 -0.15427813 -0.04388397
0.063893735 0.09121298 0.71403843 0.45987523 0.026290856 -0.2640484 0.5258595 -0.36064932
0.16487738 -0.28061005 -0.025928088 0.18482868 -0.03624414 -0.064015426 -0.37987715 -0.048429467
-0.22476299 -0.3736545 -0.6783772 -0.059967276 0.48556668 -0.5677939 -0.504804 0.82182413
-0.6015863 0.33122498 -0.053248435 0.018285908 -0.025293272 -0.26747295 0.31743345 -0.28727236
0.18547513 0.6211116 0.24444924 -0.34955823 -0.24573202 -0.39192054 0.28207234 0.21606638
0.16961299 0.24409261 -0.69038975
00000000: a8c5 943c 993b 96be b0bc 1b3e 2db8 82be
00000010: 9af0 26be a4d1 20bf 6062 47bd c6a0 a53d
00000020: d776 183f d9be 283f 8a00 f93d ba8f 15bf
00000030: 0046 f5bd baa5 613e 32df c6be 66b7 d6bd
00000040: ea33 953e 6124 b73e f76d 593d d6f2 163f
00000050: ffc5 5d3c f4db dbbd c4da 09bf c269 45be
00000060: fe49 b4bd f73f 7abe 789a f23e 6e9a f63e
00000070: aa72 13bf b27d 043f 459d ecbe 4470 16bd
00000080: cc06 283e 8191 7cbe f3b4 143f 6839 c23d
00000090: 9e65 c53d 79a3 0abe 4bf7 70bd bc61 5a3f
000000a0: 5503 033c c061 803e 8143 73be 48cf d43d
000000b0: 89b4 d63d a00a 32bc 2864 23bf 6bca 7dbe
000000c0: 5635 10bf b142 233f 1702 82be e071 383f
000000d0: fbb3 e0be bf61 c3bd 9430 d3bd 4352 82be
000000e0: c64c ec3d 17ab 8cbe fdfb 213e e785 343f
000000f0: ddac c93e da51 93be 97d5 053e e422 293f
00000100: 81d5 763e 3d6d db3d cdb2 8a3e d670 d6be
00000110: e38b b4be 29f3 65bc b9da 943d b759 be3e
00000120: 7054 67bc b367 31bd 8116 cabe 886e 54be
00000130: 8a0d 683e 39c8 3ebe 16fb 1dbe adbf 33bd
00000140: b8da 823d dfcd ba3d 39cb 363f c474 eb3e
00000150: ec5f d73c 5a31 87be ba9e 063f 07a7 b8be
00000160: 9ed5 283e 1fac 8fbe 2467 d4bc bb43 3d3e
00000170: bc74 14bd 851a 83bd 427f c2be fa5d 46bd
00000180: 4528 66be a54f bfbe 21aa 2dbf 3fa0 75bd
00000190: 329c f83e f15a 11bf d63a 01bf 1163 523f
000001a0: 8f01 1abf 5296 a93e 081b 5abd 54cc 953c
000001b0: d633 cfbc 37f2 88be a386 a23e 5d15 93be
000001c0: 31ed 3d3e 2b01 1f3f e750 7a3e 4cf9 b2be
000001d0: 2da1 7bbe cfa9 c8be c96b 903e 8140 5d3e
000001e0: 07af 2d3e 6af3 793e 62bd 30bf
