src/data/preprocessor/autoencoders/conv_ae_mnist_16.pth (torch, 250401 bytes, 11 tensors)

encoder.0.weight f4 [16, 1, 3, 3]
00000000: a212 aa3e 4503 28be 105a 933e 9477 a93e
00000010: 59ef 663e 312c 903e ee32 a33d b6c5 e2bd
00000020: bc91 1c3d 6a2d fd3d 82a8 81be 8f8f ab3e
00000030: d6fe ffbb a18d 973e 5899 913e fbf3 a33e
00000040: 729e e7bd 35ae 943d d822 0dbe ecdb c53d
00000050: c906 833e ed20 0c3e fcf6 663e 9339 4c3d
00000060: 63eb de3d 6aeb ebbd b330 59bd 749f 333c
00000070: 4d72 3ebd f6d9 4d3e 0fcc 22be 2520 193e
00000080: 6fd2 d23b a6c8 3a3d 5636 7d3d 605e 02be
00000090: 1017 9abe 79d1 cd3d da83 123e 9e1f 84be
000000a0: 43e4 8dbe 561a 9bbe 6ab6 903d fbaa 37be
000000b0: 7a45 31bd 8801 78be b7fc 003e 2c99 333d
000000c0: 7e4c 3f3d 2a48 b53e 3af4 853e bd1d 4fbe
000000d0: 6ffe 4ebc 3664 9b3e a9b9 92be caab ab3e
000000e0: d828 b73e 13d5 b73e dd3b 3f3e 3386 e2bc
000000f0: 991e 5dbe d1cc 313e 1e19 f7bd d101 303d
00000100: e391 a63d 2343 ce3d 76a4 a23e 4f64 b43e
00000110: e540 31be 9b96 67be 318b 1dbe 4b9d 4dbc
00000120: a784 903e 88c6 46bd 0dcd 823e 9711 133e
00000130: cdcd afbd b7a2 a33d eb65 1abe 35cc f13d
00000140: 63ae ac3e 7205 fdbd 8279 7fbd 2091 6dbd
00000150: 2505 223d 6eb2 693e e3f0 943e 8da9 23bd
00000160: 3b36 a13e 28a4 273e 637f 9abe 12ff b63d
00000170: 2d3e 84be a138 15be 31b4 5d3e 0f5e 9d3d
00000180: f745 953e 5bf8 6dbd f960 eebd e9d9 22be
00000190: b351 2a3e 3a6b d63d 268f 843e bb25 c2bb
000001a0: bae7 9d3d c38c a83e c660 75be 50ff 07be
000001b0: 6abf b73e 0038 04be ea48 fcbc 9241 853e
000001c0: 3e4b 833e dad0 85be 0567 50bc 092a b33e
000001d0: 860e 8e3e 6f88 86bd 6863 73be be3b 373e
000001e0: 53e3 0f3d f37a d4bd 78fb 9c3d ac52 183d
000001f0: 73bf 0dbe f173 3bbd 71c3 603d f811 4d3e
00000200: 7f79 a4be acc6 983d 1f8f 86be d0f6 9f3c
00000210: 90a2 8bbe 0001 8b3a 9654 6dbe 5f60 9c3d
00000220: 78a1 c73d c825 173d d975 5ebe ab27 103e
00000230: 8c3e 243e 0eb6 12bd c176 843e 04fb aa3e
0.3321734 -0.16407497 0.2877965 0.33099043 0.22552241 0.28158715 0.079686984 -0.110728666
0.03822492 0.12362178 -0.25323874 0.33507964 -0.0078123612 0.29600242 0.28437304 0.3202208
-0.11309518 0.0725979 -0.13782823 0.096610874 0.25591114 0.13684435 0.22555155 0.049859595
0.1088474 -0.11519511 -0.05302496 0.01096331 -0.046495724 0.20102677 -0.15898155 0.14953668
0.006433777 0.04560151 0.061819397 -0.12731314 -0.3009572 0.10049719 0.1430811 -0.25805372
-0.27713212 -0.3029353 0.07066043 -0.17936318 -0.04327915 -0.24219334 0.12596403 0.043847248
0.046703808 0.3540662 0.26162893 -0.20226188 -0.012633904 0.30349892 -0.28657272 0.33529502
0.3577335 0.3590475 0.1867518 -0.027651882 -0.21593703 0.17363288 -0.120653376 0.042970482
0.081332944 0.10071399 0.317661 0.3523278 -0.17309912 -0.22616045 -0.15385129 -0.012549709
0.28226206 -0.048529178 0.25547066 0.14362179 -0.08584175 0.0799002 -0.15077941 0.118065275
0.33726797 -0.12354554 -0.06237174 -0.05799973 0.039555687 0.22821972 0.29090032 -0.039956618
0.31486687 0.16371214 -0.30175313 0.089353696 -0.25828686 -0.14572383 0.21650769 0.07683956
0.2915494 -0.05809818 -0.1163959 -0.15903439 0.16632728 0.104696706 0.25890464 -0.005924908
0.07710214 0.32919893 -0.23962697 -0.13280988 0.35888225 -0.12911987 -0.030796487 0.2602659
0.25643343 -0.26135904 -0.012719874 0.34993008 0.27745456 -0.065689914 -0.23768389 0.17893884
0.035128903 -0.10375013 0.07665151 0.037188217 -0.13842563 -0.045764867 0.054873887 0.20026386
-0.32123944 0.07459769 -0.26281068 0.019526869 -0.27272463 0.0010605156 -0.23176798 0.07635569
0.097475946 0.036901265 -0.21724643 0.14077632 0.16039485 -0.035818152 0.25871852 0.33394635

encoder.0.bias f4 [16]
00000000: 64db ac3e c874 17be 40bf 1c3e 4d8c a23e
00000010: 7f1b 26bd bfa1 b7bc 53e8 9ebd a739 d73d
00000020: 5c69 1dbe 247e 47be b98d 973e 770d 833d
00000030: c631 25be 0f37 8a3e 06bd 85be 9ba2 d4bd
0.33761132 -0.14790642 0.15307331 0.31747666 -0.040553566 -0.022415994 -0.07759156 0.10509043
-0.15372223 -0.19481713 0.29600313 0.063990526 -0.16132268 0.2699513 -0.26120776 -0.10382577

encoder.2.weight f4 [32, 16, 3, 3]
00000000: 2bea c03d 8289 d23c 79ed d83d 2f55 af3c
00000010: e622 623d 50fd 543c 71b8 3b3a 1454 24bc
00000020: 4fd9 5cbc 2a22 50bd 5285 d83b a2b0 a43d
00000030: 7594 15bd 6ae8 e23d a5a2 3a3d f1e9 b8bc
00000040: e44e e9bc 96b5 9b3d c022 0b3d 1f92 5b3d
00000050: 5121 1d3d 001b dd3c db16 d03d 9d61 01bd
00000060: ca6b 673d a663 a83d f217 ec3c fdb3 993c
00000070: bd96 fd3d 3373 763d e468 e03c e87c b73d
00000080: ae8a 2d3d 10a5 f33d 8607 ae3d a502 2a3c
00000090: 70c2 063d 7c7d 8f3d b328 0ebd 2522 073d
000000a0: 054b ffbc 6305 3fbd 7d77 573d 8505 a13c
000000b0: daf5 403a a398 93bc 5d20 ecbc ffbd a53d
000000c0: 941c d43c 55b4 cb3d f5d8 0bbd 454f 633d
000000d0: bd33 8439 d73f ec3b 03f7 9e3d 1bb2 db3c
000000e0: 9059 59bc 34ae 903c 447c 47bc 9e74 6f3c
000000f0: 05b7 133d b0e3 c43d 5648 4c3d ba30 843d
00000100: d905 f4bc 442f e53d ec73 d73d ab8c fa3d
00000110: c7cb 1c3d 57bc 623d 100d 113d 263b c03d
00000120: 1603 76bd e7be 793c bed1 8c3d 2193 103d
00000130: 4cb9 ac3d 47e3 b23c 6a63 083c 25e4 0abc
00000140: d1e0 883a d447 38bd 7689 313c b908 713d
00000150: 2a6a a9bc 0ef4 9f3d 6f0f 5d3b 4f5b 903d
00000160: c023 c83d 16bc b63d 4d71 a93c 997a 9f3d
00000170: baa6 843d c212 333d 4c49 563d e3d9 fd3d
00000180: c1f8 b9bc c9d9 15bc f472 ff3d bd4c 7b3d
00000190: 0b18 d23d 2292 f53c 8dc5 9abb dbe8 9d3d
000001a0: 49a7 c7bc 7e69 7a3a 0b35 833d 9220 9abc
000001b0: fd11 873d 5dc6 213d 3889 d43d e338 debc
000001c0: c144 bfbc 30d0 083d 33ff 35bd 24fd eb3b
000001d0: 74b7 8a3d b49b e53d acc8 9abc 5c9a 243d
000001e0: 0472 a23d 1ac5 983d 9016 bd3d de44 523c
000001f0: ae64 cc3d 58df 293d e885 22bd f88e 1c3d
00000200: b8d1 c4bc b1d6 6bbc ca65 403c 460a 2dbd
00000210: ac0c 953c e6f0 5a3d 19b5 623c 11c6 493c
00000220: 1ab9 223c af45 053c 6974 bc3d 6878 663d
00000230: 177d a03d 3985 323d 9b57 d33d 51ad 353d
00000240: cb13 9b3d 4fed c73d 2108 b4bc 77d8 f6bc
00000250: 6683 273c 7f2b db3c 9c74 8f3d 1e4a a13d
00000260: dde6 423d 749a be3d 2c01 3c3d ae68 c03c
00000270: b4ce 90bc 92b4 ad3d 04cb cc3d 79e9 753c
00000280: 9b78 503d a6ae 863d f606 efbc 0d0f b93c
00000290: 8062 3fbc b519 d63d e363 b13d 0744 343d
000002a0: b15d d53d 9bed 543d be70 1a3b 06f1 853c
000002b0: 0239 2cbd 675d db3d b982 25bd b362 f73c
000002c0: 02fd 15bd 64e2 4abd 986e 953d 6159 9d3d
000002d0: 15f5 4a3d 74d9 463d 4965 57bb 580d 0c3c
000002e0: f9fd a03d e21a f83c 4b34 d23d a206 a83d
000002f0: e388 943c 7188 8c3d 72c9 f23b 4761 013b
00000300: 12e6 c23d 544d e33c 246e e33c 70b0 be3b
00000310: 916a e4bb bce7 013c d2e7 b43d d424 8a3d
00000320: 2c1d 063c 826d 033d 99a9 5cbd 7403 553d
00000330: f8a9 9cbc 4c27 aa3d dbbd 5e3c ef61 a33d
00000340: 5739 d83d 87bd 143c de6a 84bb 3949 cb3d
00000350: 1875 6b3d 55dd a93d 4fe7 4bbd 1cfe b03d
00000360: 2274 2fbd dfb4 69bc de5b 933b 1b9f 68bc
00000370: 1767 603d 24b5 ab3c f1cf 37bd 5691 933d
00000380: f5a2 0e3d ce1d ac3c 6463 e63b 31b4 1bbc
00000390: 5a5a 873c c85e e63c 3dc7 733c 8bdf 9d3d
000003a0: f733 a5bc c1d1 10bc aada 043d fbb3 7fbd
000003b0: 4adf 0e3c 5ff3 ff3b 4c1f edbb 7cba 24bd
000003c0: 5112 9f3d 7c83 9f3d ec4e 7f3d 42df c43c
000003d0: 23c8 02bd 3788 e43d 052d d23b 99e9 4dbb
000003e0: 9720 b73d 46b2 dbbc cc5e 1ebd 7940 01bd
000003f0: 4120 d93c 1b8a d33c 7d18 b23d bebc ac3d
0.09419664 0.025700334 0.10592169 0.021402923 0.055209063 0.0129998475 0.0007160968 -0.010029811
-0.013479545 -0.05081383 0.00660769 0.080415025 -0.036518533 0.11079486 0.045565266 -0.02257249
-0.02848 0.07602994 0.033968687 0.05360615 0.03836185 0.026990414 0.10160609 -0.031587232
0.05649928 0.082221314 0.028820012 0.018762583 0.12382267 0.060168456 0.027393766 0.08959371
0.042368583 0.118967175 0.08497529 0.010376607 0.032900274 0.07006356 -0.034706783 0.032991547
-0.031163702 -0.046635997 0.052604187 0.019655952 0.00073608535 -0.018017119 -0.028824026 0.080928795
0.025892533 0.09946505 -0.034142453 0.05549552 0.0002521555 0.0072097587 0.077619575 0.026818326
-0.013265982 0.017661192 -0.012175623 0.014615206 0.036063213 0.096137404 0.049873672 0.06454606
-0.029787945 0.11190656 0.10520157 0.122338615 0.038280275 0.055355396 0.035412848 0.09386282
-0.060061537 0.015243269 0.06875943 0.035296563 0.0843378 0.02183689 0.008324483 -0.008477245
0.0010442977 -0.044990376 0.010835996 0.05884621 -0.020680506 0.078102216 0.0033731123 0.07048666
0.09772444 0.08922593 0.020683909 0.077870555 0.06477113 0.04371906 0.052315995 0.12395074
-0.022701623 -0.009146162 0.124730974 0.06135248 0.10258492 0.029976908 -0.004723257 0.07710429
-0.02437176 0.0009552463 0.064066015 -0.018814359 0.06595228 0.039495815 0.10377735 -0.027126735
-0.023348214 0.033401668 -0.04443283 0.0072018076 0.06773272 0.11211339 -0.018894516 0.04018627
0.07931903 0.07459469 0.09232819 0.012833802 0.099801406 0.041472763 -0.039678484 0.038222283
-0.024025783 -0.014394448 0.011743018 -0.042246126 0.018194519 0.053452395 0.013837122 0.012315289
0.009931827 0.00813429 0.09201891 0.056267172 0.07836359 0.043584082 0.10319444 0.04435474
0.075721346 0.0976206 -0.021976532 -0.030132515 0.010224199 0.026754139 0.07004663 0.07875465
0.04758345 0.09306803 0.045899555 0.023487415 -0.017676689 0.08481707 0.0999966 0.0150092775
0.05089627 0.0657628 -0.029178124 0.022590185 -0.011681199 0.10454122 0.0866163 0.04401019
0.10418261 0.05198441 0.0023565735 0.01635028 -0.042046554 0.107111745 -0.04040787 0.03019843
-0.03661824 -0.04953231 0.07296485 0.07683063 0.049550135 0.048547223 -0.0032866767 0.008548103
0.078609414 0.030286256 0.1026388 0.0820439 0.018131679 0.06861962 0.007409268 0.001974182
0.09516539 0.027746834 0.02776248 0.005819373 -0.0069707115 0.007928785 0.08833279 0.06745306
0.008185666 0.032086857 -0.05387268 0.052005246 -0.019124016 0.083082765 0.01359507 0.07977664
0.10557812 0.00907839 -0.00404106 0.099260755 0.057484716 0.08294169 -0.04978114 0.086422175
-0.042835362 -0.014264314 0.0044970354 -0.01419809 0.054785814 0.020960398 -0.044876043 0.07205455
0.034823377 0.021010306 0.0070308913 -0.00950341 0.016522575 0.028121367 0.014879045 0.07708653
-0.02016638 -0.008839072 0.032435097 -0.062427502 0.008720228 0.0078109945 -0.007236397 -0.040216908
0.077671655 0.077887505 0.062331125 0.024032239 -0.031929146 0.111587934 0.006414058 -0.0031419753
0.08941763 -0.026818406 -0.038664624 -0.031555627 0.026504638 0.02582269 0.08696077 0.08434437

encoder.2.bias f4 [32]
00000000: c465 843c b7c1 1d3d 4783 f1bc 168b 873d
00000010: f7a8 893d 642e f63c 297c 863d 9ab8 873d
00000020: 5c9b ce3d 373d ebbc c8ed e43d 248b 09bd
00000030: eac7 b13d 20a6 843d 7414 28bd c5a4 bb3d
00000040: 4f57 40bc 14f2 873d 6f4d 7c3c d0cc 263d
00000050: 0ed9 d33c e657 0abd 404e 54bd 859f a1bd
00000060: 271b 73bc 40b5 59ba dcc5 813d 3a10 a53d
00000070: 5580 52bd 6e37 263d 1bbb fdbc bd7c 76ba
0.016161807 0.03851482 -0.029481543 0.066183254 0.067216806 0.030051418 0.065666504 0.06627007
0.10088226 -0.028715713 0.11178166 -0.03357996 0.08680709 0.06476998 -0.04103513 0.09162287
-0.011739566 0.066379696 0.015399321 0.04072267 0.025860336 -0.033775233 -0.051832438 -0.07891754
-0.014838017 -0.00083049014 0.06336567 0.080597356 -0.05139192 0.040580206 -0.030973008 -0.0009402743

encoder.5.weight f4 [16, 1568]
00000000: 2630 763c ddfa 433b a528 a13c a073 8d3b
00000010: 555b 6f3c f98b 3abc d556 8dbc 97d0 9c3c
00000020: 6e84 433a af2a 9d3c 8f4a 223d 06ef bc3b
00000030: 7c7f 7c3a bc53 333c c0bc 2abc e7ba 8d3b
00000040: b2cb 003c a4c3 143d fc4e bf3c cdf4 a73b
00000050: 00f7 563b f992 973c aa26 3b3c dc14 ae3c
00000060: f124 123d 78b9 403c 0ad8 443c e070 bd3c
00000070: 40c5 e03c cfce 903c 9a43 273c bf22 203d
00000080: fe0a f43c 4c1f 2ebc bd6f 473c ffb2 01bc
00000090: f1a2 5f3c 67d7 263d 9980 6c3c b8d1 cc3b
000000a0: 9669 63bb f95c 083c e9e9 d6bb ec4c 023d
000000b0: 8fce 1b3d a12b 703d 98ae 3f3d 52f5 9e3b
000000c0: 6398 313d 400f 123d a770 ac3c 516c 1e3d
000000d0: 7ccd 973c 5478 413d defe e73c 842e 333d
000000e0: ba22 da3b 5a1d 333c 879c f33c 41e8 363d
000000f0: d35b 2c3d c3b6 963c f2d3 0f3c 01cb ac3c
00000100: 8132 433c a70b 153c 2161 2a3d ab61 0b3d
00000110: e196 123d 650a e63c c7b7 983a 3083 383d
00000120: 7436 343d 6a39 1d3c 56eb 7a3c 4e9a 123d
00000130: 2112 383d 00c5 d63c 01f8 283d 234a 7b3c
00000140: b762 5d3b 4eff 993b 7e9c 343c e011 083d
00000150: be89 273d 0e55 3d3d eb5f 363d 2cf7 243d
00000160: 58ab 623c dc49 e33c f7c2 873c a257 843a
00000170: 8542 0e3d c795 2b3d e02e 313d 3a88 153d
00000180: f20d 7e3b 8691 323c eb96 f1ba 72b4 153d
00000190: ffdc 263d 183e 363c c89a 413d 4ed4 9c3c
000001a0: 8360 383d 3969 a73c 1055 983c 6a96 543c
000001b0: 7eaa e33c 4e53 143a b935 ed3a 448c 043d
000001c0: f497 443d 0c3c 733c 3b87 603a f48e a93c
000001d0: e5c9 9f3c b9b6 3a3d d4f0 b33c 37ce 8d3c
000001e0: a439 b73c d769 043d 5768 363c bff3 0fba
000001f0: 1b65 303d 92ab 053d de0e 2a3d 549a 403d
00000200: 05f1 253d 4426 333d a872 003d 85da 023d
00000210: 0089 0c3d 7320 b63b 8411 1b3d c6de 133c
00000220: 31cb a83c 3096 933c 328b 05bb 969d 3d3c
00000230: 0c40 203c d22a 1d3d f1ea 2b3d b3a4 473d
00000240: 604e 223d 53e8 163d c5b2 273d 8a12 fc3b
00000250: 5411 493d 815d 393d d4c2 b93b 4ced b9b9
00000260: 74b2 483d 6a77 e93b 0604 a63c 0b80 643b
00000270: 82ff be3a 8983 b03c 2229 743c 7b28 1a3d
00000280: f453 683c 7171 1a3c 7b0f 2a3c 76ca 3e3d
00000290: f4c0 cb3c 068c e13c eca7 fe3a 2ea3 303d
000002a0: 4a59 853c af7e ac3c 7148 0b3c d620 303c
000002b0: e68d c53c 80f3 f93c 4e06 183b 239c 943a
000002c0: 454c 4a3d 4b24 513b dd9b 853c 716e 743c
000002d0: 6451 323d 058e 323d 3f20 5f3c d350 a23b
000002e0: 6f14 0f3b 9c3b 3f3c 8f81 c03c 613f 913b
000002f0: 672e da3c 0c84 1c3d a133 9e3c 44df 413d
00000300: d45a 523d e21a bb3c c288 8c3b bf58 d63c
00000310: 42a7 0d3c 2229 2e3c 69cb 0a3a 5971 f13c
00000320: 85c9 0e3c 7544 183d a8a1 2f3d 6605 6b3b
00000330: 893d 033d f2d7 463d 8277 163c 311e 0c3d
00000340: 2d54 3f3c 394c 363d 4602 493c 250b 1c3c
00000350: 9043 123a 626f 343d f783 8dba 31cf 283c
00000360: 132a b83c 07e3 f63c cd87 033c ba6a 263b
00000370: f521 0e3d da18 b03c 18a2 923c 0fcc 1e3d
00000380: 7a3e d43c 72e9 923b 9b0e f63c 0ae2 163c
00000390: c5e9 d83c 679b 8d3b 9b8c c13c 7129 ad3c
000003a0: cc8c ad3c 4a88 5e3c 15f4 be3c b625 f73c
000003b0: 2cdb 173c 9cd2 533c 4be2 883c c511 0b3d
000003c0: 3699 843c dc2e 203d 4bd7 323d cf7f 333d
000003d0: b934 413d e18a a53b ec9a 3a3d 5201 d03c
000003e0: 33fa 373d f7a0 223c b1c3 013d 12c9 523c
000003f0: 4649 a83c a05b 873c 51cd da3c 9087 bf3c
0.015026128 0.0029904165 0.019672701 0.004316762 0.014609178 -0.011385911 -0.017253319 0.019142432
0.0007458393 0.019185392 0.039621886 0.0057657985 0.0009632034 0.010945257 -0.010420978 0.004325259
0.007861065 0.03631939 0.023353092 0.005125618 0.0032801032 0.0185027 0.011422792 0.02125018
0.03567976 0.011762969 0.012014398 0.023125112 0.027437806 0.017676739 0.010208989 0.039095636
0.029790398 -0.010627579 0.012172637 -0.007916211 0.013649688 0.040732767 0.014434957 0.0062505864
-0.0034700385 0.008322948 -0.006558646 0.03181164 0.038038787 0.058635358 0.046797365 0.004851022
0.043358218 0.035659075 0.02104981 0.038677517 0.0185306 0.047233894 0.028319772 0.043745533
0.0066569718 0.010932291 0.029737724 0.04465509 0.042079758 0.018397694 0.008778559 0.021092894
0.011913897 0.009097016 0.041596536 0.03402869 0.03578842 0.028081128 0.001165145 0.045046985
0.043997243 0.009596208 0.0153148975 0.035791688 0.044939164 0.026216984 0.04125214 0.0153375
0.0033780762 0.004699624 0.011023639 0.033220172 0.040902846 0.046223693 0.04452507 0.040274784
0.013834797 0.02774518 0.016572459 0.0010096917 0.034731407 0.041890886 0.043257594 0.03650687
0.0038765636 0.010898953 -0.0018431818 0.03654904 0.040738102 0.011123203 0.04726675 0.019144204
0.045013916 0.020435916 0.018595248 0.012975315 0.027791258 0.00056581653 0.0018097676 0.03236033
0.047996476 0.014845859 0.0008565073 0.020698048 0.01950545 0.045584414 0.021965422 0.017310245
0.022366352 0.0323275 0.011133275 -0.0005491338 0.04306517 0.032634325 0.041518085 0.04702218
0.040513057 0.043737665 0.031359345 0.031946678 0.03431034 0.0055580675 0.0378585 0.009025281
0.020604702 0.01801595 -0.0020377156 0.011573216 0.009780895 0.038370915 0.041972104 0.048741054
0.039625525 0.036842655 0.040941972 0.0076926397 0.04908879 0.045255188 0.0056689773 -0.0003546275
0.04899831 0.007124831 0.02026559 0.0034866359 0.0014571997 0.021547096 0.014902385 0.03763626
0.014180172 0.009426461 0.010379667 0.0465798 0.02487228 0.027532589 0.0019428707 0.04312437
0.016277928 0.021056501 0.008501158 0.010750016 0.024115514 0.030511618 0.0023197117 0.0011338036
0.049389143 0.0031912501 0.016309673 0.014918909 0.04353465 0.04359247 0.013618528 0.0049534827
0.0021832248 0.011671927 0.023499278 0.004432604 0.026633454 0.038211867 0.019311728 0.047332063
0.05135615 0.022839967 0.0042887637 0.026165364 0.008645834 0.010629924 0.00052945927 0.029472994
0.008715038 0.03717466 0.042878777 0.0035861372 0.032041106 0.048545785 0.009183766 0.03420848
0.011677784 0.044506285 0.012268608 0.009524141 0.00055795256 0.044051535 -0.0010796775 0.0103033045
0.022481 0.030137552 0.008027983 0.0025393204 0.034700353 0.021496225 0.017899558 0.038768824
0.025908697 0.0044833953 0.030036261 0.009209165 0.026478657 0.004321504 0.023626616 0.021137925
0.021185301 0.0135822985 0.023309747 0.03016935 0.009268563 0.012928631 0.016709467 0.033952493
0.016186338 0.03910719 0.04366235 0.04382306 0.04716942 0.005051956 0.0455579 0.025391255
0.044916343 0.009926072 0.031680766 0.012865322 0.020542752 0.016523182 0.02670923 0.02338007

encoder.5.bias f4 [16]
00000000: 34e2 3e3d 9e4d 863c 133f 2f3d 9dd3 023c
00000010: ae0f e03b 55bf 323d eeb8 333d 8ce8 4d3c
00000020: 0d2b 30bc 0c36 1b3d cbbb f03c 1936 1ebb
00000030: fa44 053d 607b ae3c 3b9d 173a 36c5 e83c
0.046602443 0.016394433 0.04278476 0.007985023 0.0068378067 0.0436395 0.043877535 0.0125676505
-0.010752452 0.03789334 0.029386422 -0.0024141131 0.032536484 0.021299064 0.0005783622 0.02841435

decoder_input.weight f4 [1568, 16]
00000000: d357 813d 652b d93e eb6f 5a3e 3c63 c23e
00000010: 0211 083e a4c0 a53e 8dc4 c53e b74c c13e
00000020: d24b 123e 365b c83d ee4b d43e 5cce b53d
00000030: f4c6 843e f783 a8bc 7cc2 bd3d 7d62 723e
00000040: 13c7 293e ec04 ae3d bbd9 c03d 2035 633e
00000050: aa3c 9e3e 88f1 a53e 3d2c 313e e885 593e
00000060: 1007 07bd 8fe6 143e 4474 803d e2f0 7b3e
00000070: f650 a3bd 7dcb cb3e 30c9 643c 5266 ba3e
00000080: 1e9a c53e 8ec8 82bd 9e2c 8b3a 9503 8b3d
00000090: 1d18 883e 87d9 943d d583 333e e7f9 733e
000000a0: 7afb 7f3e c02e 933e 9766 aa3e 6fe6 b2bd
000000b0: e027 393d 6892 c9bd f616 c33d aabf 803e
000000c0: 61fd ec3b bd8e da3d 0b19 cf3e 183a 993e
000000d0: 66c4 8ebd b67e 95bd f817 c83e ce56 033e
000000e0: c66b c83d 6ab2 60bd 21be 4e3e 89e1 9ebd
000000f0: 778c b43e 8846 6b3e 2b86 d13e 07da 653e
00000100: bed4 213d ff73 c53c 62bf 1d3d f866 4a3e
00000110: 9449 0f3e 06ec bc3e 6926 553e 9002 473e
00000120: 532a 8dbb ff5d 7b3e 2ee0 3c3e 71ad b83e
00000130: 158f 373e b17e 913e d610 273e 9bcf 2e3e
00000140: 76f5 903d b3fb 2abc 0c18 bf3e 032b 613e
00000150: dc6c 0f3e ad79 513d 1706 c23d a92a 6c3e
00000160: cfde f43d f639 403e 5329 bd3e 846c 703e
00000170: 578d 61bd ef40 c53e be70 383c a1bf 633e
00000180: 66d2 70bd 7ef2 bf3e a88f 113d 2d46 873e
00000190: 585e bc3e e7bf 933e 1d7c dc3d f8c2 a03e
000001a0: 1558 863e 0d35 bb3d a40a 803e 563f 643e
000001b0: c81b 463e 109a 343e 35bf 223e 055e d23e
000001c0: c5b0 083e 6a65 23bd 31fb aabd 1723 653e
000001d0: 8e24 c53e 6ec0 afbc e12e 163e 406c 0a3e
000001e0: 7dd0 a93e 4ac9 9f3e 325d 833d 29ee a53e
000001f0: 1869 293e f557 483e 9722 ba3e 8242 c63e
00000200: 52f0 aa3e b1ff d8bd fd21 993e 06f0 873e
00000210: 9dfb 5a3e 7445 e93d b205 4d3e 792a 243e
00000220: 6d77 9d3d e05c b83e 3c46 bb3d f67e 8c3e
00000230: 5508 1d3e 02bb 503c 7320 513e 5839 afbd
00000240: f1f5 0dbe 703d f53d 622f ad3e f42a 063e
00000250: 7601 bdbd e635 9d3e 597c a1bd f089 99bd
00000260: 5998 1d3d fbc1 083d baf1 d4bc fe39 803e
00000270: cff4 9a3c ec89 013e c8ea 99bd b73c 8e3e
00000280: 9abb f03d f218 b3bd 88fb 8ebb 8fe5 f53c
00000290: a191 01bd 7e44 24bd 4acd 323e 1988 e5bd
000002a0: e925 833e 3155 4f3e ffe3 883d d79d 573d
000002b0: ed86 3ebc d345 7a3e d1f3 33be 4118 593d
000002c0: 00f0 743e 3413 283e bf55 23be 195e 24bd
000002d0: 05e7 df3d 651b 1e3e ccb8 68be fe13 a33b
000002e0: 02d9 0a3e a590 aebd 3d5a d33d 3535 0d3e
000002f0: c172 3cbe 7e91 aa3c 8121 7c3e be31 b4bd
00000300: 3a49 8fbb 0e21 3cbd 611d 813e 2410 4cbc
00000310: e015 0a3c e1df c7bd 09ed c33d d8d7 54be
00000320: cdce d7bd 5a92 1abe 6179 493c 6eac 263e
00000330: c67b 633e 3985 b7bc 0624 dabd 9c88 233e
00000340: 9fc3 683c 55fc 453e 7f7a 23bd c878 853e
00000350: db75 3f3e d306 f33d 11fd 773e f36c 4b3e
00000360: 951e f63d 6ae2 043d b418 523d d5db fc3d
00000370: 45e0 7b3e 509a 08bb d0a2 4c3e 5359 d03d
00000380: 1a01 bc3e 5fae 293e 7a65 b33d 2c2d ae3e
00000390: b7da e3bc 4245 a53e db8c d93c 7e04 79bd
000003a0: 4da2 8a3e a502 623e 55c2 bb3e be54 4a3e
000003b0: 5803 973d 29f9 8bbd 5257 ba3d c8a3 c43e
000003c0: 2344 c33d 40bc 933e 8224 48be 2db2 7f3e
000003d0: 5451 363e c8c5 10be 40b6 debd 33cd 433d
000003e0: 1658 f8bd 99b2 3fbe 7e59 aabd a67c c1bd
000003f0: 5c53 343e 331f 6f3d 0146 d23d fe5f 093d
0.06315579 0.4241592 0.21331756 0.37966335 0.13287738 0.32373536 0.3862652 0.3775384
0.14286736 0.09783022 0.4146418 0.088772506 0.2593304 -0.020570738 0.092656106 0.23670383
0.16579847 0.084970325 0.09416529 0.22188234 0.30905658 0.32410836 0.17302032 0.21242487
-0.03296572 0.14541076 0.06272176 0.24603608 -0.079744264 0.39803687 0.013963982 0.3640619
0.38594145 -0.06385909 0.0010618155 0.067877926 0.26580897 0.072680525 0.17530759 0.23825799
0.24998274 0.28746605 0.33281395 -0.08735358 0.045204043 -0.09842378 0.09525864 0.25146228
0.0072323536 0.106717564 0.40448794 0.29927135 -0.06971054 -0.07299559 0.39080787 0.12826082
0.09786181 -0.05485765 0.20189716 -0.07757861 0.35263416 0.22976124 0.40922675 0.22446452
0.039509527 0.024103163 0.038512595 0.19765842 0.13992912 0.36898822 0.20815434 0.19434571
-0.004308024 0.24547575 0.18444893 0.36069825 0.17925675 0.2841697 0.16315016 0.17071383
0.07078068 -0.010435986 0.37323034 0.21989064 0.1400637 0.05114143 0.09473818 0.23063149
0.1195656 0.1877211 0.3694559 0.23478895 -0.055066433 0.38526103 0.011257349 0.2224107
-0.0587944 0.37489694 0.035537392 0.26420727 0.3679073 0.28857347 0.1076586 0.3139875
0.26239076 0.09140978 0.25008118 0.22289786 0.19346535 0.17636895 0.15893252 0.41087356
0.13348682 -0.039891638 -0.08348692 0.22376667 0.38504452 -0.021454062 0.1466632 0.13517857
0.33166876 0.3120826 0.0641426 0.32408264 0.16543996 0.19564803 0.36354515 0.38722616
0.33386475 -0.10595644 0.29908744 0.2655031 0.21385045 0.113902 0.20021704 0.16031827
0.07688794 0.36008358 0.091442555 0.27440614 0.1533521 0.012739899 0.20422535 -0.08555859
-0.1386335 0.11974609 0.33825213 0.13102323 -0.09228794 0.30705184 -0.078850456 -0.074970126
0.03847537 0.03338812 -0.02599417 0.25044245 0.018915562 0.1265027 -0.07515484 0.27780697
0.11754532 -0.08744992 -0.004363481 0.030016689 -0.031633023 -0.04010438 0.17461124 -0.11207599
0.2561486 0.20247342 0.06684112 0.052640762 -0.0116288485 0.24440698 -0.17573477 0.053001646
0.23919678 0.16413575 -0.15950678 -0.0401288 0.10932735 0.15440138 -0.22726744 0.0049767485
0.13559344 -0.085236825 0.10319946 0.13789828 -0.1840315 0.02082133 0.24622156 -0.0879855
-0.004372743 -0.04592996 0.25217727 -0.01245502 0.008428067 -0.097594984 0.09566695 -0.20785463
-0.10537491 -0.15094891 0.012297005 0.16276714 0.22215185 -0.022402393 -0.10651402 0.15970081
0.014206796 0.19334538 -0.039911743 0.2606871 0.18697302 0.11866536 0.24217631 0.1986578
0.12017552 0.032442488 0.05129309 0.12346617 0.24597271 -0.002084393 0.19983983 0.10173287
0.3671959 0.16570424 0.087595895 0.34018838 -0.027814252 0.32279402 0.026556423 -0.0607953
0.2707695 0.22071321 0.366717 0.19758889 0.07373685 -0.06834633 0.09098686 0.38406205
0.095344804 0.2885456 -0.19545177 0.24970312 0.17804462 -0.14137948 -0.10874605 0.047803115
-0.12126176 -0.18720473 -0.083178505 -0.09447603 0.17609924 0.058379363 0.102672584 0.03353881

decoder_input.bias f4 [1568]
00000000: 8c7d a23e f856 563e 83f4 033e dc84 32bd
00000010: b9e1 3b3e 28c0 9c3e b948 6ebd 10b8 103d
00000020: a9a9 ce3d 09f8 adbd 5afd 57bb bc2f 2fbd
00000030: 5e38 51be 9369 3f3e ebd9 9b3e 67c2 3b3e
00000040: 1fa9 183e 19d2 ca3b ab52 183e 2a90 553c
00000050: 4426 a03d 1002 413e eadc 753e 9c60 873e
00000060: a7ce 29be feff 0e3e 0554 5fbe eac6 e0bd
00000070: ea8f 413e 4505 1c3e 6e8b 3cbe 7586 b63d
00000080: f63f 813e b734 c8bd 95eb 4f3e fd8d 883e
00000090: 6f57 623e 3212 80bd 52f9 ec3d 1311 c6bd
000000a0: 7f03 e9bd bfd3 0bbd 4932 503e 42c7 8d3e
000000b0: 723d ddbb 33ab 50be b29e ee3c 8cf7 ab3e
000000c0: cc2e 963e 50a8 343e 76fd cdbd 3b4b 86bd
000000d0: d0c4 67be 1de1 29be aad2 1a3e 48ef 90be
000000e0: a045 1abe ca99 7b3e 6cfe 193e 9157 e83d
000000f0: 0550 163c 6eee 0a3e 45d2 18be e841 f33d
00000100: b8c6 19be a27f 973d c8eb ecbd fb9f 2bbe
00000110: f237 1e3e da05 80be 6951 debd 019b 843d
00000120: 5ca4 dc3d 3a04 dbbd 3e55 53be b059 013d
00000130: 360a 92be 714d 37bd 0765 31bd 1e9e 893e
00000140: dba0 e03c 90c7 78be d6a0 0dbe 41c5 8abe
00000150: 06be cb3e fe13 cebd ac55 bdbc 41b9 593e
00000160: b8b5 bd3c fbe9 48be b2ef 823a 7e8c c33d
00000170: 529f 393e 30ea 9f3e 7540 dfbd 700c dc3d
00000180: cd73 9d3d 8e52 7e3e 6099 6dbe fa30 2bbd
00000190: 8daf e63d 65c6 0cbe e202 153e e4a4 95be
000001a0: 5c0c a2be 33fa 9abe 5e94 05be 04fc 413d
000001b0: 8e6d 4ebc 98a9 3fbe f98f eb3d 4844 d33d
000001c0: 163d 1ebe a7fb 13be 282a 2c3e 0935 763c
000001d0: 9ba5 483e 8ddc 88be 12af 6f3d 5507 7abe
000001e0: 9b72 a1bd 6992 6bbd 72f3 0a3e b29f 8b3e
000001f0: 540d 043d 0476 88be d2bf 19bd 1ec6 fe3d
00000200: 1aec edbd 54cb ff3c 1899 173e 1ee9 d73a
00000210: a81f 683e 8046 e9bc a1f7 15be 6f1f e53d
00000220: f9dc 683e 4c55 87bd 2a0e 843d 2cb8 afbe
00000230: 5a07 d8be 2ba5 b0be 66a3 adbd 87ef 52be
00000240: 78d5 0c3e 8b7e a33d 9a63 c1bd e9b5 083e
00000250: 7a40 523e d8f6 9abd 8ab8 10bd 6a3f 6ebe
00000260: 614c 2dbd 0c06 4c3e f6e6 533e e1df 0fbe
00000270: 5723 eb3d 2ab5 6abe 7277 013e 1450 5dbd
00000280: 56b8 763d 2298 76bc 53a4 923e ae9f 123e
00000290: 67a2 f2bc 7577 65bd 4ef6 c8bd e9fa 933e
000002a0: 9e64 493e 95a4 dc3d a3c1 e3bd ecc1 81bd
000002b0: faf0 59be 2b0a b33d c7d3 60bd 48be 873e
000002c0: e11e 5dbd 0dd0 c53d 5b6a 6b3e 5ba0 f33d
000002d0: 5e81 583d 175b e5bd d978 843e 5737 64be
000002e0: 6548 57be 0e6b 353e 085c 5bbe 095e f23d
000002f0: ff2e 20bd a133 47bd 7a11 a13e 8768 433e
00000300: 8b60 733e c505 84bd 4632 393e f0b0 453e
00000310: 23eb bdbe 5191 cc3d 5d14 adbe b751 68be
00000320: 55c4 8cbe ddc7 9dbe 02a5 91bb 2f1b 143e
00000330: e11c acbd fb57 34be 468f da3d 0f63 2c3e
00000340: 7637 7bbe d6fa 17be 6681 47be b89f 2abe
00000350: 74c9 553e 4583 aabd 4c4a 39bc a02c 0f3e
00000360: ce53 2bbc ed09 bcbd 7745 4dbd 1b43 77be
00000370: 0fd9 e13d b3ee 583b 6adb 023e 9487 52be
00000380: 675d ad3d 4645 893d 13c5 ccbb e934 a73d
00000390: 8468 413e f1bc 343e 77c1 67be d781 42bd
000003a0: 86ba c43d 49d4 93be af2e 043e 3be3 e83d
000003b0: f799 68be 7147 93be 6b58 ccbe 094b efbc
000003c0: 18eb f23c e38b 1fbe 65c1 793d 2813 9dbc
000003d0: 0820 38be c217 1ebd f4f6 c93d 4532 b0bd
000003e0: 4132 89be ed00 d63d 63b1 a1be d9be b53d
000003f0: c37c 80bd b864 c43d 4702 4a3d fd95 e3bd
0.3173641 0.20931613 0.12886243 -0.043583736 0.18347825 0.30615354 -0.058174822 0.035331786
0.10090954 -0.084945746 -0.0032957406 -0.042770132 -0.20431659 0.18692617 0.30439696 0.18335877
0.14908265 0.0061895964 0.14875285 0.01303486 0.078197986 0.18848443 0.24010053 0.26440895
-0.16582738 0.13964841 -0.21809395 -0.1097544 0.18902555 0.15236385 -0.18412563 0.089123644
0.2524411 -0.097756796 0.20304711 0.26670828 0.22103666 -0.062534705 0.115709916 -0.096712254
-0.1137762 -0.034137484 0.20331682 0.27691084 -0.0067517096 -0.20377807 0.029128406 0.335873
0.29332578 0.17642331 -0.100581095 -0.06557318 -0.22633672 -0.1658978 0.15119424 -0.28307557
-0.15065622 0.24570385 0.1503846 0.11344827 0.009174352 0.13567516 -0.14923961 0.11877805
-0.15017211 0.07397391 -0.11568409 -0.16760246 0.15451029 -0.25004464 -0.108553715 0.06474877
0.107735366 -0.106941655 -0.20637986 0.031579673 -0.28523415 -0.04475159 -0.043309238 0.26878446
0.027420452 -0.24294877 -0.13830885 -0.27103618 0.39793414 -0.10062407 -0.02311214 0.21262075
0.02315794 -0.19620506 0.0009989648 0.09548281 0.18127182 0.31233358 -0.10900966 0.1074456
0.07688103 0.2483618 -0.23203039 -0.041794755 0.112639524 -0.13747557 0.14551881 -0.29227364
-0.31650054 -0.30269012 -0.13044879 0.04735948 -0.012599362 -0.18717039 0.1150207 0.10315758
-0.1545299 -0.14451467 0.16812956 0.015027293 0.19594423 -0.26730767 0.05851657 -0.2441686
-0.078831874 -0.057512674 0.1356943 0.27270275 0.032239273 -0.2665254 -0.03753645 0.124401316
-0.116172984 0.031224884 0.14804494 0.0016472673 0.22668326 -0.028476 -0.14645244 0.11187636
0.22740544 -0.06608066 0.06448014 -0.343202 -0.4219311 -0.34501013 -0.084784314 -0.20599185
0.13753307 0.079831205 -0.094428256 0.13350643 0.20532408 -0.07566613 -0.03533224 -0.23266378
-0.04230917 0.19924182 0.20693573 -0.14050247 0.1148135 -0.22920671 0.12643221 -0.054031447
0.06023439 -0.01505092 0.28640994 0.14318725 -0.029618455 -0.056022126 -0.09812604 0.28902367
0.19667289 0.10773579 -0.11120918 -0.06335816 -0.21283332 0.08742174 -0.054889467 0.2651236
-0.053984527 0.09658823 0.2298979 0.1189582 0.05285775 -0.11199015 0.2587345 -0.22286735
-0.2102371 0.1771662 -0.21421826 0.11834342 -0.03910732 -0.04863322 0.31458646 0.19082843
0.23767297 -0.06446413 0.18085584 0.19305778 -0.37093458 0.099886544 -0.33804598 -0.22687422
-0.2749354 -0.30816546 -0.0044447193 0.14463495 -0.08403946 -0.17611687 0.106718585 0.16834663
-0.24532875 -0.1484178 -0.19482955 -0.1666249 0.2087763 -0.08325819 -0.011309218 0.13981867
-0.010456992 -0.09181581 -0.050115075 -0.24146692 0.11027729 0.003310126 0.12779012 -0.20559531
0.08465081 0.06702666 -0.006249079 0.08164389 0.18887526 0.176502 -0.22632395 -0.047487106
0.09605889 -0.28872898 0.12908433 0.11371466 -0.22714983 -0.28765443 -0.39911208 -0.029210584
0.029653117 -0.15580706 0.06097545 -0.019174173 -0.17980969 -0.038596876 0.09861556 -0.08603338
-0.26796153 0.10449395 -0.31580648 0.08874292 -0.062737964 0.09589523 0.049318578 -0.11112592

decoder.0.weight f4 [32, 16, 3, 3]
00000000: 5d32 bf3c d60f b13d b415 a13d c7e7 9c3d
00000010: c4eb 3c3d 2ced 30bc d735 673c 390f 0e3d
00000020: 0e4b 733d 7955 e23d b5fc 053d bb8b 6a3d
00000030: fefa 55bc bb16 97bc 74e7 6c3d 87d3 36ba
00000040: 997f 013e b638 873b 8eef aebd 7730 bdbd
00000050: facb 0abb aeef 423c 203c 043d 2e07 0cbd
00000060: 5563 6cbd 2a47 523c ca3f 7e3d 2cfe 2abd
00000070: e9ac 1f3c 099b 9bbc 496e 93bd 6f6c 923e
00000080: 7cb5 0f3e 9774 88bd e316 ea3c 3fae 133e
00000090: f7c7 363d dfff 243c 7dd8 303b d1d7 723d
000000a0: ce83 0d3e 76db 0a3e a4ab e13d 986c 823b
000000b0: 11d9 ce3c 095e a3bc 19f4 0fbe 806d 303d
000000c0: 94d5 f73c 58d7 383e fae3 b93d 43e5 1bbd
000000d0: e7e0 c03c 0877 9f3c d59e bc3c d887 173d
000000e0: b512 8abc 629e 1fbd cff4 d6bd c093 17bd
000000f0: 9bb8 153d 52ad 0dbd e5dd 213d 98f7 fabc
00000100: b68d 82ba 164a ddbd 73d6 4d3d 1b3f 89bc
00000110: 62d5 f6bb 148e a1bd d19c 923d 8491 283d
00000120: 2b66 56bd 4264 84bc 5b80 ba3d 9271 663c
00000130: 8b2a 523d 96ad b03d fb1b 32bd 9f16 0fbd
00000140: 2f1d 083e 728d 1c3b d3ef b539 3983 ad3d
00000150: cc8b aebc 2f31 033e 3452 9abb a462 373d
00000160: 3cd3 373e 8ba3 0fba 14c1 ee3d 323e c13b
00000170: e67e 953c 248a 76bd 969a a7bd d3b7 4bbb
00000180: f380 a03a 845d 6cbb 360e e23d 3f69 d6bc
00000190: 5f52 60bd 5257 87bd 9d73 a13d a055 183e
000001a0: 1f81 5bbc 9794 e3bc 5112 05bc 0195 cf3c
000001b0: 203d cd3d b899 e33d 128a ff3d 68f6 a53d
000001c0: 9300 fa3d fabb da3d b47e 503d 2903 053d
000001d0: 508a 753d f667 7abd 8e21 86bd 7699 053c
000001e0: d29a 05bd 0b5d af3d 89cd d7bd 572a ad3c
000001f0: 18bb d6bd 5237 35bd 6a4e ba3d cd41 cc3d
00000200: 29ce 93bc 7815 9dbd a2ca 923c f16f 133e
00000210: c39c 813c 4e08 fd3c 5daf 96bc 005f cabd
00000220: 85e6 b6bd b9d4 a0bd 5a75 ecbc c2a6 433d
00000230: e3d2 e33c 6e42 65bd dc02 a83d 28d9 ed3c
00000240: 266e 493d 7a49 5bbd aaea ff3c 7a41 a2bc
00000250: 9f70 c1bd 4862 be3c 4eb9 ee3d d19a 26bb
00000260: ab05 94bc 0570 513c 8aeb 093d 18cc b7bc
00000270: e9ec afbd fe14 c93d 43f9 29bd d53e 57bd
00000280: d54b d43d 6961 593d d2fd 39bd 75ef ce3a
00000290: 4429 92bd 5e38 7ebc 801d 453d 3368 bbbc
000002a0: c785 5cbd ecb7 da3d f707 8f3b 7a9a a5bd
000002b0: 78e3 143e 454b ab3b b440 2bbd 92ee 4bbe
000002c0: 52fd efbd 6447 44bc 354b 293e 14bd 7a3c
000002d0: f817 14bc ee42 1e3e 9ac4 09bd 4e8b cd3c
000002e0: 40fe 533c ae74 ebbd 061f c6bd 8182 433e
000002f0: 3085 a53d 3f80 04bd 2f75 0ebd 2cf3 85bd
00000300: 7466 dabc 5852 573e cf9a 8abe c282 78bd
00000310: 1fad 003d 67a6 4cbd 193a 843d 35b2 89bd
00000320: e78f 93bd 6c17 07bd 6dfe ee3b 1080 43bd
00000330: e510 fe3c 36ce 873c 2a41 44bd 6b63 cb3b
00000340: ac9d 2cbd 2cc3 9b3d c221 253c 0fcf 863c
00000350: abd4 9bbd 2951 b1bd 60f2 d2bc 3a59 91bd
00000360: c0ab 8f3d 8342 b8bd 3e94 f5bd 4441 313d
00000370: 5e24 4bbc 7752 debd 841b 9a3d 34c8 833d
00000380: 5f26 a1bd e758 343d fb5b 553d 3b8e 5e3c
00000390: 3361 253b 8dc1 8a3d 281a babc 69d1 ec3c
000003a0: 619f 2b3e bbc5 953c 1dc0 e9bd 163b b7bd
000003b0: 49f0 d93a c1a0 2c3d 7aca a3bc fee2 bfbd
000003c0: e1c3 c3bd 484d 8b3c 80fc 163d 4fcd a9bb
000003d0: d6b3 903d 33aa 36bd 6b26 1dbe 9592 39bd
000003e0: 23fb e6bc 1343 f0bb e82c 203d 3eb0 043d
000003f0: 848b e83c 644d bd3c 4a34 34bd 0c99 4ebc
0.023339445 0.086455986 0.07865468 0.076613955 0.04612328 -0.010798734 0.0141119575 0.034682486
0.05939775 0.11051459 0.032711703 0.057262164 -0.0130603295 -0.018443456 0.05783792 -0.0006974269
0.12646331 0.0041266335 -0.08541785 -0.092377596 -0.0021178708 0.011897964 0.032283902 -0.034186535
-0.057711918 0.01283435 0.062072553 -0.041746303 0.009745815 -0.018994825 -0.071987696 0.28598353
0.14034075 -0.06662863 0.028575366 0.14421938 0.044624295 0.01007077 0.0026984506 0.05928785
0.13819811 0.1356028 0.11019066 0.0039802305 0.02524999 -0.0199423 -0.1405796 0.043073177
0.03025321 0.18050897 0.09076686 -0.038060438 0.023544742 0.019465938 0.023024956 0.036994785
-0.016854623 -0.038969405 -0.10495912 -0.03700614 0.036553007 -0.03458912 0.039518256 -0.03063564
-0.0009960446 -0.108051464 0.050253343 -0.016753724 -0.0075327614 -0.078884274 0.071588166 0.0411544
-0.05234353 -0.016161088 0.09106513 0.014065163 0.051310103 0.08626859 -0.043483716 -0.034933683
0.13292383 0.002388802 0.00034701693 0.08472294 -0.021306895 0.12811731 -0.0047095064 0.044771805
0.17951673 -0.0005479387 0.116579205 0.005897307 0.018248986 -0.060190335 -0.08183782 -0.003108491
0.0012245461 -0.0036066482 0.11037867 -0.026173232 -0.054766055 -0.06608452 0.078833796 0.14876413
-0.013397484 -0.027780814 -0.008122043 0.025339605 0.10021424 0.11113304 0.12477507 0.08103639
0.12207141 0.10680385 0.050902084 0.032473717 0.05994636 -0.0611343 -0.06549369 0.008154264
-0.03261835 0.085626684 -0.105372496 0.021138353 -0.10484904 -0.04424221 0.090969875 0.09973488
-0.01804264 -0.076701105 0.017918888 0.14398171 0.01582182 0.030887749 -0.018394167 -0.09881401
-0.08930687 -0.078530736 -0.028864551 0.047766455 0.02781052 -0.055971555 0.082036704 0.029034212
0.04917731 -0.05353687 0.031239826 -0.019806612 -0.09445309 0.023240224 0.11656438 -0.0025421868
-0.018069109 0.012783055 0.033671893 -0.022436187 -0.08590109 0.09818457 -0.04149748 -0.052550156
0.10366026 0.053071413 -0.045408078 0.0015787916 -0.07136777 -0.015516369 0.048123837 -0.022876834
-0.053838518 0.106796116 0.004364963 -0.08086105 0.14539897 0.0052274787 -0.041809753 -0.19915226
-0.11718239 -0.0119799115 0.16532595 0.015303869 -0.009038918 0.15455219 -0.03363476 0.02509084
0.012939036 -0.11496864 -0.09673886 0.19092752 0.08082044 -0.032348868 -0.034779724 -0.06540522
-0.026660182 0.21027505 -0.27071235 -0.060671575 0.0314151 -0.04996338 0.06456394 -0.067234434
-0.072051816 -0.03298132 0.0072935135 -0.04772955 0.031013915 0.016577821 -0.047913708 0.00620692
-0.042142555 0.076055855 0.010078849 0.016456155 -0.076089226 -0.08658058 -0.025750339 -0.07097097
0.070151806 -0.08997061 -0.119911656 0.043275133 -0.012398807 -0.10855573 0.075247794 0.0643467
-0.07868647 0.044030096 0.052089673 0.013583715 0.0025234937 0.06775198 -0.02271755 0.028908448
0.16760017 0.018282762 -0.11413596 -0.089468166 0.0016627397 0.042145494 -0.01999401 -0.09369467
-0.09558845 0.017004624 0.036861897 -0.0051819454 0.07065551 -0.04459591 -0.15346687 -0.045305807
-0.028195923 -0.0073322146 0.039105326 0.03239464 0.028386839 0.023108192 -0.04399518 -0.012609731

decoder.0.bias f4 [16]
00000000: b7fc 0abd 4919 d03c c651 77bc 2414 323d
00000010: 842d 863d 08a0 ef3c 2e71 e13c fa57 86bc
00000020: d2cb 093d df25 373e 1179 3b3d 10f2 213e
00000030: e638 8a3d e30f f4bc 631a 5bbd f2e1 0d3c
-0.033932414 0.025402682 -0.01509518 0.04347624 0.0655165 0.029251114 0.027519789 -0.016399372
0.033641644 0.1788554 0.045769755 0.15814996 0.06749134 -0.029792732 -0.05349196 0.008659827

decoder.2.weight f4 [16, 1, 3, 3]
00000000: fd2f 243c 3f89 30bc 8422 113d d6c6 1d3e
00000010: 9387 e9bc 0744 a1bd 14f3 a6bd 4c19 0d3d
00000020: c6f7 303e ec17 0c3e 7e4e 71be fa2f 28be
00000030: 9129 33bd 5973 d43d aade 57be ed94 123e
00000040: e8ae 92be 2b27 243e dc86 12be 81f8 4c3e
00000050: 5063 90bd aef0 433e 52b7 aa3d 33bd 17bd
00000060: f7f9 97be 4543 93bd 0da2 4dbe 0181 903e
00000070: aecd 7b3c aa55 0b3e e1d1 003e dec3 08be
00000080: 5f31 10be 2975 8fbd ae68 a9be af8f 93bd
00000090: dbb4 c6bb d9f7 36be e4e9 b2bd ebf6 593c
000000a0: 13a9 11be 96ac 15be e374 0c3d cd3a 5dbc
000000b0: 12a5 563e 18bd 22bd 3ddd be3d 332d 643d
000000c0: 3fa9 9b3d dac1 acbe 6f6b f2bd f6d1 113e
000000d0: 965b 78bc a415 c63d 17ce 34be d542 673e
000000e0: a8f9 38bd ab5e 40bd 9db3 2d3e db40 273e
000000f0: 145d 1abe 2dc4 303e 6ce6 b9bd b0b8 373e
00000100: 10bc c3bc 91ae 4b3e de67 193d e984 1f3e
00000110: bbf5 4ebd a744 1a3d 192e be3d 8184 38be
00000120: 8c61 a5be a33b b9be 98fa 5cbe ffc7 543e
00000130: 293b af3d 84aa c1be 819b 1dbe a084 db3d
00000140: 82be 63bd ebc4 a9bd 0317 64be b399 7c3e
00000150: a704 ed3d 4aff 0abe b8c3 c03d 3c18 59be
00000160: 198b bfbd 329b 3dbe 88eb 2abc ba85 febd
00000170: 8e79 e93d b6c0 b03d 7cb9 8f3e e824 5e3e
00000180: 25b7 073e 1454 42b9 2b4d babd 64e5 10be
00000190: 1cdb 243e 6128 21bd 5a37 8fbe f7c1 1abe
000001a0: 4890 50bd 08c7 133e 5239 58bb 4fc7 81be
000001b0: 8611 4cbe 1f9c ff3d 7cc5 08be 7b58 67be
000001c0: bfb3 3ebe 88a3 c7bd 0c05 49be a919 2ebd
000001d0: 66c7 5abe c2f8 253e e8d6 2fbe 7cd8 a5be
000001e0: a308 63be d26c bf3d e41d 843d c4a1 91be
000001f0: 3930 82be 85f5 49be df14 883e d67e 703e
00000200: f7b2 a5bd 96a9 32bd 7eb4 1cbe 09e9 12bd
00000210: 8797 72bd fb40 183d 7f89 3bbd 6cca a63d
00000220: a715 9cbe 9026 213d dcad 9dbe dcbd 06bd
00000230: 167e 5e3d 12cc 89bd 87a1 563e 9f6e 4abe
0.010021207 -0.0107749095 0.035433307 0.15407881 -0.02850703 -0.07874303 -0.08151832 0.034447953
0.17282018 0.13681 -0.23565099 -0.16424552 -0.043740813 0.10373563 -0.21081033 0.14314623
-0.28649068 0.16030566 -0.14309257 0.20016672 -0.07050192 0.19134781 0.08335747 -0.03704567
-0.29682896 -0.07190565 -0.20081349 0.28223422 0.015368862 0.13606897 0.12580062 -0.13355967
-0.14081334 -0.070047684 -0.33087677 -0.0720514 -0.00606404 -0.17867984 -0.08736017 0.013303499
-0.14224653 -0.14616618 0.03429116 -0.013502789 0.20961407 -0.039731115 0.093195416 0.055707168
0.076006405 -0.33741647 -0.118368976 0.1424025 -0.015158555 0.09672096 -0.17656742 0.22584088
-0.045159966 -0.046965282 0.16963048 0.16333334 -0.15074569 0.17262335 -0.090771526 0.17941546
-0.023893386 0.1989081 0.03745257 0.15578045 -0.050527316 0.03766313 0.09286136 -0.18019296
-0.32300985 -0.36178312 -0.21579969 0.20779417 0.08556206 -0.37825406 -0.15391351 0.107186556
-0.055601604 -0.08289512 -0.22274403 0.24668007 0.11573153 -0.13573948 0.094123304 -0.21200651
-0.09352703 -0.18516234 -0.010432132 -0.1242785 0.11400138 0.08630507 0.280712 0.21693766
0.13253458 -0.00018532603 -0.0909675 -0.14150006 0.16099209 -0.03934515 -0.27971917 -0.15113054
-0.050918847 0.14431393 -0.003299315 -0.25347373 -0.1992856 0.124809496 -0.13356584 -0.22592346
-0.18623255 -0.09747988 -0.19630831 -0.04250494 -0.21365127 0.16208175 -0.17171824 -0.32391727
-0.22171263 0.09346928 0.06451014 -0.2844373 -0.25427416 -0.19722565 0.26578423 0.23485884
-0.080907755 -0.04361876 -0.15303227 -0.03586677 -0.05922654 0.037171345 -0.045785423 0.08144078
-0.3048527 0.039343417 -0.30796707 -0.032895908 0.054319464 -0.067283764 0.20960055 -0.19768761
