src/data/preprocessor/autoencoders/conv_ae_fashionmnist_16.pth (torch, 250591 bytes, 11 tensors)

encoder.0.weight f4 [16, 1, 3, 3]
000000 6b 95 b1 3e c9 d5 5b 3d 32 48 f9 bd 90 a7 42 3a
       0.3468431 0.05367068 -0.12171973 0.00074254815
000010 b5 c2 7d bd 2b 1d 8f be f7 26 13 3e f2 f5 96 be
       -0.061953265 -0.2795194 0.14370333 -0.29484516
000020 17 df 9d 3e 1c d7 0a bd 1d bd 0d 3e e0 bc c2 bd
       0.30834267 -0.03389655 0.13841672 -0.09508681
000030 54 66 62 3d a6 f9 77 3d 54 3b 67 be d6 11 01 3e
       0.05527337 0.060540818 -0.22581226 0.1260446
000040 fd 9c 71 be 06 eb 92 3d 76 37 9c 3c 2b 06 6d 3e
       -0.23595043 0.071737334 0.019069415 0.23146884
000050 ee 04 26 be e4 2a 99 3e cd 77 38 3e 83 58 5a be
       -0.16212818 0.29915535 0.1801445 -0.21322827
000060 14 c1 85 3d f0 0c 9b 3e 24 c3 09 3e e9 9d 62 be
       0.06530967 0.30283308 0.13453346 -0.2213055
000070 fc 0e f0 bd 79 78 5d 3e 0d 7b 9d 3d 34 46 9b 3e
       -0.11721608 0.21627988 0.07689486 0.30326998
000080 24 13 99 be 0f 33 04 be fd e9 70 3e ce 0f 9c 3c
       -0.29897416 -0.12910102 0.2352676 0.019050505
000090 d0 89 f5 3d 22 88 54 bd 7e d2 d3 bd 6f 2a 89 bc
       0.11989176 -0.05188764 -0.103428826 -0.016743867
0000a0 e1 cf b6 3e 4f 2b 76 be ac 3d ae 3d dc a4 0b be
       0.35705474 -0.24039958 0.08507857 -0.13637108
0000b0 4b 5f 8f 3e 9d 6e 90 3e 42 4e 81 be dc 50 a6 3e
       0.2800239 0.2820939 -0.25255018 0.32483566
0000c0 44 68 29 be b6 82 8c be 30 e3 b0 3e 00 26 84 3e
       -0.1654368 -0.27443475 0.3454833 0.25810242
0000d0 05 0e cf bd de b7 13 3e d7 7e 82 be 9e ed 4a 3e
       -0.10110096 0.14425609 -0.25487396 0.19817206
0000e0 d0 7d 86 be 43 44 e6 bd 50 a8 1f be ec 79 72 3e
       -0.26267862 -0.11243489 -0.1559155 0.23679322
0000f0 ae 29 85 3e e8 c5 45 ba 2c d0 88 3e 03 5c 88 3e
       0.26008362 -0.0007544444 0.26721323 0.266327
000100 2a 62 7a 3e 6d f4 9f 3e 84 5b 9b 3e 6b 91 87 be
       0.24451509 0.3124117 0.30343258 -0.26478133
000110 ad 32 87 3e 7b 03 6c bc be 8a 2a be 2d 2b 49 3e
       0.2640585 -0.014405127 -0.16654488 0.19645377
000120 20 41 93 be 09 38 b0 bb 17 03 dd 3c ed 1c 72 bd
       -0.28760624 -0.0053777737 0.026979012 -0.059109617
000130 87 54 3f bd a9 ec 2e be 73 f6 bd bc 3b 36 6e 3e
       -0.04671147 -0.17082466 -0.023188805 0.23262875
000140 01 f7 b0 3d 44 c1 5f be e0 22 54 be b0 8f 26 bd
       0.08640862 -0.21851069 -0.20716429 -0.040664375
000150 29 75 ce bc fd 6c a5 3d 71 83 18 be 39 8c b0 3e
       -0.02520235 0.080774285 -0.14893891 0.3448198
000160 64 89 9a 3e c5 c7 04 be 55 0c 96 3c 26 4c 65 3e
       0.30182946 -0.12966831 0.018316427 0.2239233
000170 e2 c4 39 bc af e3 ad 3e 68 0b b7 3e cd b5 a1 3d
       -0.011338444 0.3396277 0.3575089 0.07896004
000180 4b 27 67 bd 33 6f d2 bc 55 38 8c bc 92 d9 3e 3e
       -0.056433957 -0.02568779 -0.017116705 0.18637684
000190 d0 8d 4d be a4 6f 9b 3e 7a 52 98 3e af 26 ab 3e
       -0.20073628 0.30358613 0.29750425 0.3342795
0001a0 d2 f9 87 3e df 57 9e be 5f 26 cb bd eb dc b0 3d
       0.26557785 -0.30926415 -0.09919428 0.08635887
0001b0 23 3e dd 3d df 29 8f be 23 88 56 3e f1 06 57 3e
       0.10802867 -0.27961633 0.2095037 0.20998742
0001c0 65 f7 85 be 9d ff 9a 3e 75 fb 30 3e 7e 06 e7 bd
       -0.2616531 0.30273142 0.17283423 -0.11280535
0001d0 88 d0 72 3e 7c 28 68 be 19 f7 0b 3e 79 b8 d7 bc
       0.23712361 -0.22671694 0.13668479 -0.02633308
0001e0 03 a9 95 3e ab 34 81 3e 02 77 11 3e 56 c7 31 be
       0.29230508 0.25235495 0.14205554 -0.17361197
0001f0 ae a2 7f bc a8 96 9b be 92 31 b4 bc 66 5d 5b be
       -0.015602751 -0.3038838 -0.021996293 -0.21422347
000200 84 a6 13 3e 38 b6 55 3d 64 0d 89 3d e3 00 69 be
       0.1441899 0.05217573 0.06692007 -0.22754245
000210 a2 a2 92 be ae 60 79 be 87 8e 94 3e d3 e4 c4 bd
       -0.28639704 -0.24353287 0.2901499 -0.09613957
000220 bd 90 77 bd 81 88 84 3d ae 51 48 be 94 49 ff 3d
       -0.060440768 0.064713486 -0.19562408 0.12465206
000230 7f 7e 3e be b1 4b 1f be fd dd 92 3e 2e 49 69 3e
       -0.18602942 -0.15556218 0.2868499 0.22781822

encoder.0.bias f4 [16]
000000 14 05 90 3e 45 dc 5d 3d 4a e1 93 be 1a a0 48 3e
       0.28128874 0.054165144 -0.2888282 0.19592324
000010 f5 6c 27 3c eb d7 97 be 0f 7c dc bd f4 78 bd bc
       0.0102188485 -0.2965692 -0.1076585 -0.023128964
000020 ba 8d 03 be 68 2e c0 bd 7e 04 06 be 9b c0 94 3e
       -0.12847033 -0.09383851 -0.13087651 0.29053196
000030 2d 22 a2 3e e1 77 73 3d 0f 9c 88 3e 7c fc 52 be
       0.316667 0.059440497 0.26681563 -0.20604128

encoder.2.weight f4 [32, 16, 3, 3]
000000 68 68 8b 3d 9f 6a 3b bd 44 51 d3 3d 5a a8 fc 3c
       0.06807023 -0.04575598 0.103182346 0.030841995
000010 d2 c2 20 3d 6c 50 ab 3b 14 02 17 3d ca 9c 25 bd
       0.039248295 0.005228093 0.036867216 -0.04043273
000020 a2 d8 82 3c 9e f8 21 bd cd b0 b6 bc 17 03 a2 3d
       0.01597244 -0.03954374 -0.022301102 0.079107456
000030 3c af 96 3c 8a f0 bf bc 8b 8a 39 3c 18 3d 8d 3a
       0.018394105 -0.023430128 0.011324535 0.0010775654
000040 92 d9 65 bd b8 f2 a4 3d 01 68 1b 3d 19 7b 01 3d
       -0.056115694 0.080541074 0.037940983 0.031611536
000050 a6 79 f1 bc 95 f2 a8 3d 8c ef aa bc 12 e6 59 3d
       -0.029476952 0.08249394 -0.020866178 0.053197928
000060 c8 73 7f 3d c1 64 11 bd 19 01 97 3d 4d bb 8a 3d
       0.062366277 -0.035496477 0.07373256 0.06774006
000070 38 c4 1a 3d ad a0 42 3c 94 fa c4 3d fc 3f c1 bc
       0.037784785 0.011879128 0.096181065 -0.02359008
000080 01 67 9f 3c f4 b5 84 3d a1 1e 27 bd 31 88 3f bd
       0.019458296 0.06480017 -0.040800694 -0.04676074
000090 02 2c 87 3d 69 35 95 3d 6c 7c 4c 3c ca fd 4f bd
       0.06600191 0.07285578 0.012480836 -0.05077914
0000a0 4f 75 ac 3d 00 c1 29 3b bd 54 0b bd 2f 29 ae 3b
       0.08420812 0.002590239 -0.03401636 0.005314968
0000b0 11 56 81 3d d5 62 7b 3c 7c fc 48 3c bb 9f 9f 3d
       0.06315244 0.015343388 0.012267228 0.07794138
0000c0 b8 96 51 3d 8b 6d b2 3d 1b 0e d6 3c d7 b2 0f bd
       0.051169127 0.087123 0.026129773 -0.035082664
0000d0 b7 31 c2 3d 86 bd 4e bd c9 6a 1b 3d 13 8d fe 3b
       0.094821386 -0.050473712 0.037943635 0.007768282
0000e0 0c 5c f3 3b be cb f0 3c 03 8c bd 3c 9d 55 2c bd
       0.0074267443 0.029394027 0.023138052 -0.042073835
0000f0 56 df 8a bc 7e e7 98 3d 65 33 14 3d a1 6c 10 3d
       -0.016952198 0.07466029 0.036181826 0.035259847
000100 ae 2c 32 bd 16 06 29 3d 46 23 08 3c 39 98 d0 3d
       -0.04349964 0.04126557 0.008309191 0.10185284
000110 cc 03 8b 3d 06 42 57 bd c7 05 92 3d f7 85 60 bc
       0.067878336 -0.0525532 0.07130008 -0.013703815
000120 1e a1 9d 3d 54 0c f6 bc c1 1d d2 3c 6d 29 dc 3c
       0.07696746 -0.030035175 0.025648953 0.026875222
000130 21 fb 74 bd d2 52 a7 3d ca 74 3f bd a9 c2 74 bd
       -0.059809808 0.081700936 -0.046742238 -0.059755955
000140 53 50 9a 3d 1c 67 61 3c 63 4c b0 bc 7f c5 24 bd
       0.07534852 0.013757493 -0.021520799 -0.04022741
000150 1d 9c d8 3c 0a 06 6f 3d fd 4c 6d 3d 64 cf 06 3d
       0.026441628 0.05835537 0.05793475 0.032912627
000160 bb 1c 5a bd 07 67 62 3d 60 96 d4 3d f4 0b d6 3d
       -0.053250056 0.055274036 0.10380244 0.10451499
000170 13 b9 8d 3d d8 94 c0 3b ec 06 8c 3c 8c 91 33 3c
       0.06920066 0.0058771186 0.017093144 0.010959994
000180 bd b1 3d 3d d4 d4 60 3b ec 62 3c bc 3c ef a2 3b
       0.046312083 0.0034306543 -0.011498194 0.0049723666
000190 52 86 38 3d 92 00 c6 3d 68 15 ab 3d 96 53 59 3d
       0.045049973 0.096680775 0.08353692 0.05305823
0001a0 61 f8 2a 3d 6e af 7f 3d f5 ef 41 bd 52 0f 63 3d
       0.04174078 0.062423162 -0.04734798 0.055434532
0001b0 67 57 60 bd 74 14 16 3d ec 69 2a 3d 91 19 f0 bc
       -0.054770853 0.0366406 0.04160492 -0.029309066
0001c0 d1 f1 cf 3c 36 5e 92 3c 79 6d d6 3d 1c 4a 46 bd
       0.025383862 0.017867189 0.10470099 -0.04841052
0001d0 fd a8 82 3c 35 27 8b 3d 9d ce eb bc 34 8b 3f bd
       0.01594972 0.067945875 -0.028785044 -0.046763614
0001e0 58 b8 74 bc e3 26 9e ba 19 1b db 3d 54 32 3e bd
       -0.014936529 -0.0012066033 0.10698528 -0.046434715
0001f0 91 66 15 3d 1f 46 db 3a d9 4f 8f 3d 92 17 9a 3d
       0.036474768 0.0016729272 0.069976516 0.07524027
000200 9f 73 23 3d da 42 b5 3d ca df 73 bd a9 e8 7f 3d
       0.039905187 0.088506415 -0.059539594 0.06247774
000210 91 21 72 bd 27 93 7f 3d 50 96 8b bc d6 5f 9f 3d
       -0.059114043 0.062396195 -0.017039448 0.07781951
000220 18 54 8f 3d cc 97 d8 bc c2 18 8c 3d 74 79 67 3a
       0.069984615 -0.02643957 0.0684066 0.00088300486
000230 89 62 e0 bc 29 2a 5a 3d 7c bf b7 3d 6d 58 f3 3b
       -0.027390735 0.053262863 0.089720696 0.0074263127
000240 6e 48 5b 3d ab f8 2e bd 4a 03 b7 3d d8 91 fd 3c
       0.05353587 -0.042717617 0.08936174 0.030953333
000250 8c 37 51 bc a6 d0 d2 3b a7 11 5b 3d 06 cd 2a 3c
       -0.012769591 0.0064335642 0.05348363 0.010424858
000260 71 f6 ca 3d 08 ad 10 3d c5 20 1f bd 19 94 65 3d
       0.09910286 0.035321265 -0.03884961 0.05604944
000270 8d 59 d9 3d 11 2a 4d bd b0 f9 cd 3d 72 20 82 3b
       0.106127836 -0.050088946 0.1005739 0.003971153
000280 8b 2b 2c 3c 57 0e 5f 3d f0 6d 6b 3d 6c 76 39 3d
       0.010508428 0.054457035 0.05747789 0.04527895
000290 47 46 62 bd d3 d3 12 3d c4 2d ab 3d 43 54 e9 3c
       -0.055242803 0.035846543 0.083583385 0.028482562
0002a0 be ab 16 bd 57 8e 31 3d 54 ea b2 3d 59 69 82 3d
       -0.03678488 0.043348636 0.08736101 0.0636775
0002b0 8a f3 32 bd 04 ca a0 3c e0 92 9c bc d5 79 58 bd
       -0.04368929 0.019627579 -0.019113004 -0.052850563
0002c0 76 33 93 3d a5 9e ec 3c f6 3d df 3d 78 68 16 3d
       0.0718755 0.028884241 0.1090049 0.036720723
0002d0 65 99 d1 3c f2 ae 8d bc 27 d4 39 3d 85 cd 57 bd
       0.02558584 -0.017295334 0.04536834 -0.052686233
0002e0 a8 05 a9 3d 3f 4f 3c bc 05 29 1b bd 34 02 35 bb
       0.08253032 -0.011493503 -0.037880916 -0.0027619721
0002f0 fe f7 c2 bb c9 a4 27 bd 3d 76 fd 3b db de 59 bd
       -0.005949973 -0.040928636 0.0077350424 -0.053191047
000300 ce c4 70 bd ba 95 45 3d 79 f8 82 3d e5 ee 16 3d
       -0.058781438 0.048238494 0.06395049 0.03684892
000310 a2 2d 36 3d 33 2e 92 3d 64 d3 3c 3d 37 5b 30 3d
       0.044477113 0.07137718 0.046100035 0.04305574
000320 5a cb 64 bd 24 5f 08 bd 3c 6c 6a bc 04 33 02 bd
       -0.055857994 -0.03329386 -0.014308032 -0.031786934
000330 8a e3 73 3d a2 5f 90 3c 7c af af 3d 24 6d 0d 3d
       0.05954317 0.017623726 0.08578393 0.034527913
000340 8b aa 76 3d ef c6 a4 3c e0 6c 1b bc 81 e9 11 bb
       0.060221236 0.02011439 -0.009486407 -0.0022264423
000350 4f 63 6a 3d ec e6 bd 3d 7e d0 1a 3d 7d 1c c8 3c
       0.057223614 0.092725605 0.03779649 0.024427647
000360 c4 87 fd 3c 21 65 54 3b c2 73 4b bd 8b 75 e1 bc
       0.030948527 0.003240891 -0.049670942 -0.02752187
000370 69 9e 86 3c f2 1f ed ba a7 cf 9f bc d2 fc dd 3c
       0.016432958 -0.0018091185 -0.019508196 0.027098093
000380 fa 4f 73 bc f4 76 8d 3d dc ee 10 bc 7c 2a 27 3d
       -0.014850611 0.06907454 -0.008846011 0.040812
000390 81 d4 36 bd 34 e9 8d 3d 58 36 3a 3d 4f 80 a7 3d
       -0.044636253 0.069292456 0.045461982 0.0817877
0003a0 9e d9 b7 3d 36 5c 6a bd dd 24 70 3b da 45 7a 3d
       0.08977054 -0.057216845 0.0036643066 0.061101772
0003b0 0c 02 97 3c 0a 76 11 bd 35 ee 93 3d 4a 00 fb 3c
       0.018433593 -0.03551296 0.07223169 0.030639786
0003c0 fc 9f 52 3d 76 52 2b 3c f4 99 60 3b 83 80 77 bd
       0.051422104 0.010456672 0.003427145 -0.060425293
0003d0 94 75 0b 3d e2 1d 6e 3c 1c d9 a2 3d 71 29 57 39
       0.034047678 0.014533492 0.079515666 0.00020519436
0003e0 f4 b2 88 3d be cd 92 3d 73 4a f2 3b c5 1c a3 3d
       0.066747576 0.071681485 0.007394129 0.07964472
0003f0 44 21 c4 bc e5 11 b5 3d 06 e3 b2 bc de ec 51 ba
       -0.023941644 0.08841304 -0.021836769 -0.0008008013

encoder.2.bias f4 [32]
000000 ee 7d ff 3b 31 47 1f 3d 4a 33 32 bd a9 d7 35 bd
       0.0077969944 0.038886253 -0.043505944 -0.044395123
000010 db 5d 8b 3d 8b 9a 59 bd 85 c0 6f bd d5 0e c2 3d
       0.06805011 -0.0531259 -0.05853321 0.09475485
000020 6e 3c 79 3d dc 67 4a 3d 55 2e b5 3d f5 a6 cf bb
       0.060848646 0.049415454 0.08846728 -0.0063370415
000030 bf 9c 94 3d d1 d9 9b 3d 42 f7 bd 3d 7d 7c 8c 3c
       0.072564594 0.076099046 0.09275676 0.017149204
000040 62 75 13 3d e5 80 c9 3c f9 ab 9b bc 87 60 7e 3d
       0.036000617 0.024597595 -0.019002901 0.062103774
000050 bd 9f 08 bd 7c af 8d 3d 2a d8 c1 3a e9 a5 42 bc
       -0.033355463 0.069182366 0.0014789153 -0.011880376
000060 8b 25 b4 bc ee ca 4b 3d e5 98 4e 3d 9d 03 a5 bd
       -0.021990558 0.049754076 0.05043878 -0.0805733
000070 d1 df 65 bc a4 1d a6 3c 0c 4e 1e 3d a0 fe 3a ba
       -0.014030413 0.020277806 0.03864865 -0.0007133279

encoder.5.weight f4 [16, 1568]
000000 53 b0 bb bc 60 1c e4 3c 32 93 3a 3d a3 c6 b7 3c
       -0.022911226 0.027845562 0.045550533 0.022433585
000010 13 03 17 ba ec ae f0 ba 27 5d 2d 3d 2f 6e 2f 3c
       -0.0005760651 -0.0018362678 0.042325165 0.010707422
000020 b3 b5 d2 3c 51 ce 3c 3d a0 cf 3f 3d de 16 33 3d
       0.025721407 0.046095196 0.046828866 0.04372298
000030 f8 bd 63 3c 1c 63 32 3d b9 31 44 3d a9 6d 1e 3c
       0.013900273 0.04355155 0.04789898 0.0096697
000040 e5 50 3c 3c 93 c9 4a 3b 68 09 1d 3d d7 b7 d7 3c
       0.011493896 0.0030942902 0.03833905 0.026332779
000050 72 9a 1d 3a 10 c0 db 3c 40 8a 24 3d ec bd be 3b
       0.0006012089 0.026824981 0.040170908 0.0058209803
000060 1e 82 9d 3a 7d 4f 2e 3d ac ce 0c 3c e2 83 06 3c
       0.0012016927 0.042556275 0.008594196 0.008210154
000070 5a d2 19 3d be 24 ac 3c 3e 6c 23 3d 4e 80 a5 3c
       0.037554123 0.021013614 0.03989815 0.020202782
000080 d7 d3 13 3d 47 1a 0b 3d aa 8f e4 3c 1c 00 c6 3c
       0.036090698 0.033960607 0.027900536 0.024169974
000090 30 e9 e9 3b e8 96 bd 3a 86 06 20 3d 61 db 60 3c
       0.007138394 0.0014464529 0.03906872 0.013724179
0000a0 c7 84 30 3d 97 5a 47 3c 9e dc fb 3b c8 6f 31 3c
       0.043095376 0.012167594 0.0076862117 0.010829873
0000b0 fa d2 cd 3b 4e c5 41 3d 8d 34 1b 3d ef 53 b1 3c
       0.006281254 0.047307305 0.037891913 0.021646468
0000c0 53 bc 9f 3c c9 2f 43 3d 56 cc 06 3d 44 a1 bf 3c
       0.01949898 0.047652993 0.032909714 0.023392327
0000d0 f7 b4 30 3d d7 90 7f 3c c0 c8 b9 3b cc 50 54 3b
       0.04314133 0.015598497 0.005669683 0.0032396792
0000e0 98 1b bc 3c 22 7c 09 3d 8f a9 31 3d 38 ed b4 3c
       0.022962376 0.033565648 0.043374594 0.022085771
0000f0 7d c2 b6 3c e2 69 2c 3d 92 c5 d4 3c 79 90 cb 3c
       0.022309536 0.042093165 0.025973115 0.024849163
000100 23 77 e6 3c 3d 3a cc 3c 5e 20 42 3c b4 ad 02 3d
       0.02813298 0.024930114 0.011848537 0.031903937
000110 3d d3 0b 3d bb 42 17 3c 07 53 a8 3c 93 80 ff 3c
       0.034137 0.009232218 0.020547403 0.031189239
000120 c6 1d 09 3c 13 3c 2d 3d 4a 4e a1 3b 9e 55 c9 3c
       0.008368915 0.04229362 0.004922663 0.024576958
000130 02 dc df 3c 6c 82 2a 3d b2 fd 92 3c 43 3e 88 3c
       0.027326588 0.041628286 0.017943237 0.016631251
000140 df 95 0f 3d 3e 82 e0 3c 77 36 0d 3d 6e 6e b6 3b
       0.035055038 0.027405854 0.03447577 0.0055673635
000150 3b 86 c5 3c 98 99 34 3c 7b 5e 23 3c ca f9 09 3d
       0.024111858 0.011022948 0.009971256 0.033685483
000160 80 fb d2 3b 85 d2 c8 3c 25 68 17 3c 53 d6 15 3d
       0.0064386725 0.024514446 0.009241139 0.03658135
000170 6e d3 e5 3c bb 49 3d 3d 05 eb 39 3d 21 72 f9 3c
       0.02805492 0.046212893 0.045390148 0.030449929
000180 68 99 d4 3c d1 1f c3 3c f7 f1 d3 3b ac 26 3e 3b
       0.025952056 0.023818882 0.0064680534 0.002901475
000190 c6 84 45 3d de e1 d3 3b 55 2a 39 3d ee 3f c7 3c
       0.048222326 0.0064661345 0.045206387 0.024322476
0001a0 3d 41 1b 3c e0 34 00 3d b4 2c 4f 3c 1d 3c 5e 3c
       0.009476003 0.031300426 0.012644935 0.013564137
0001b0 d1 fc 2a 3d 94 3e a5 3a 03 a5 3b 3d 08 c0 21 3d
       0.04174501 0.0012607151 0.045811664 0.039489776
0001c0 7a b0 91 3b 7a 34 27 3d e2 f1 ad 3c 0a b9 14 3d
       0.0044460865 0.04082153 0.021233503 0.03630928
0001d0 db 79 81 3c 60 d1 d8 3c 90 0d ca 3c 7a ea 15 3d
       0.015805176 0.026467025 0.02466467 0.036600567
0001e0 f2 54 62 3b ed c0 27 3d cc 14 26 3d 7e f4 de 3c
       0.0034535495 0.040955473 0.040547177 0.027216192
0001f0 7a 18 b9 3c 34 a6 c8 3c 34 ee 0e 3d 7a 85 c2 3c
       0.02259468 0.024493314 0.034895137 0.023745287
000200 39 2e 4b 3d d5 79 35 3d 99 26 32 3c 74 93 1c 3d
       0.04960463 0.04430564 0.01087346 0.03822656
000210 41 dd 80 3c 5c cc 12 3c 39 c5 ce 3b 41 0b 97 3c
       0.015730502 0.008959856 0.006310132 0.018437983
000220 47 a9 dd 3b 74 45 70 3b be b8 3d 3d f1 70 b2 3b
       0.006764564 0.003666249 0.046318762 0.0054455926
000230 06 70 20 3d a3 84 02 3b 37 b0 18 3d a1 fe 52 3d
       0.039169334 0.0019915483 0.037277427 0.051512364
000240 28 07 5e 3c c5 91 9b 3b 89 9c 38 3d ac 2e 54 3c
       0.013551511 0.0047476017 0.04507116 0.012950581
000250 0a b6 70 3c 6f 73 28 3d f0 05 b3 3c e3 f9 e4 3c
       0.014691839 0.04112571 0.021853417 0.027951187
000260 f4 d2 17 3c 1f a7 08 3d 59 4e 0e 3d 11 60 fc 3c
       0.009266604 0.033362504 0.034742687 0.030807527
000270 62 ec 63 3b 33 16 a7 3c 6b 67 d0 3b 37 51 54 3c
       0.0034778346 0.020396328 0.0063599846 0.012958816
000280 ae cf ac 3c 4f 5c 16 3c c4 ff 38 3c b8 a7 c3 3c
       0.021095123 0.0091772815 0.011291448 0.023883685
000290 ce a0 da 3b 56 b4 24 3d 95 5b e4 3c d3 1e 37 3d
       0.0066720014 0.040211044 0.027875701 0.04470713
0002a0 5c 71 38 3d 4d d3 4d 3b 43 df de 3c 33 51 bf 3c
       0.045029983 0.0031406463 0.027206069 0.023354148
0002b0 f9 90 91 3c 65 05 5a 3b 34 cd 90 3c 32 58 18 3d
       0.017769324 0.0033267376 0.017675973 0.037193485
0002c0 24 d8 f0 3c f6 b7 09 3d 53 0d 8c 3c ee bb 16 3d
       0.029399939 0.033622704 0.017096197 0.036800317
0002d0 10 8c 23 3d ee cf 35 3c 22 bf bb 3c 11 ea 3c 3c
       0.039928496 0.011096938 0.022918288 0.011530415
0002e0 aa 7a 7e 3c a9 49 d0 3c eb a7 95 3c 5d ae 18 3d
       0.015532175 0.025425749 0.018268546 0.03727566
0002f0 f7 75 4b 3d b5 46 e2 3c 9d 7d ba 3b 64 cb 32 3c
       0.049673047 0.027621606 0.005691244 0.01091275
000300 38 30 c0 3c b2 4a e3 3c d2 72 fa 3c 41 e9 da 3c
       0.023460492 0.027745578 0.030572329 0.026722552
000310 b3 da f0 3c c2 9b 48 3d 62 94 03 3c 68 6c 3c 3d
       0.029401159 0.048976667 0.008030983 0.04600182
000320 6f 76 01 3d 80 be f1 3c 77 7e b1 3c 19 6f 7b 3c
       0.031607088 0.029509783 0.021666748 0.015346312
000330 8e 85 bc 3c 1e eb bc 3c eb ba 0d 3d 02 bb fd 3c
       0.023012903 0.023061331 0.034602087 0.030972961
000340 ff 4d 49 3c 04 b7 86 3c 53 e5 d0 3c 51 23 8e 3c
       0.012286662 0.01644469 0.025499975 0.017350825
000350 4b ec 73 3c 47 48 78 3c e5 cd 4a 3c 32 7e 8e 3b
       0.01488788 0.015153951 0.012378191 0.0043485397
000360 dc 56 37 3d 44 9c c0 3c 9f 10 4b 3d f8 e1 4a 3d
       0.04476057 0.023512013 0.049576398 0.049531907
000370 dd d3 84 3b 7d 46 91 3c 80 71 af 3c f7 38 f6 ba
       0.0040535764 0.017733807 0.021416426 -0.0018785287
000380 fa 32 bf 3c 07 8e 1f 3d 51 57 35 3d 9e 69 b3 3c
       0.023339737 0.038953807 0.044272725 0.021900948
000390 d2 3d c4 3c 7a 00 3e 3c d9 2b a3 3c 4d 4b b5 3b
       0.02395526 0.011596793 0.01991837 0.005532658
0003a0 34 74 0a 3d 84 d6 dd 3c 94 58 ac 3c 17 83 9b 3c
       0.033802226 0.027079828 0.021038331 0.018983407
0003b0 53 59 00 3d 45 bc e6 3c d7 2f f6 3b 27 33 44 3d
       0.031335186 0.028165946 0.007513027 0.047900345
0003c0 f0 7d 80 3c 49 62 8d 3c 29 95 1a 3d 64 32 85 3c
       0.015685052 0.01725878 0.037739906 0.01625938
0003d0 af 53 a1 3c 0e fa 85 3c ef 69 b6 3c 93 fa 9e 3c
       0.019693224 0.016354587 0.02226731 0.019406592
0003e0 1d 7b 43 3d 1f f7 15 3d a7 25 83 3b ef d4 91 3c
       0.04772483 0.036612626 0.0040022912 0.01780173
0003f0 ed 08 da bb 58 37 f9 39 0e 1e 54 3c 84 a8 32 3c
       -0.006653896 0.00047534215 0.012946619 0.010904435

encoder.5.bias f4 [16]
000000 65 ce fb 3b 67 9b 1c 3d 1b 0f 6f 3c ec 05 f5 3c
       0.0076845163 0.03823414 0.014591004 0.02991005
000010 1e aa 40 3c a2 19 2d 3d 55 8e b7 3c cc 30 ee 3c
       0.011759309 0.042260773 0.022406736 0.029076003
000020 68 17 b3 3c a4 5e bd 3c 0a 61 2d 3d 9b 4f 3f 3d
       0.021861747 0.023116417 0.04232887 0.046706777
000030 9d f9 86 3c 7b 84 94 3c 1b c0 4d 3c 88 3b dc 3c
       0.016476447 0.018129578 0.012558009 0.026883855

decoder_input.weight f4 [1568, 16]
000000 f1 87 e1 bd b2 e1 a0 be 0e 89 8c be d2 8e f9 3d
       -0.11012257 -0.31422192 -0.27448314 0.12185444
000010 5a cb 98 bd a1 65 e5 bd 32 74 13 be 04 9f 1e be
       -0.07460661 -0.11201025 -0.14399794 -0.15490347
000020 ff ac 2b bc fe a9 74 bd ae e5 46 be 90 c2 bb 3d
       -0.010478257 -0.05973243 -0.19423553 0.09167969
000030 91 32 e3 bd ae 0b 50 be 92 dc b5 3c 74 18 82 be
       -0.11093629 -0.20316955 0.022199903 -0.2540928
000040 bd 7b 8f bd 31 75 23 be cd 03 b4 3d 6b c0 41 3e
       -0.07006023 -0.15962674 0.087897874 0.18921058
000050 42 c0 e1 bd 94 76 0b 3e da 01 41 3e 5f 59 13 be
       -0.110229984 0.13619453 0.18848363 -0.14389561
000060 7c 18 4d 3e 60 44 86 3e 55 67 0e bc 32 1c 9d 3d
       0.20028871 0.2622404 -0.008691628 0.076713935
000070 99 74 30 3e b6 d4 12 3e e9 5f fb bd 6b 90 62 be
       0.17231978 0.14338955 -0.12274153 -0.22125404
000080 5c e8 50 be 19 e8 5d be 75 77 69 3e 4a 7a ba ba
       -0.20401138 -0.2167057 0.22799475 -0.0014227119
000090 5d 5a 31 bd f5 63 7c 3e 45 41 d8 3c c4 e4 27 be
       -0.043299068 0.24647506 0.02639831 -0.16395861
0000a0 72 f7 6b be 13 ab 34 3d 9c f7 03 3e af 3d 84 3e
       -0.23043612 0.04410846 0.12887424 0.2582831
0000b0 ac 47 3b be 70 8a 39 3d c0 e1 4b be 6a b8 23 3e
       -0.1828906 0.04529804 -0.19910336 0.15988317
0000c0 ae 5b 9c 3c ec 7b 13 3e fe 86 11 3e 66 11 e4 bd
       0.019086685 0.14402741 0.14211652 -0.11136131
0000d0 80 bb 80 bd ed 1f cf bd 75 cc 39 3e 9d 1b 1c 3e
       -0.06285763 -0.10113511 0.181444 0.15244909
0000e0 80 6c 42 be 3d 0e 2c 3d b9 2d 64 bd 51 d8 84 be
       -0.18986702 0.042005766 -0.055707667 -0.25946286
0000f0 89 79 c4 bd 09 27 d6 bd e1 2d 0d be b4 36 14 3d
       -0.095934935 -0.10456664 -0.13787033 0.03618498
000100 8d 3b 38 3e c7 99 40 be 71 5e 8d be 34 2f ad 3b
       0.17991467 -0.18808661 -0.27611116 0.005285168
000110 33 60 0e 3e c4 6c 46 3e 1c 76 6d be 14 b5 8c bc
       0.13903885 0.19377428 -0.23189586 -0.017176189
000120 02 fa 16 bd 31 74 92 bc 23 3f 42 3e 32 88 df 3c
       -0.03685952 -0.01787767 0.18969397 0.027286623
000130 50 50 03 3e 01 b9 78 bd c9 3a 1e 3d 16 c5 bf 3d
       0.12823606 -0.06072331 0.03863028 0.09363763
000140 e8 a0 83 3e 6d 8e 8f 3d 25 dc cd bc 1e 4b b0 bd
       0.257087 0.070095874 -0.025129387 -0.086080775
000150 fc 78 4d be 53 6d 0b bd c4 1b 07 3e b0 ca cd bd
       -0.20065683 -0.034039807 0.13194185 -0.10048425
000160 5e 88 24 be 64 c0 5a 3e 37 7f 59 3c 35 36 07 be
       -0.16067645 0.21362454 0.013274959 -0.13204272
000170 88 74 7a 3e 6a 34 36 3e 33 d1 ef 3d 4b 2c 3d bd
       0.24458516 0.17793432 0.117098235 -0.04618482
000180 68 3a fa bd 75 68 51 3e 85 1c 5d be 28 e8 50 be
       -0.12218171 0.20450003 -0.2159291 -0.2040106
000190 25 2b 80 3d 5d ae 19 3b a2 41 a9 bd 02 ab 33 be
       0.06258229 0.0023449876 -0.082644716 -0.17545703
0001a0 84 54 7a bd 07 42 b1 3d 9a 4b 09 be f3 91 2a be
       -0.061115757 0.08655172 -0.13407746 -0.16657238
0001b0 a1 0f 40 be af a1 48 3c 49 a2 5d be fd 53 17 3e
       -0.18755962 0.01224558 -0.21643938 0.14778133
0001c0 cc 3b b9 be fd 44 9f be 83 21 2d 3d ab 20 2e be
       -0.36178434 -0.3110732 0.042268287 -0.1700465
0001d0 af 13 85 be 34 b3 bf be 98 0f 86 3c 6f 0b 95 be
       -0.2599158 -0.3744141 0.016364858 -0.29110286
0001e0 a7 b4 78 be 49 34 94 be 03 49 3a be cd 78 8a be
       -0.24287663 -0.2894614 -0.18191914 -0.2704529
0001f0 af ea 31 be 4f ca 16 be 3f 63 d6 3d 77 4d f2 3d
       -0.17374681 -0.14725612 0.104681484 0.118311815
000200 70 6e 8c be 45 b9 c4 bd 06 26 54 3c 6e cc 5d 3d
       -0.27428007 -0.0960565 0.012948519 0.054150037
000210 d5 33 97 3c 3d d3 43 bd 06 c8 15 be 28 51 3b bd
       0.018457333 -0.047808874 -0.14627084 -0.045731694
000220 fa f6 d4 3d 89 dd 15 bc 6b 63 05 be 21 68 04 bd
       0.103986695 -0.009147056 -0.13026206 -0.032325868
000230 e4 d3 7d be f6 4a b1 3d da 38 f4 bc 96 e9 4e 3d
       -0.24787861 0.08656876 -0.029812265 0.050515734
000240 2f 9f a6 bd a1 3c c4 3d d4 a3 7b be 52 24 9d 3d
       -0.081358306 0.095818765 -0.24574214 0.07672943
000250 07 2d 0d 3d a6 c2 26 be 80 ca c8 bd 8b e9 54 3e
       0.03446677 -0.1628519 -0.09804249 0.20792215
000260 7d 1a b7 3d 75 a9 4c 3e 74 d9 02 be 74 6e 1f 3c
       0.08940599 0.19986518 -0.12778264 0.009730924
000270 7f 9a 0a bd 23 d3 31 3e 9e cb 61 be 90 ad 2b be
       -0.033838745 0.17365699 -0.2205033 -0.16765428
000280 48 8c 5c 3e dc 5b fd 3d 2f e1 f8 3d f6 8d 6e be
       0.21537888 0.123710364 0.12152325 -0.23296341
000290 92 d9 51 be a9 1f 6a bd c3 08 fa 3d 59 ad 23 be
       -0.20493153 -0.0571591 0.122087024 -0.15984096
0002a0 db a5 91 3d 90 9a a0 3d e5 2a 77 3d 02 54 44 3d
       0.071117125 0.078419805 0.06034364 0.04793168
0002b0 bb 14 2a be 85 0c 2d be 1b f0 ac 3c 91 5f 55 be
       -0.1660947 -0.16899307 0.021110585 -0.20837237
0002c0 30 b3 28 3e bc 76 57 be 90 28 a2 bd c9 e2 34 be
       0.16474605 -0.21041387 -0.07917893 -0.17664637
0002d0 15 13 de bd 3b 27 55 3e d2 49 67 be ef 89 6d be
       -0.10843483 0.20815746 -0.22586754 -0.23197149
0002e0 3e d9 f9 3c 30 e4 15 3d 8f 96 3c bd c9 74 9d bd
       0.030499097 0.03659457 -0.04604202 -0.076882906
0002f0 b0 41 2a 3e 2e 20 c7 3d ba 95 1b be e7 51 10 bd
       0.1662662 0.09722935 -0.15193835 -0.03523436
000300 79 09 12 3e b3 46 26 be 1e c2 63 be 7d 1d 60 bd
       0.14261426 -0.16237907 -0.22242019 -0.054715622
000310 bd 97 73 be 0f 01 38 3d 1f 55 24 be ed d6 56 3e
       -0.23788352 0.044922885 -0.16048096 0.20980425
000320 8d f4 31 bd ad 5a 4e be 3f 93 70 3e 52 25 f9 bd
       -0.043446112 -0.20151778 0.2349367 -0.121653214
000330 a0 d1 78 be c8 33 01 3e 69 db 4f 3e a2 30 5e 3e
       -0.24298716 0.12617409 0.20298542 0.2169824
000340 76 0b 1f 3e 46 3a 5f bc d3 b3 a1 bd d3 aa 3a 3e
       0.15531716 -0.013624733 -0.07895627 0.18229227
000350 14 70 49 3e 41 89 13 3d 8f d3 0b be d4 bf 02 3e
       0.1967166 0.036019567 -0.13654922 0.12768489
000360 52 4a 0f bd ac 0f 8e be 46 20 7b be d6 18 8b be
       -0.034982987 -0.27746332 -0.2452403 -0.27167386
000370 43 43 06 bd cb 78 77 be 9e f6 4c be e5 79 15 3e
       -0.03277899 -0.24167173 -0.20015952 0.1459728
000380 74 cb 8a 3d cc 5b 54 be 20 9c 8a be d8 f5 76 be
       0.06777087 -0.20738143 -0.2707224 -0.2411722
000390 32 3a 21 3d 46 f9 d8 bd 4a 9f 92 be eb bd 8d bd
       0.03936214 -0.1059442 -0.28637153 -0.069209896
0003a0 b7 67 82 be 3f 34 f0 bd ef ef 35 be aa 69 54 be
       -0.25469753 -0.11728715 -0.17767309 -0.20743433
0003b0 7c 59 75 be a7 fb 7b be 6c 07 da bd 68 e7 77 be
       -0.23959917 -0.24607717 -0.10645947 -0.24209368
0003c0 83 8e 9b bc a2 cc 87 be 34 59 33 be cd 7f f4 bd
       -0.018988853 -0.2652331 -0.17514497 -0.119384386
0003d0 29 f7 2b be 5a f3 86 bd 08 65 2b 3e cc d1 44 3e
       -0.16793503 -0.065893844 0.16737759 0.19220656
0003e0 00 b3 53 3e 68 37 22 3e 8f f7 38 be a5 1e 35 be
       0.20673752 0.15841448 -0.18063186 -0.17687471
0003f0 e4 6a 49 be a1 6c fc bd 26 45 f6 bd 2e ba 5b be
       -0.19669682 -0.12325407 -0.12024908 -0.2145774

decoder_input.bias f4 [1568]
000000 bc 5f 24 3d 9a ed 72 3e 44 13 71 bd 42 74 53 bd
       0.040130362 0.2372345 -0.058856264 -0.051624544
000010 db 6d 36 3e 16 4d 0a be af 53 23 be bf 09 4e be
       0.17815344 -0.13505968 -0.15949892 -0.20120905
000020 e3 ca d6 bc 9e e6 21 3e fe e8 a7 3d 25 15 cc 3c
       -0.02621979 0.1581063 0.081987366 0.024912426
000030 c4 f3 59 3e 2f 2f 1d 3e ca 0a 8d bd 41 89 88 bd
       0.21284395 0.1535003 -0.068868235 -0.06666804
000040 f8 ef ef 3d db ac 8e 3d ad 24 7f bd d4 99 e3 bd
       0.11715692 0.06966563 -0.062290836 -0.11113325
000050 bc 8f c9 3d 46 cb af be d0 f4 95 b9 bd 0b 94 3e
       0.09841868 -0.34334773 -0.00028601894 0.28915206
000060 11 99 3c be e7 aa 50 be 0e 67 7b 3a 4a 62 87 be
       -0.18417765 -0.20377694 0.00095902465 -0.26442176
000070 61 93 06 bd e0 e2 a6 be 60 fe 1e bc df 1a 11 3e
       -0.032855395 -0.32594967 -0.009704202 0.14170407
000080 3c 84 ba 3d c8 ca 2d 3e 4f 85 0d bb 44 c1 82 be
       0.09107253 0.16971886 -0.002159435 -0.25538075
000090 48 11 35 be 99 8f e3 bd 89 2b 38 be 96 d6 ae bd
       -0.17682374 -0.111113735 -0.17985357 -0.08537023
0000a0 46 9c d0 bc b2 cd f0 3b a0 cb b8 be e1 06 c5 3d
       -0.025465142 0.0073487395 -0.36092854 0.09620453
0000b0 ec d2 69 be cd b4 31 3e 68 98 70 3e 6f 61 81 be
       -0.22834367 0.17354126 0.23495638 -0.25269648
0000c0 e2 9e 70 bd 8a 0c 4a be eb 2b 50 be 2a b1 2c be
       -0.058745272 -0.19731346 -0.20329253 -0.16864458
0000d0 40 ca c2 3d 4b 81 a9 bd fa e5 dc bc b5 b0 99 be
       0.095112324 -0.08276614 -0.02696513 -0.3001763
0000e0 d0 8f 0b be d9 47 60 3e bb 04 68 be 4e 03 31 3e
       -0.13629079 0.21902408 -0.22658055 0.17286417
0000f0 84 44 06 3e f8 5a 73 3e cb 45 3c 3e 74 81 1d 3e
       0.13112074 0.2376517 0.18385999 0.15381414
000100 d1 08 29 3e 20 21 08 bd f1 63 78 be d8 14 a7 3d
       0.1650727 -0.033234715 -0.24256875 0.081582725
000110 4f 38 53 be 4f 01 dc bb f8 a8 1e be 1b 48 22 be
       -0.20626949 -0.006714023 -0.15494144 -0.15847819
000120 e4 0c 54 be 29 cc e8 bd db 28 8e be dd fd 8e 3b
       -0.20708042 -0.113670655 -0.27765545 0.004363759
000130 56 a3 2a be 71 4d 85 3c 0b 32 0c 3e 9c b3 41 bd
       -0.1666387 0.016272279 0.13690965 -0.04729043
000140 ea 2b 62 3e 02 d7 0b be dc 3b 27 3d cf 0c 36 be
       0.22087064 -0.13656238 0.04082857 -0.17778324
000150 cf 49 39 3d ed 2d 71 be 3f 12 ce 3d 29 1a f7 3d
       0.045236405 -0.23552676 0.10062074 0.120655365
000160 25 25 1f be d4 6e f8 bd 04 87 b8 be db fd c2 be
       -0.15541513 -0.12130514 -0.3604051 -0.380843
000170 6e 3d 6a bd e7 53 ad 3d e3 ca 75 3e 42 8f 95 3d
       -0.05718749 0.08463269 0.24003176 0.07302715
000180 af 33 b8 bd b9 0b 61 be 0b 71 ac 3e 9b 58 a0 3d
       -0.08994233 -0.21977128 0.33679995 0.078294
000190 b0 12 44 3e 1f 87 83 be b5 f1 25 3e 51 d7 b5 bd
       0.19147754 -0.25689027 0.16205485 -0.08878959
0001a0 41 10 a4 3e 15 4b 08 be 6f cb 10 3e 10 a2 84 3d
       0.3204365 -0.13309892 0.14140104 0.064762235
0001b0 b7 14 cf bd 07 bf 34 3d 83 cb 08 bd c8 b7 9d 3e
       -0.10111373 0.04412749 -0.03339721 0.30804276
0001c0 93 51 d4 3d 6a 20 e7 3d 71 43 92 bd 88 7e fe bd
       0.103671215 0.11285479 -0.0714177 -0.12426478
0001d0 ce 42 5f 3e 10 b2 22 be 09 1b 44 3e 6e 4a 59 be
       0.21802828 -0.15888238 0.19150938 -0.21219799
0001e0 ab 44 db bd 17 80 7c be 26 54 32 be 16 e3 0a be
       -0.10706457 -0.24658237 -0.17414913 -0.13563189
0001f0 60 8c f9 3d e3 d3 be 3d 54 30 13 be 29 ce 13 3d
       0.121849775 0.09317758 -0.14373904 0.03608528
000200 7c da 4a 3e f6 3c 7b 3e 1d 1f 04 be 5b 11 89 3e
       0.19809908 0.24534974 -0.12902494 0.26771054
000210 14 30 58 3d 9c f0 aa 3b bc 01 e2 bd 47 0c 91 bd
       0.052780226 0.005216671 -0.11035487 -0.0708242
000220 e4 48 f2 bd 17 fd 81 bb cf f6 2b 3e 67 57 1f bd
       -0.11830309 -0.0039669382 0.16793369 -0.038901713
000230 07 c0 cf 3e ff 62 87 3e fd 6e 78 be ad 5a 84 3e
       0.40576193 0.26442716 -0.24261089 0.2585043
000240 f1 c8 b2 3d 77 6b 43 3c 35 ba 1e 3d 28 e1 1b be
       0.08729733 0.011927477 0.0387518 -0.15222609
000250 df a6 df 3d 01 81 b8 3d 00 68 70 3e 5a b8 9f bd
       0.109205 0.090089805 0.23477173 -0.07798834
000260 43 b4 3c bd 95 98 17 bd 85 cd 4c 3d 5e 78 87 be
       -0.04607035 -0.037010748 0.050000686 -0.2645902
000270 2b 1d e3 3c 94 e9 6b bd 7d b4 5a be ee 66 83 3d
       0.02772387 -0.057595804 -0.21357913 0.06416117
000280 e8 76 ca 3c 26 4a 69 3d dd 2e 35 bd 12 19 b6 bd
       0.024714902 0.05695548 -0.044234145 -0.088915005
000290 f4 6a 57 3d 3e b8 d6 bd 62 c0 60 3e 42 9b 84 be
       0.052592233 -0.1048436 0.21948388 -0.25899702
0002a0 fb b5 8f 3e 43 7e 45 bd 73 36 70 3b fb 33 bd 3d
       0.28068528 -0.048216116 0.0036653548 0.0923843
0002b0 34 f5 bf bd ee 8f d0 3d 0e be 15 3e c4 b0 ff 3c
       -0.09372941 0.101837024 0.14623281 0.031212218
0002c0 53 af ad bd ab 1e 05 bd 66 40 08 be 81 c2 9c 3d
       -0.08480706 -0.03249995 -0.13305816 0.07654286
0002d0 bb b0 28 3e 35 70 e5 3d f2 0a 03 be 2c 0e 0d 3e
       0.16473667 0.112030424 -0.12797144 0.13774937
0002e0 5c 1d 38 be ac ad b9 bc a1 06 ad 3d 3f d3 1e 3e
       -0.1797995 -0.022665821 0.0844853 0.15510271
0002f0 7a 86 16 3e 75 c2 3f be c9 2c 17 be fe 48 7f be
       0.14699736 -0.18726523 -0.14763178 -0.24930188
000300 2b e3 bf 3d e0 10 67 3d 70 0c 82 bc 1c c2 b2 be
       0.09369501 0.056412578 -0.015875071 -0.3491372
000310 b2 7a db bc f7 fa 14 be 9f db 9b be fc e4 0a 3d
       -0.026791904 -0.1454886 -0.30440995 0.033909783
000320 2d 30 ee 3d d6 f4 6d 3d e8 9b 89 bd b6 7b 86 be
       0.116302826 0.058094822 -0.0671919 -0.2626626
000330 cb 1b 06 bc b9 b1 54 3e 53 90 b9 3c 8c 3a e6 bd
       -0.008185337 0.20770921 0.022651827 -0.11241636
000340 13 54 03 be 91 51 aa bd d6 fe 2e bd be b9 4b be
       -0.1282504 -0.08316339 -0.0427235 -0.19895074
000350 f1 60 41 be a8 d6 3f 3e 68 50 41 be 35 78 46 be
       -0.18884636 0.18734229 -0.18878329 -0.19381793
000360 81 60 7a 3e fc 0d 72 be f6 7b 69 bc 4f 61 16 3d
       0.24450876 -0.23638147 -0.014250746 0.036713894
000370 ed 86 e5 bd 92 aa 7e 3e 7f 80 82 3d d8 a4 52 bd
       -0.11207376 0.24869755 0.06372165 -0.05142674
000380 5f 19 b7 be 24 69 c5 3b 27 f6 6d be fa 4d 8a 3d
       -0.35761544 0.0060244966 -0.23238431 0.06753154
000390 25 81 03 bd a9 35 3b 3e df 47 3e be f1 e6 39 3c
       -0.032105584 0.18282188 -0.18582104 0.011346565
0003a0 00 03 bb bd ef 6c b3 bd 1c c6 07 be c1 bc 1d be
       -0.091314316 -0.08761012 -0.13259166 -0.15404035
0003b0 8a 58 04 be de fc 5b be 7f ee d8 be 9c 32 6f bd
       -0.129244 -0.2148318 -0.42369458 -0.058397874
0003c0 0b f6 41 be 69 55 1e be b9 2a 47 be 17 f7 38 bd
       -0.18941514 -0.15462269 -0.19449891 -0.04515752
0003d0 15 d1 9b 3d 08 23 83 bd f8 54 cc bd 36 37 06 be
       0.076082386 -0.06403166 -0.09977144 -0.13106999
0003e0 ac f0 eb 3b 5a 38 70 3e 82 46 f4 bd b4 01 f4 3c
       0.007200321 0.23458996 -0.11927511 0.029785968
0003f0 bc 95 18 be 96 06 65 3e 18 d1 5c 3e c9 21 a0 bb
       -0.14900869 0.22365794 0.21564138 -0.00488684

decoder.0.weight f4 [32, 16, 3, 3]
000000 b6 2c 93 bd f1 d4 ba bd 73 f6 d4 bd 23 7e 0e bd
       -0.07186262 -0.091226466 -0.10398569 -0.034788262
000010 dc e9 dc bd 6e a3 fc 3c e9 75 10 3d 4d 9b 83 bd
       -0.10786793 0.030839648 0.035268698 -0.06426106
000020 27 90 b5 bd 5e 76 d7 3d b4 7f 0a 3e 3b 65 15 3e
       -0.088653855 0.105206236 0.13525277 0.14589398
000030 3e 00 fa 3d 1d 9e 54 3d 2c cc bd 3d 16 a6 65 bd
       0.122070774 0.0519086 0.09267458 -0.056066595
000040 82 9c 5a be 83 6c b3 bd ff f5 23 3b 65 e7 89 3d
       -0.21348765 -0.08760931 0.0025018451 0.06733588
000050 2a c6 ad 3d 0f bd cb bc f7 50 f4 3d 7f 8a 70 bd
       0.084850624 -0.024870424 0.11929505 -0.05872583
000060 3b 6d 14 3d b6 92 2a bd 09 6c 11 bd 22 87 2d bc
       0.036236983 -0.04164382 -0.03550342 -0.0105913
000070 6f 2b 0b be 44 ac 84 3d 6a d2 1d bc d0 f3 58 bd
       -0.13590787 0.064781696 -0.009632686 -0.052966893
000080 d3 40 89 bd 22 a5 c8 3d 82 b2 b1 bc 63 c2 33 3d
       -0.06701817 0.097971216 -0.021691564 0.043886553
000090 23 57 4c 3d 89 4b be bc 70 42 f5 bc cd 10 df bd
       0.049887788 -0.023229377 -0.029938906 -0.10891876
0000a0 d6 7a 06 bd ad 44 91 bd a5 10 ac 3c 7d d5 67 bd
       -0.03283199 -0.07093177 0.02100403 -0.056600083
0000b0 b5 82 94 bd 41 06 13 3d 48 4b 2d bb b2 bf 64 bc
       -0.07251493 0.035894636 -0.0026442576 -0.013961719
0000c0 7c 22 b3 bd d7 f8 ce bd 66 b6 33 bc 7c 0b 8a bd
       -0.08746812 -0.10106056 -0.01096878 -0.06740472
0000d0 f7 6c 67 3b 89 6a e5 bd 21 ad 6d 3d c1 9b 2b 3e
       0.003531275 -0.112019606 0.058026437 0.16758634
0000e0 b6 a2 51 3d 9b 00 13 3d 74 7d 9c bd 0c 05 7f 3c
       0.051180564 0.03588925 -0.07641116 0.015565168
0000f0 23 9a 67 bd b6 25 3b be 6c e5 4d bd ba 45 e5 3c
       -0.05654348 -0.18276104 -0.050267622 0.02798735
000100 00 54 8a bd 1e a8 a6 3c f3 88 bd 3d 75 3c dd bc
       -0.06754303 0.020343836 0.092546366 -0.027006367
000110 cf 39 79 bd 01 15 39 3d de d4 24 3d f8 a4 e9 bb
       -0.060846146 0.045186047 0.04024207 -0.0071302615
000120 85 33 61 3d 1d 10 f2 bd f0 37 83 3c e5 9f 76 bc
       0.054980773 -0.118194796 0.016017884 -0.01505277
000130 f2 72 58 3b d7 1a 22 be 9c 98 33 3b d1 e7 00 bd
       0.0033027497 -0.15830551 0.0027404195 -0.031471077
000140 a7 51 ea bd a5 c6 b0 bd c4 d6 8c 3d 60 0f e0 bd
       -0.11441355 -0.086316384 0.06876901 -0.109404325
000150 6e 7d ff bd 21 26 8a bd b2 ad d2 bd 3a 1a f3 3c
       -0.12475096 -0.06745554 -0.10287036 0.029675592
000160 08 26 7f 3d ba 75 73 3c ff a8 c4 3d 6e ee 82 bc
       0.06229213 0.014859611 0.09602546 -0.015982833
000170 58 ee f8 3b c8 ec e2 3d d6 cc 0a ba 58 e6 47 bd
       0.007596772 0.11080319 -0.0005294805 -0.048803657
000180 09 e0 06 3d 1e 10 a8 3c b8 17 91 3d b2 c0 45 3d
       0.0329285 0.020515498 0.07084602 0.04827947
000190 d8 d4 e5 bc 8e ee 1d 3b f2 fa 13 bc 98 c5 6a 3d
       -0.028055593 0.0024098489 -0.009031998 0.057317346
0001a0 2d 4f 83 3d 5a 2b e6 bd 0b d7 c3 bb 15 43 12 be
       0.06411586 -0.112387374 -0.005976563 -0.14283402
0001b0 58 e0 be bc 0f d9 75 3c 81 0a 22 bd 2b 55 88 3b
       -0.023300335 0.015005364 -0.0395608 0.0041605434
0001c0 82 71 2b 3c 9a 39 81 bd 83 50 23 3b f2 56 9f 3c
       0.010464074 -0.06309815 0.0024919815 0.019450638
0001d0 24 d9 17 3d 19 48 0e 3e 7d c4 24 3c 50 1d 6f 3c
       0.037072316 0.1389469 0.010056612 0.014594391
0001e0 b4 ed e2 3d 96 aa 84 be 8a ea c2 bd 99 b2 8f 3d
       0.110804945 -0.25911397 -0.09517391 0.07016487
0001f0 55 fc 82 bd 08 c0 38 3c 89 8e a1 3d a5 30 af 3d
       -0.06395785 0.011276253 0.078885145 0.085542
000200 27 81 87 3d bc f1 ab 3d 11 24 63 bd d9 79 2f 3e
       0.06616431 0.083957165 -0.055454317 0.17136325
000210 81 42 c0 3d 15 a7 36 3d df 45 9b 3d 35 56 f7 3d
       0.093876846 0.044592936 0.07581686 0.120769896
000220 1a a9 af bc 95 d8 4a 3d fb 97 14 bd 66 f1 ed bd
       -0.021442939 0.049522955 -0.036277752 -0.11618309
000230 54 4f 1b bc 2a 89 ab 3d 0a 5c 11 bd f3 d6 ee 3c
       -0.0094793625 0.08375771 -0.035488166 0.02915523
000240 5c b7 1b bd e3 35 a3 bc 34 03 75 3d 54 da bf bd
       -0.038016662 -0.019923156 0.059817508 -0.09367815
000250 25 4b 84 bc 6e 3a 66 bc 90 0f 37 bd ae 75 e0 bd
       -0.016149113 -0.014052017 -0.044692576 -0.109599456
000260 5b 94 25 bc b3 09 af 3a db d0 f5 3d 07 18 94 bd
       -0.0101061715 0.0013354331 0.12002727 -0.07231145
000270 85 31 b2 3d 20 aa ca bd 49 a0 c1 3c 87 1f 6f 3d
       0.08700851 -0.0989573 0.023636 0.058379676
000280 ab e6 17 bd 9c b6 55 bd 70 af a4 bb ef c6 25 3d
       -0.037085216 -0.052176103 -0.0050257966 0.04047292
000290 f9 ac bc bb e5 ba dc bc 72 b4 a1 3d 4d a3 29 3c
       -0.0057579246 -0.026944587 0.07895745 0.010353875
0002a0 69 ed 56 3c 87 d4 2b bd 5d e3 12 bd ed ef 98 bc
       0.013118126 -0.04195073 -0.03586136 -0.018669093
0002b0 79 1b f6 3c f6 f5 2f 3d 59 48 9e bc c2 a4 a1 3c
       0.030042397 0.042959176 -0.019321607 0.019731883
0002c0 82 94 b5 3d b6 3b 74 3d 30 a2 e5 3b 86 0f b3 3c
       0.08866216 0.059627257 0.0070078596 0.021857988
0002d0 a2 8c c2 3c 84 21 df bd 0e d9 c7 3d 41 34 d8 3d
       0.0237487 -0.108950645 0.09758197 0.10556842
0002e0 cf 04 a9 bd 39 76 b3 bd a0 c3 8a 3d 0a 81 d6 bd
       -0.0825287 -0.087627836 0.06775594 -0.10473831
0002f0 4c 8a 58 bd bb f2 34 bd f7 0a b9 3c 62 fe 4a bd
       -0.052866265 -0.0441768 0.022588236 -0.049559005
000300 d4 94 84 bd ef 04 36 3d b1 00 81 3c f6 46 09 3d
       -0.06473699 0.0444383 0.0157474 0.03351494
000310 29 ff cf bc 62 08 f7 3d 6d cc d2 bd 05 16 91 3d
       -0.025390225 0.12062146 -0.102928974 0.07084278
000320 3a 64 cc 3c e5 ce f3 bd 10 8e 69 3d 08 0a a9 bd
       0.024950135 -0.119046964 0.057020247 -0.082538664
000330 e6 b6 70 3d 9f 68 5b 3b fa 97 40 3c 77 a7 95 bc
       0.058768176 0.0033479107 0.011754984 -0.01826833
000340 78 c1 f7 bc 1d fb 08 bd bf f5 c2 bd 77 0e 6b bd
       -0.03024362 -0.033442605 -0.095195286 -0.05738684
000350 e6 24 3d be 33 64 8b bd 88 a0 03 be 98 9e cc bd
       -0.18471107 -0.06806221 -0.12854207 -0.09991187
000360 97 46 ba 3c 9d 0a 11 3d c3 6a 2e 3d cc 2a 15 bd
       0.022738738 0.035410512 0.042582285 -0.036417767
000370 80 1b 24 be e1 83 3c 3c 9b 75 00 3c 0a 8e 18 bc
       -0.16026115 0.011506052 0.007840539 -0.0093112085
000380 34 c9 a8 bd 40 73 d8 bd 14 f8 bd 3d 44 85 6f bd
       -0.082415015 -0.10568857 0.09275833 -0.0584767
000390 7d b2 45 bd 6a 78 96 bd 85 29 63 bc b8 b0 e7 bd
       -0.048265923 -0.07347186 -0.0138648795 -0.11313003
0003a0 c4 d4 67 3b c2 f6 d3 3c 33 55 21 3d f6 db 75 3c
       0.003537462 0.0258745 0.039387893 0.015006056
0003b0 10 83 0c be df e5 a3 3d 59 8f 92 bd ed 41 92 38
       -0.13721871 0.08002829 -0.07156248 6.974102e-05
0003c0 b7 4f 12 3d 5c 3b c2 bb be 59 2f bd bc 76 59 bd
       0.035720553 -0.0059274863 -0.042810194 -0.05309175
0003d0 d2 7c 98 3c bb df 62 3d d8 cc d3 bd 83 21 26 bc
       0.018614206 0.055389147 -0.10341805 -0.010139826
0003e0 1f 6e 0f 3d d2 70 97 bd a4 6d ea bc 92 3f 2b 3d
       0.03501713 -0.07394566 -0.028616734 0.041808672
0003f0 92 8b 91 3c 14 1d de bc 97 92 a0 bb 01 44 9d 3c
       0.017766748 -0.027113475 -0.0049002874 0.019197466

decoder.0.bias f4 [16]
000000 b3 6b e8 3c 62 5e f2 3c 19 63 cf bb ff 9d 8d 3c
       0.028371667 0.02958602 -0.006328952 0.017287252
000010 38 88 4a 3d d5 eb 94 3c a6 04 f7 3d 8d 88 21 3d
       0.049446315 0.01817886 0.120614335 0.039436866
000020 05 d5 c3 3d b1 09 c4 3c b9 af 51 bd 16 ae 99 3c
       0.095621146 0.023930402 -0.051192973 0.018759768
000030 a4 24 e5 3d 37 8f e3 3d bd e9 79 bd 58 81 3e bc
       0.11188629 0.111113004 -0.061013926 -0.011627518

decoder.2.weight f4 [16, 1, 3, 3]
000000 13 06 3c 3e 36 f8 4b bd 1f 2f 5e bd ad c4 a2 be
       0.18361692 -0.04979726 -0.054244157 -0.31790677
000010 1b 7e a5 be bf 94 35 bc 9e 6d 38 be e7 48 6d be
       -0.32322773 -0.011082827 -0.18010566 -0.23172341
000020 4f 6e b4 3d cb 94 4b be af 5f 19 3e c7 df c5 3c
       0.08810102 -0.19880979 0.14977907 0.024154557
000030 66 7f 2f 3a b4 bd 96 3e a0 0d 16 be e8 80 42 3e
       0.0006694704 0.29441607 -0.14653635 0.18994486
000040 25 96 a8 be 81 e9 7c be da 0b ad 3d ea 9a 1b be
       -0.3292705 -0.2469845 0.08449526 -0.15195814
000050 a1 45 13 be 4d ae 8a be 5d 30 8a 3d 7a 48 dd 3d
       -0.1438203 -0.27086106 0.06747506 0.108048394
000060 23 ac 70 3d 84 c1 2a bc 2e f1 d6 bd fd 5d 3c 3e
       0.058757912 -0.010422114 -0.1049522 0.18395229
000070 3e dc 78 bd 26 d2 a2 3d 09 1e 6f be 75 ce 9f be
       -0.060756914 0.07950239 -0.23351301 -0.31212202
000080 76 7d e1 3d a0 af 3c be 84 1d 1c 3e 19 68 5f 3e
       0.11010258 -0.1842637 0.15245634 0.21817054
000090 89 34 8c 3c 78 e4 33 bb a1 80 21 3e d2 05 29 3e
       0.017114894 -0.002744941 0.15771724 0.16506127
0000a0 ef 4d 76 3e 91 15 4c 3e 67 37 3d 3e 6b fd 87 3e
       0.24053167 0.19930102 0.18478166 0.2656053
0000b0 ad 33 69 3d a7 e0 83 be 4a 71 b4 be ca 6b c1 bb
       0.056934047 -0.25757334 -0.35242683 -0.005902742
0000c0 72 92 63 3e 37 6b fc bd 0a fe 5e 3e 37 8e 05 be
       0.22223833 -0.12325137 0.21776596 -0.13042532
0000d0 8f bc 4d be e9 18 21 3e 24 08 81 bd 97 db 23 3e
       -0.2009146 0.15732159 -0.06300381 0.16001736
0000e0 1e 18 e2 3d 53 4a 6b 3e de c5 5b be d5 be 3b bd
       0.11039756 0.22977571 -0.21462199 -0.04583629
0000f0 33 b5 ae be da cd a4 be 4d 6f 9e bd 16 3c a3 3d
       -0.3412262 -0.32188302 -0.07736073 0.07970445
000100 2a 4e 84 3d cd b1 53 be 4d 60 4a 3e 16 9a 99 be
       0.06460221 -0.20673294 0.19763298 -0.3000037
000110 0b ea a4 be 58 f4 21 3e 69 0e 17 3c 34 c7 92 be
       -0.3220981 0.15815866 0.009219744 -0.28667605
000120 3d 60 e7 bd 81 2b 42 be 7b d9 82 be 09 9a 1b be
       -0.11297653 -0.18961908 -0.2555655 -0.15195478
000130 a2 ca ae be b4 23 98 be 55 fe 7f be f1 ea 93 be
       -0.34138972 -0.2971474 -0.24999364 -0.28890184
000140 6d 73 2b be 95 9b 6b be 01 54 b0 be 30 38 17 3e
       -0.1674325 -0.23008569 -0.3443909 0.14767528
000150 5f 0d 96 be 67 e5 95 bd 1b c7 91 3d 60 64 9e bd
       -0.29307076 -0.07319146 0.071180545 -0.07733989
000160 c4 37 6a 3d 0a e0 85 3d 01 09 f4 3d fe e2 68 be
       0.05718209 0.06536873 0.1191578 -0.2274284
000170 7b ac 4c 3e 1b 18 ea 3c 2a b4 15 be a5 34 88 be
       0.19987671 0.028575948 -0.14619508 -0.26602665
000180 26 35 c8 3d 38 d6 27 3e 20 26 71 be 03 f8 97 3e
       0.09775762 0.16390312 -0.235497 0.29681405
000190 7a d8 ae 3a 87 b4 89 3e 9c fe 2a be 82 3f ae be
       0.0013339662 0.26895544 -0.16698688 -0.34032828
0001a0 5e dc d3 3c 68 50 4f be 1c 06 cc bd 4d bd a0 be
       0.025861915 -0.20245516 -0.09962103 -0.31394425
0001b0 21 02 c1 3d 7c c1 97 3d f2 e5 e6 bd 6f a4 a4 be
       0.09424234 0.07409951 -0.11274327 -0.32156703
0001c0 ec 77 a5 3d a5 da a7 be ae 91 32 be 5d 5a 3f bd
       0.08079514 -0.32784 -0.17438385 -0.046717037
0001d0 34 68 e9 3d 06 de 6d 3e 45 f0 ca bd ba 85 06 3d
       0.11396828 0.23229226 -0.09909109 0.032842375
0001e0 86 5a 5b 3e 15 91 48 be 30 b3 73 bd 6c d6 a3 3b
       0.2142125 -0.19586594 -0.05949706 0.0049999263
0001f0 38 cb 26 be fb a8 87 be 6c 2b 1c bd 63 ff 54 3b
       -0.1628846 -0.2649611 -0.038127348 0.0032500855
000200 62 35 24 3e 54 9d b7 bd c7 41 e2 3c 51 6a a1 be
       0.16035989 -0.08965555 0.027619256 -0.31526425
000210 4a c8 f9 3d 2d 7e 42 3e a6 15 2c ba 08 92 2d be
       0.12196405 0.18993445 -0.0006564505 -0.16950238
000220 ba 84 0e 3e 4c f4 a7 be 40 ca 80 bd 1f dc 94 3e
       0.13917819 -0.3280357 -0.06288576 0.2907419
000230 3b 70 a3 bd 7e 38 b3 3c 30 93 c2 3d 27 d1 c9 3d
       -0.07980391 0.021877524 0.0950073 0.09854346
