output/train_2vs046_100epoch_20260212_010246/model/train_angle_autoencoder16_20260212_010246_trained_qcnn.pth (torch, 2738 bytes, 2 tensors)

weight f4 [123]
00000000: 95d6 9a3f a0ff 5ebb 00a6 973e 1558 09bf
00000010: b834 66bd c7f3 f7be 22b4 d8be 748a f33d
00000020: 3aed 38be 8c30 ac3e a7ba 923e f16c 8ebe
00000030: 9efe 473e bed8 7b3f df36 40be 8bb6 94bf
00000040: 9d19 493c 1cd4 ed3d ad06 c63e 632a b73e
00000050: a569 ffbe 9645 1a3f a07a 473e 811c 293e
00000060: ffe5 e7bc 509d ee3e 7f25 abbc f04a 673f
00000070: ca3c ae3e 9560 4f3e 09f0 3bbe 51a6 733e
00000080: 3b66 8cbe 1dd9 ab3e 4492 38bf 6dcd 82bf
00000090: 8a4a 693e 7e5b 94be 6a45 1a3f 2050 4bbf
000000a0: 2d01 f43e 43fa 8a3e fff8 733e 6e0d 8abe
000000b0: bd99 bc3e 67ab aebe ecd2 b33d 3b45 f4be
000000c0: e46a cebc 76b0 873f dec0 2d3f c64f d53e
000000d0: 9ca2 cebe 7a6f 91bd 5e67 9fbe b52c c3be
000000e0: 3f9f 603e de3f b1be 3691 b13f a56f 98bd
000000f0: 2687 173f 1eb6 18be 952a c4be 09d1 aebd
00000100: 32e0 183d a630 99be 65d0 95be 3e0f 6c3f
00000110: 0bd5 953e 1004 783e 9158 3c3e 5685 a63e
00000120: 7ae3 223f e44f 3b3e a0b1 79be 849c 423f
00000130: 21cc c13d a791 2abe 7822 1d3f 1a71 9bbe
00000140: de58 e1be ae02 043f 8d74 59be c5a2 873e
00000150: 7eee cf3e c415 873f e9b5 3a3d cf17 953d
00000160: 7721 02bf c878 513f 5bc7 133e e2ef 2f3f
00000170: 4036 233f 11d6 d6be af2a cdbe 8a0b ac3e
00000180: b62b f1bc 7d6e b5be 7f43 f13e 498f 50bf
00000190: d557 e03d 2aff 3c3f f0ea d5bd bb12 8b3d
000001a0: cc30 fb3d bd32 723f 1188 f2be 6ff8 09bd
000001b0: b0f0 b4bc d45a 1bbe 6e27 1d3e 03fc 51bd
000001c0: 2c4f 6f3f b9df 22bd 3ded 013f e973 113e
000001d0: d8b0 ac3c 05dc 33bf 86a6 21bc da45 35be
000001e0: 69af be3e 4786 363b b423 f5bd
1.2096735 -0.0034026876 0.29618835 -0.5365003 -0.05620262 -0.48428175 -0.4232493 0.11891642
-0.18059245 0.33630788 0.2865803 -0.2781749 0.19530722 0.983776 -0.18770932 -1.1618208
0.012274173 0.11612722 0.38676968 0.35774526 -0.49885288 0.6026243 0.19480371 0.1651478
-0.028307913 0.46604395 -0.020891903 0.9034872 0.34030753 0.20251687 -0.18353285 0.23793913
-0.27421746 0.33564082 -0.72098184 -1.0218941 0.2278234 -0.28976053 0.6026217 -0.79419136
0.47657147 0.2714406 0.23825453 -0.2696337 0.36836043 -0.34115145 0.087804645 -0.4770907
-0.025197454 1.0600727 0.67872417 0.41662425 -0.40358436 -0.071013406 -0.3113355 -0.38120046
0.21935748 -0.3461904 1.387244 -0.074431695 0.59190595 -0.14913222 -0.38313738 -0.08535964
0.037323184 -0.29919928 -0.29260555 0.9221076 0.292641 0.242203 0.1839316 0.32523602
0.6362835 0.18292195 -0.24384165 0.76020074 0.094627626 -0.16657124 0.6138072 -0.30359727
-0.44013113 0.5156659 -0.21235867 0.2649137 0.40611643 1.0553517 0.04558364 0.07279932
-0.50832313 0.8182492 0.14431517 0.6872541 0.63754654 -0.41960195 -0.40071627 0.33602554
-0.029439788 -0.35435858 0.47121808 -0.81468636 0.10954253 0.7382685 -0.104452014 0.06790682
0.12265167 0.9460867 -0.47369435 -0.03368419 -0.022087425 -0.15171367 0.15347072 -0.051265728
0.9348018 -0.03976414 0.5075262 0.14204372 0.02108042 -0.702576 -0.009866362 -0.17702428
0.37243202 0.0027851032 -0.119697005

_weights f4 [123]
00000000: 95d6 9a3f a0ff 5ebb 00a6 973e 1558 09bf
00000010: b834 66bd c7f3 f7be 22b4 d8be 748a f33d
00000020: 3aed 38be 8c30 ac3e a7ba 923e f16c 8ebe
00000030: 9efe 473e bed8 7b3f df36 40be 8bb6 94bf
00000040: 9d19 493c 1cd4 ed3d ad06 c63e 632a b73e
00000050: a569 ffbe 9645 1a3f a07a 473e 811c 293e
00000060: ffe5 e7bc 509d ee3e 7f25 abbc f04a 673f
00000070: ca3c ae3e 9560 4f3e 09f0 3bbe 51a6 733e
00000080: 3b66 8cbe 1dd9 ab3e 4492 38bf 6dcd 82bf
00000090: 8a4a 693e 7e5b 94be 6a45 1a3f 2050 4bbf
000000a0: 2d01 f43e 43fa 8a3e fff8 733e 6e0d 8abe
000000b0: bd99 bc3e 67ab aebe ecd2 b33d 3b45 f4be
000000c0: e46a cebc 76b0 873f dec0 2d3f c64f d53e
000000d0: 9ca2 cebe 7a6f 91bd 5e67 9fbe b52c c3be
000000e0: 3f9f 603e de3f b1be 3691 b13f a56f 98bd
000000f0: 2687 173f 1eb6 18be 952a c4be 09d1 aebd
00000100: 32e0 183d a630 99be 65d0 95be 3e0f 6c3f
00000110: 0bd5 953e 1004 783e 9158 3c3e 5685 a63e
00000120: 7ae3 223f e44f 3b3e a0b1 79be 849c 423f
00000130: 21cc c13d a791 2abe 7822 1d3f 1a71 9bbe
00000140: de58 e1be ae02 043f 8d74 59be c5a2 873e
00000150: 7eee cf3e c415 873f e9b5 3a3d cf17 953d
00000160: 7721 02bf c878 513f 5bc7 133e e2ef 2f3f
00000170: 4036 233f 11d6 d6be af2a cdbe 8a0b ac3e
00000180: b62b f1bc 7d6e b5be 7f43 f13e 498f 50bf
00000190: d557 e03d 2aff 3c3f f0ea d5bd bb12 8b3d
000001a0: cc30 fb3d bd32 723f 1188 f2be 6ff8 09bd
000001b0: b0f0 b4bc d45a 1bbe 6e27 1d3e 03fc 51bd
000001c0: 2c4f 6f3f b9df 22bd 3ded 013f e973 113e
000001d0: d8b0 ac3c 05dc 33bf 86a6 21bc da45 35be
000001e0: 69af be3e 4786 363b b423 f5bd
1.2096735 -0.0034026876 0.29618835 -0.5365003 -0.05620262 -0.48428175 -0.4232493 0.11891642
-0.18059245 0.33630788 0.2865803 -0.2781749 0.19530722 0.983776 -0.18770932 -1.1618208
0.012274173 0.11612722 0.38676968 0.35774526 -0.49885288 0.6026243 0.19480371 0.1651478
-0.028307913 0.46604395 -0.020891903 0.9034872 0.34030753 0.20251687 -0.18353285 0.23793913
-0.27421746 0.33564082 -0.72098184 -1.0218941 0.2278234 -0.28976053 0.6026217 -0.79419136
0.47657147 0.2714406 0.23825453 -0.2696337 0.36836043 -0.34115145 0.087804645 -0.4770907
-0.025197454 1.0600727 0.67872417 0.41662425 -0.40358436 -0.071013406 -0.3113355 -0.38120046
0.21935748 -0.3461904 1.387244 -0.074431695 0.59190595 -0.14913222 -0.38313738 -0.08535964
0.037323184 -0.29919928 -0.29260555 0.9221076 0.292641 0.242203 0.1839316 0.32523602
0.6362835 0.18292195 -0.24384165 0.76020074 0.094627626 -0.16657124 0.6138072 -0.30359727
-0.44013113 0.5156659 -0.21235867 0.2649137 0.40611643 1.0553517 0.04558364 0.07279932
-0.50832313 0.8182492 0.14431517 0.6872541 0.63754654 -0.41960195 -0.40071627 0.33602554
-0.029439788 -0.35435858 0.47121808 -0.81468636 0.10954253 0.7382685 -0.104452014 0.06790682
0.12265167 0.9460867 -0.47369435 -0.03368419 -0.022087425 -0.15171367 0.15347072 -0.051265728
0.9348018 -0.03976414 0.5075262 0.14204372 0.02108042 -0.702576 -0.009866362 -0.17702428
0.37243202 0.0027851032 -0.119697005
