output/train_angle_autoencoder16_20260210_082230/checkpoints/train_angle_autoencoder16_20260210_082230_checkpoint.pth.tar (torch, 6535 bytes, 4 tensors)

weight f4 [123]
0.20078073 0.46834463 -0.2791842 0.40960526 -0.1628861 0.042813953 0.015642002 0.18845762
0.06631223 -0.40371376 -0.19968781 -0.24232288 0.015671194 -0.10076003 0.24639805 0.258885
0.4741309 -0.12888063 -0.03866314 0.47965255 -0.106111936 0.045319878 0.29846075 0.23402254
-0.26723495 0.25633657 -0.40238884 0.42323953 0.25864154 -0.08973371 -0.09557457 -0.27345124
0.19475736 0.21541154 -0.36009237 -0.15237023 -0.14429013 -0.36619213 -0.15703651 -0.02115799
-0.44066745 0.0045719356 -0.3990957 0.30847737 0.25410742 0.43583554 0.026097137 0.24068037
-0.042416397 0.33755943 -0.2289778 -0.059508648 -0.24971102 -0.4483877 0.4081714 0.34260735
-0.43539956 -0.26082596 -0.26155815 -0.35524076 0.04652428 -0.1291197 0.48798925 -0.12035689
0.11752405 0.09276898 0.028962264 -0.041621655 0.17563276 -0.3629967 0.47322267 -0.31418172
-0.118739836 0.09390921 -0.38840234 0.32448345 -0.3336964 -0.11891716 0.0076958886 -0.07260328
0.42543748 0.31132033 0.47433108 0.18287694 -0.13211618 -0.28216746 -0.33100393 0.04940077
-0.13670681 0.1852918 -0.37196568 0.2848114 0.40477222 0.0140004605 0.44442365 0.016725108
-0.0015299785 -0.48403558 -0.25775582 -0.20099917 -0.13807392 -0.39887133 0.48630816 -0.008516937
-0.15164919 0.35427067 -0.29808068 0.48429513 -0.011047608 0.29587263 -0.11057784 0.018441215
0.1789271 -0.48852387 -0.10520155 0.49718115 -0.16666009 0.18717676 0.37370646 0.37659323
-0.115016535 -0.30935493 -0.51410526
00000000: 7799 4d3e deca ef3e 3bf1 8ebe c8b7 d13e
00000010: 9dcb 26be af5d 2f3d a823 803c 09fb 403e
00000020: b5ce 873d 92b3 cebe f67a 4cbe 7d23 78be
00000030: e060 803c 465b cebd c54f 7c3e 938c 843e
00000040: 49c1 f23e 49f9 03be 3e5d 1ebd 0595 f53e
00000050: 3751 d9bd 56a1 393d d9cf 983e 9ba3 6f3e
00000060: 05d3 88be 8c3e 833e e905 cebe dab2 d83e
00000070: aa6c 843e 4fc6 b7bd 9abc c3bd cd01 8cbe
00000080: 796e 473e d894 5c3e 075e b8be f106 1cbe
00000090: cbc0 13be 897d bbbe 2ece 20be 8553 adbc
000000a0: 2a9f e1be 2dd0 953b 4656 ccbe bff0 9d3e
000000b0: 5e1a 823e d625 df3e aac9 d53c ea74 763e
000000c0: d1bc 2dbd 97d4 ac3e 2879 6abe 57bf 73bd
000000d0: 3fb4 7fbe 1393 e5be d7fb d03e 3b6a af3e
000000e0: b1ec debe fb8a 85be f3ea 85be 1ee2 b5be
000000f0: 3e90 3e3d f437 04be bad9 f93e ac7d f6bd
00000100: 73b0 f03d aafd bd3d 4542 ed3c 787b 2abd
00000110: 13d9 333e b4da b9be 3e4a f23e 6ddc a0be
00000120: df2d f3bd 7953 c03d acdc c6be b222 a63e
00000130: 41da aabe d78a f3bd cb2d fc3b 07b1 94bd
00000140: f1d2 d93e 6165 9f3e 86db f23e 1844 3b3e
00000150: 7749 07be 4178 90be 5979 a9be 7658 4a3d
00000160: dffc 0bbe 22bd 3d3e 4972 bebe cdd2 913e
00000170: 4e3e cf3e 3062 653c 7f8b e33e 1803 893c
00000180: 8f89 c8ba 83d3 f7be 92f8 83be bad2 4dbe
00000190: 4063 0dbe dd38 ccbe 62fd f83e 9f8a 0bbc
000001a0: ed49 1bbe f762 b53e 089e 98be 88f5 f73e
000001b0: 0701 35bc 9e7c 973e a276 e2bd 0812 973c
000001c0: aa38 373e cd1f fabe e973 d7bd 878e fe3e
000001d0: f1a8 2abe 44ab 3f3e 7456 bf3e d4d0 c03e
000001e0: ca8d ebbd c563 9ebe 679c 03bf

_weights f4 [123]
0.20078073 0.46834463 -0.2791842 0.40960526 -0.1628861 0.042813953 0.015642002 0.18845762
0.06631223 -0.40371376 -0.19968781 -0.24232288 0.015671194 -0.10076003 0.24639805 0.258885
0.4741309 -0.12888063 -0.03866314 0.47965255 -0.106111936 0.045319878 0.29846075 0.23402254
-0.26723495 0.25633657 -0.40238884 0.42323953 0.25864154 -0.08973371 -0.09557457 -0.27345124
0.19475736 0.21541154 -0.36009237 -0.15237023 -0.14429013 -0.36619213 -0.15703651 -0.02115799
-0.44066745 0.0045719356 -0.3990957 0.30847737 0.25410742 0.43583554 0.026097137 0.24068037
-0.042416397 0.33755943 -0.2289778 -0.059508648 -0.24971102 -0.4483877 0.4081714 0.34260735
-0.43539956 -0.26082596 -0.26155815 -0.35524076 0.04652428 -0.1291197 0.48798925 -0.12035689
0.11752405 0.09276898 0.028962264 -0.041621655 0.17563276 -0.3629967 0.47322267 -0.31418172
-0.118739836 0.09390921 -0.38840234 0.32448345 -0.3336964 -0.11891716 0.0076958886 -0.07260328
0.42543748 0.31132033 0.47433108 0.18287694 -0.13211618 -0.28216746 -0.33100393 0.04940077
-0.13670681 0.1852918 -0.37196568 0.2848114 0.40477222 0.0140004605 0.44442365 0.016725108
-0.0015299785 -0.48403558 -0.25775582 -0.20099917 -0.13807392 -0.39887133 0.48630816 -0.008516937
-0.15164919 0.35427067 -0.29808068 0.48429513 -0.011047608 0.29587263 -0.11057784 0.018441215
0.1789271 -0.48852387 -0.10520155 0.49718115 -0.16666009 0.18717676 0.37370646 0.37659323
-0.115016535 -0.30935493 -0.51410526
00000000: 7799 4d3e deca ef3e 3bf1 8ebe c8b7 d13e
00000010: 9dcb 26be af5d 2f3d a823 803c 09fb 403e
00000020: b5ce 873d 92b3 cebe f67a 4cbe 7d23 78be
00000030: e060 803c 465b cebd c54f 7c3e 938c 843e
00000040: 49c1 f23e 49f9 03be 3e5d 1ebd 0595 f53e
00000050: 3751 d9bd 56a1 393d d9cf 983e 9ba3 6f3e
00000060: 05d3 88be 8c3e 833e e905 cebe dab2 d83e
00000070: aa6c 843e 4fc6 b7bd 9abc c3bd cd01 8cbe
00000080: 796e 473e d894 5c3e 075e b8be f106 1cbe
00000090: cbc0 13be 897d bbbe 2ece 20be 8553 adbc
000000a0: 2a9f e1be 2dd0 953b 4656 ccbe bff0 9d3e
000000b0: 5e1a 823e d625 df3e aac9 d53c ea74 763e
000000c0: d1bc 2dbd 97d4 ac3e 2879 6abe 57bf 73bd
000000d0: 3fb4 7fbe 1393 e5be d7fb d03e 3b6a af3e
000000e0: b1ec debe fb8a 85be f3ea 85be 1ee2 b5be
000000f0: 3e90 3e3d f437 04be bad9 f93e ac7d f6bd
00000100: 73b0 f03d aafd bd3d 4542 ed3c 787b 2abd
00000110: 13d9 333e b4da b9be 3e4a f23e 6ddc a0be
00000120: df2d f3bd 7953 c03d acdc c6be b222 a63e
00000130: 41da aabe d78a f3bd cb2d fc3b 07b1 94bd
00000140: f1d2 d93e 6165 9f3e 86db f23e 1844 3b3e
00000150: 7749 07be 4178 90be 5979 a9be 7658 4a3d
00000160: dffc 0bbe 22bd 3d3e 4972 bebe cdd2 913e
00000170: 4e3e cf3e 3062 653c 7f8b e33e 1803 893c
00000180: 8f89 c8ba 83d3 f7be 92f8 83be bad2 4dbe
00000190: 4063 0dbe dd38 ccbe 62fd f83e 9f8a 0bbc
000001a0: ed49 1bbe f762 b53e 089e 98be 88f5 f73e
000001b0: 0701 35bc 9e7c 973e a276 e2bd 0812 973c
000001c0: aa38 373e cd1f fabe e973 d7bd 878e fe3e
000001d0: f1a8 2abe 44ab 3f3e 7456 bf3e d4d0 c03e
000001e0: ca8d ebbd c563 9ebe 679c 03bf

exp_avg f4 [123]
-0.025787733 -0.025537483 0.050268374 0.021390034 -0.004073674 -0.0028784699 0.03872663 0.0037998366
0.012624164 -0.011654903 -0.0005204166 0.013268035 -0.011724664 0.013924154 -0.0012348731 0.019375307
-0.014630287 -0.027068894 0.014014085 -0.022104817 -0.014309328 0.0010685018 -0.029882997 -0.00056217774
-0.0041771648 0.00034012744 0.09249272 0.035525028 0.028830986 -0.0033297315 -0.004975506 0.032541096
-0.010310242 0.013372386 -0.0073170364 -0.0008158392 -0.0017553905 0.000105670755 0.01891388 -0.018445132
-0.009376306 -0.0038271665 0.009451377 0.019936528 -0.010805108 0.0021218937 0.027230404 0.02061154
-0.011762036 0.027666757 0.034246415 -0.018046653 -0.0032200904 0.0317772 -0.00891502 0.015526806
-0.0124318935 -0.00097462663 -0.011719431 -0.0022936969 -0.00016838321 0.013561626 0.023567218 0.01161964
-0.02694289 -0.011200624 -0.01133256 0.0067138625 -0.016223785 -0.0006977022 -0.028076926 0.056841303
0.003151944 0.002889037 -0.0036713746 0.0086212065 0.0073141735 0.0028795544 0.016142173 0.016632171
0.024430193 -0.024313753 0.028757555 -0.018440427 -0.011802842 -0.02458501 0.008203192 -0.024101272
-0.008383733 0.023072304 0.03923055 -0.045175128 -0.021628221 -0.020524787 0.01697964 0.007241628
0.023381116 0.035490386 0.013239247 -0.053566877 -0.0097715035 0.00029369968 -0.025009446 -0.045128096
-0.018298242 0.016949452 0.006394823 0.011372186 -0.02089431 -0.005403228 -0.010853067 -0.017832588
0.003031973 -0.020573353 -0.010419216 -0.089401186 0.037886996 0.00927343 -0.01009592 -0.0149508575
-0.0025181845 -0.019702915 0.0047487402
00000000: cc40 d3bc fc33 d1bc 36e6 4d3d 273a af3c
00000010: 747c 85bb b6a4 3cbb d19f 1e3d ae06 793b
00000020: 95d5 4e3c 35f4 3ebc 916c 08ba 2c62 593c
00000030: ce18 40bc 2322 643c 77db a1ba f7b8 9e3c
00000040: dfb3 6fbc 96bf ddbc 559b 653c 2915 b5bc
00000050: ac71 6abc f90c 8c3a 30cd f4bc 1c5f 13ba
00000060: 99e0 88bb 2253 b239 d36c bd3d b182 113d
00000070: f62e ec3c a037 5abb 9209 a3bb d049 053d
00000080: 4aec 28bc da17 5b3c c0c3 efbb 0bde 55ba
00000090: 2215 e6ba 8e9b dd38 48f1 9a3c 3f1a 97bc
000000a0: 149f 19bc 33d1 7abb f3d9 1a3c ee51 a33c
000000b0: e807 31bc 780f 0b3b 4c12 df3c 88d9 a83c
000000c0: 8eb5 40bc 65a5 e23c f845 0c3d 93d6 93bc
000000d0: 2708 53bb cf28 023d 4e10 12bc 2564 7e3c
000000e0: 24af 4bbc 167e 7fba db02 40bc d951 16bb
000000f0: 0690 30b9 9531 5e3c 0a10 c13c 4d60 3e3c
00000100: 56b7 dcbc d282 37bc 34ac 39bc f6ff db3b
00000110: bee7 84bc 01e6 36ba 9501 e6bc 6dd2 683d
00000120: d890 4e3b ff55 3d3b 729b 70bb f63f 0d3c
00000130: bcab ef3b e8b6 3c3b 973c 843c 3140 883c
00000140: d421 c83c a32d c7bc f794 eb3c 6110 97bc
00000150: b560 41bc 8166 c9bc ae66 063c 0870 c5bc
00000160: ed5b 09bc 2102 bd3c 37b0 203d 8e09 39bd
00000170: ab2d b1bc 9923 a8bc e318 8b3c 2e4b ed3b
00000180: c189 bf3c 5e5e 113d 6de9 583c f168 5bbd
00000190: a818 20bc b4fb 9939 9ce0 ccbc 3dd8 38bd
000001a0: 32e6 95bc 94d9 8a3c aa8b d13b 6852 3a3c
000001b0: 8b2a abbc 900d b1bb 10d1 31bc a615 92bc
000001c0: 11b4 463b 7389 a8bc 5cb5 2abc f817 b7bd
000001d0: 652f 1b3d 96ef 173c 5c69 25bc 71f4 74bc
000001e0: 2008 25bb 0268 a1bc 529b 9b3b

exp_avg_sq f4 [123]
0.00022742728 0.00022975674 0.00040123498 0.00023017824 0.00018201006 0.000219651 0.00018469353 0.00020794425
0.0002242364 0.00015958853 0.00015178003 0.00016618511 0.0003317185 0.0001883361 0.00026895938 0.00028564275
0.00018233992 0.00016547751 0.00019192485 0.0001538032 0.000183878 0.00026223634 0.000310853 0.00021092477
0.00025128602 0.00022904301 0.0004987755 0.00026592513 0.00023335085 0.00020671201 0.00016405297 0.00025389454
0.00024425067 0.00018746823 0.00012537785 0.00019250126 0.00023123615 0.00033634802 0.00022894458 0.00017181961
0.00021843938 0.00024077219 0.0002933697 0.0001662932 0.0002447428 0.00016138729 0.00017430402 0.00032263747
0.00022454507 0.00017913489 0.00036690358 0.00016198515 0.00018724818 0.00024246561 0.00013135816 0.00026931608
0.00014054407 0.00013974837 0.00014911496 0.0002393407 0.00014915079 0.00032090375 0.00015041049 0.00023315694
0.00024809342 0.00018929775 0.00018324035 0.00018295967 0.00022800663 0.00024646698 0.00024697123 0.00026006988
0.00022059277 0.00024421577 0.00019056552 0.0002215745 0.00017081243 0.00020639626 0.0002509129 0.00022438247
0.00015029921 0.00031071337 0.0002707809 0.00035221927 0.00022450591 0.00018145281 0.0002117633 0.00016295243
0.00012819206 0.0002940264 0.00031946684 0.00027708095 0.00019226817 0.00011114383 0.00018319309 0.00029391205
0.00021604184 0.00023847818 0.00022115091 0.0002907804 0.00014882928 0.00018641236 0.0002809304 0.00033874495
0.00032742386 0.00017625018 0.00026675014 0.00027674218 0.00023591149 0.0002226614 0.00022503048 0.00027106548
0.0003055949 0.0001494162 0.00019878367 0.00040409088 0.000262055 0.00020218866 0.00016126211 0.00022017836
0.00012609082 0.00023231977 0.00024159515
00000000: 8c79 6e39 dbea 7039 d95c d239 005c 7139
00000010: f4d9 3e39 1e52 6639 4baa 4139 9c0b 5a39
00000020: 0021 6b39 3857 2739 2427 1f39 fa41 2e39
00000030: 81ea ad39 167c 4539 1e03 8d39 52c2 9539
00000040: 8032 3f39 0884 2d39 6f3f 4939 3b46 2139
00000050: 60cf 4039 c47c 8939 fcf9 a239 b02b 5d39
00000060: 0abf 8339 442b 7039 42c0 023a de6b 8b39
00000070: a4af 7439 d5c0 5839 a205 2c39 261d 8539
00000080: c50e 8039 1f93 4439 dc77 0339 2ada 4939
00000090: fb77 7239 de57 b039 d810 7039 7a2a 3439
000000a0: e00c 6539 cb77 7c39 6acf 9939 fe5e 2e39
000000b0: d350 8039 123a 2939 61c5 3639 ab27 a939
000000c0: dc73 6b39 28d6 3b39 f75c c039 8fda 2939
000000d0: 0d58 4439 5e3e 7e39 30bd 0939 fe32 8d39
000000e0: 035f 1339 6b89 1239 be5b 1c39 88f7 7a39
000000f0: 5c65 1c39 f93e a839 82b7 1d39 977b 7439
00000100: 8912 8239 3a7e 4639 3524 4039 ddd8 3f39
00000110: 1015 6f39 3d38 8139 eb7b 8139 fd59 8839
00000120: ec4e 6739 160a 8039 8bd2 4739 7456 6839
00000130: 1d1c 3339 136c 5839 f68c 8339 3648 6b39
00000140: a399 1d39 3ee7 a239 99f7 8d39 12aa b839
00000150: 5969 6b39 5e44 3e39 c70c 5e39 36de 2a39
00000160: 4b6b 0639 8e27 9a39 1d7e a739 2d45 9139
00000170: 989b 4939 e415 e938 8517 4039 3518 9a39
00000180: 4a89 6239 0010 7a39 bfe4 6739 e273 9839
00000190: 0e0f 1c39 b077 4339 d749 9339 9499 b139
000001a0: 16aa ab39 cccf 3839 99da 8b39 b517 9139
000001b0: 025f 7739 377a 6939 29f6 6b39 cb1d 8e39
000001c0: 4138 a039 9bac 1c39 9670 5039 29dc d339
000001d0: 6d64 8939 9b02 5439 7818 2939 aedf 6639
000001e0: 3f37 0439 dd9a 7339 b454 7d39
