output/None_angle_autoencoder16_20260212_114530/model/None_angle_autoencoder16_20260212_114530_trained_qcnn.pth (torch, 2667 bytes, 2 tensors)

weight f4 [123]
00000000: 4dca d73d b348 48be bfb0 abbe 01ea 01bf
00000010: 0f52 a93e 2083 a5bd 2624 20be 9874 913e
00000020: 711d acba cac7 92be d764 783f b2f7 9bbe
00000030: cce6 133f 78e3 9bbd 5492 03be 1865 2ebc
00000040: 3ce3 d83d 9178 34bf 3751 b5be e5a8 b83d
00000050: a2bf e8bc fc54 173e 9a0b 0f3f a0f7 5b3e
00000060: ece4 bdbe 8e5e b83e c1a6 9abf 14dd 2c3e
00000070: 4a0d aebd 48e9 8abe f474 28bd 235a c23d
00000080: 258c 893f d183 343d d24d da3d 3f61 a23e
00000090: 1759 103e da8e 13bf 1d1b 4fbe 0e95 9abe
000000a0: dd26 193f 1dd2 a43e f2b1 093f 796f a13e
000000b0: af15 d33e 53e7 02bd cc6e 0abf 64b2 54be
000000c0: 0bd1 6bbf cfe1 9f3f 128f adbf 326d a3be
000000d0: 4cd6 493e 82dc 0fbf 3aac bbbd 09e5 d13e
000000e0: eed1 28bf 36fe 863f ad69 e8be bf54 fcbb
000000f0: 087e efbe 6c2e 9dbe 32d5 d5be 0674 773f
00000100: 6631 cfbe 16ed 323e e405 723f 08a5 56bd
00000110: 3b12 9d3e 3436 dcbb db44 cabe c093 0a3e
00000120: aa70 22be 10af 94be d57d 463e f684 12bf
00000130: 0e08 2bbe 339a c6be 6aba 823f ab9d 04bf
00000140: ce94 693f f4d9 9dbe 5524 1c3f 8715 ab3d
00000150: 3a12 9ebb 25d4 01bf 804a dfbe c71c 6bbf
00000160: b38b febe 0773 7f3f d8ae 0a3e 16aa 0cbe
00000170: 2b78 ccbd c6da 4ebe 78be 6fbe e287 cd3e
00000180: 6af3 38bc 8caa 473e 335a 1abe 9b13 a1be
00000190: d2c8 bd3e 979a e6be a1d1 363d c51c 9b3e
000001a0: 8cf9 b03c 96bb 0fbf 9f9b e2bd f619 2b3f
000001b0: 0432 083d 4472 da3e c6ac 033e 4c78 b23e
000001c0: 259c 3fbd 17df 25bf 7cf2 a63e 3d4d 8ebe
000001d0: 21a9 bfbd d48c 6e3e 4d81 363d 830d 35be
000001e0: f69b 04bb 8755 5abe c804 fc3e
0.10536633 -0.19558983 -0.33533284 -0.50747687 0.33070418 -0.08081651 -0.1563879 0.28409266
-0.0013131333 -0.28668052 0.9702887 -0.30462414 0.57774043 -0.076117456 -0.12848788 -0.01064422
0.105902165 -0.7049647 -0.35413525 0.09016589 -0.02841169 0.14778513 0.5587708 0.2148118
-0.37088716 0.3600964 -1.2082139 0.1688121 -0.084986284 -0.27131104 -0.04112716 0.094898485
1.0745894 0.044071022 0.10659374 0.31714818 0.14096485 -0.5763985 -0.20225187 -0.30191845
0.59824926 0.32191554 0.5378715 0.3153036 0.4122748 -0.03195889 -0.5407531 -0.20771176
-0.9211585 1.2490786 -1.3559287 -0.31919247 0.19710654 -0.56195843 -0.09163709 0.40995052
-0.6594533 1.0546329 -0.45393124 -0.007700532 -0.46775842 -0.3069948 -0.41764218 0.9666141
-0.40467376 0.17473254 0.9454024 -0.05240348 0.3067797 -0.0067203287 -0.39505658 0.13532925
-0.1586329 -0.29039812 0.19383939 -0.5723413 -0.16702291 -0.3878952 1.0213139 -0.5180308
0.9124268 -0.30830348 0.6099294 0.083537154 -0.00482395 -0.5071433 -0.43611526 -0.91840786
-0.49715957 0.9978489 0.1354326 -0.13736758 -0.09983858 -0.20200643 -0.23412502 0.40142733
-0.011288503 0.19498652 -0.15073471 -0.3146027 0.37067276 -0.45039818 0.04463351 0.30295387
0.021603368 -0.5614561 -0.110648386 0.6683649 0.033250824 0.42665303 0.12858877 0.34857404
-0.04677977 -0.64793533 0.32606876 -0.27793303 -0.09358431 0.23295909 0.044556905 -0.17680936
-0.0020234562 -0.21321689 0.49222398

_weights f4 [123]
00000000: 4dca d73d b348 48be bfb0 abbe 01ea 01bf
00000010: 0f52 a93e 2083 a5bd 2624 20be 9874 913e
00000020: 711d acba cac7 92be d764 783f b2f7 9bbe
00000030: cce6 133f 78e3 9bbd 5492 03be 1865 2ebc
00000040: 3ce3 d83d 9178 34bf 3751 b5be e5a8 b83d
00000050: a2bf e8bc fc54 173e 9a0b 0f3f a0f7 5b3e
00000060: ece4 bdbe 8e5e b83e c1a6 9abf 14dd 2c3e
00000070: 4a0d aebd 48e9 8abe f474 28bd 235a c23d
00000080: 258c 893f d183 343d d24d da3d 3f61 a23e
00000090: 1759 103e da8e 13bf 1d1b 4fbe 0e95 9abe
000000a0: dd26 193f 1dd2 a43e f2b1 093f 796f a13e
000000b0: af15 d33e 53e7 02bd cc6e 0abf 64b2 54be
000000c0: 0bd1 6bbf cfe1 9f3f 128f adbf 326d a3be
000000d0: 4cd6 493e 82dc 0fbf 3aac bbbd 09e5 d13e
000000e0: eed1 28bf 36fe 863f ad69 e8be bf54 fcbb
000000f0: 087e efbe 6c2e 9dbe 32d5 d5be 0674 773f
00000100: 6631 cfbe 16ed 323e e405 723f 08a5 56bd
00000110: 3b12 9d3e 3436 dcbb db44 cabe c093 0a3e
00000120: aa70 22be 10af 94be d57d 463e f684 12bf
00000130: 0e08 2bbe 339a c6be 6aba 823f ab9d 04bf
00000140: ce94 693f f4d9 9dbe 5524 1c3f 8715 ab3d
00000150: 3a12 9ebb 25d4 01bf 804a dfbe c71c 6bbf
00000160: b38b febe 0773 7f3f d8ae 0a3e 16aa 0cbe
00000170: 2b78 ccbd c6da 4ebe 78be 6fbe e287 cd3e
00000180: 6af3 38bc 8caa 473e 335a 1abe 9b13 a1be
00000190: d2c8 bd3e 979a e6be a1d1 363d c51c 9b3e
000001a0: 8cf9 b03c 96bb 0fbf 9f9b e2bd f619 2b3f
000001b0: 0432 083d 4472 da3e c6ac 033e 4c78 b23e
000001c0: 259c 3fbd 17df 25bf 7cf2 a63e 3d4d 8ebe
000001d0: 21a9 bfbd d48c 6e3e 4d81 363d 830d 35be
000001e0: f69b 04bb 8755 5abe c804 fc3e
0.10536633 -0.19558983 -0.33533284 -0.50747687 0.33070418 -0.08081651 -0.1563879 0.28409266
-0.0013131333 -0.28668052 0.9702887 -0.30462414 0.57774043 -0.076117456 -0.12848788 -0.01064422
0.105902165 -0.7049647 -0.35413525 0.09016589 -0.02841169 0.14778513 0.5587708 0.2148118
-0.37088716 0.3600964 -1.2082139 0.1688121 -0.084986284 -0.27131104 -0.04112716 0.094898485
1.0745894 0.044071022 0.10659374 0.31714818 0.14096485 -0.5763985 -0.20225187 -0.30191845
0.59824926 0.32191554 0.5378715 0.3153036 0.4122748 -0.03195889 -0.5407531 -0.20771176
-0.9211585 1.2490786 -1.3559287 -0.31919247 0.19710654 -0.56195843 -0.09163709 0.40995052
-0.6594533 1.0546329 -0.45393124 -0.007700532 -0.46775842 -0.3069948 -0.41764218 0.9666141
-0.40467376 0.17473254 0.9454024 -0.05240348 0.3067797 -0.0067203287 -0.39505658 0.13532925
-0.1586329 -0.29039812 0.19383939 -0.5723413 -0.16702291 -0.3878952 1.0213139 -0.5180308
0.9124268 -0.30830348 0.6099294 0.083537154 -0.00482395 -0.5071433 -0.43611526 -0.91840786
-0.49715957 0.9978489 0.1354326 -0.13736758 -0.09983858 -0.20200643 -0.23412502 0.40142733
-0.011288503 0.19498652 -0.15073471 -0.3146027 0.37067276 -0.45039818 0.04463351 0.30295387
0.021603368 -0.5614561 -0.110648386 0.6683649 0.033250824 0.42665303 0.12858877 0.34857404
-0.04677977 -0.64793533 0.32606876 -0.27793303 -0.09358431 0.23295909 0.044556905 -0.17680936
-0.0020234562 -0.21321689 0.49222398
