output/train_2vs046_100epoch_20260212_010246/checkpoints/train_angle_autoencoder16_20260212_010246_checkpoint.pth.tar (torch, 9095 bytes, 4 tensors)

weight f4 [123]
000000 95 d6 9a 3f a0 ff 5e bb 00 a6 97 3e 15 58 09 bf
       1.2096735 -0.0034026876 0.29618835 -0.5365003
000010 b8 34 66 bd c7 f3 f7 be 22 b4 d8 be 74 8a f3 3d
       -0.05620262 -0.48428175 -0.4232493 0.11891642
000020 3a ed 38 be 8c 30 ac 3e a7 ba 92 3e f1 6c 8e be
       -0.18059245 0.33630788 0.2865803 -0.2781749
000030 9e fe 47 3e be d8 7b 3f df 36 40 be 8b b6 94 bf
       0.19530722 0.983776 -0.18770932 -1.1618208
000040 9d 19 49 3c 1c d4 ed 3d ad 06 c6 3e 63 2a b7 3e
       0.012274173 0.11612722 0.38676968 0.35774526
000050 a5 69 ff be 96 45 1a 3f a0 7a 47 3e 81 1c 29 3e
       -0.49885288 0.6026243 0.19480371 0.1651478
000060 ff e5 e7 bc 50 9d ee 3e 7f 25 ab bc f0 4a 67 3f
       -0.028307913 0.46604395 -0.020891903 0.9034872
000070 ca 3c ae 3e 95 60 4f 3e 09 f0 3b be 51 a6 73 3e
       0.34030753 0.20251687 -0.18353285 0.23793913
000080 3b 66 8c be 1d d9 ab 3e 44 92 38 bf 6d cd 82 bf
       -0.27421746 0.33564082 -0.72098184 -1.0218941
000090 8a 4a 69 3e 7e 5b 94 be 6a 45 1a 3f 20 50 4b bf
       0.2278234 -0.28976053 0.6026217 -0.79419136
0000a0 2d 01 f4 3e 43 fa 8a 3e ff f8 73 3e 6e 0d 8a be
       0.47657147 0.2714406 0.23825453 -0.2696337
0000b0 bd 99 bc 3e 67 ab ae be ec d2 b3 3d 3b 45 f4 be
       0.36836043 -0.34115145 0.087804645 -0.4770907
0000c0 e4 6a ce bc 76 b0 87 3f de c0 2d 3f c6 4f d5 3e
       -0.025197454 1.0600727 0.67872417 0.41662425
0000d0 9c a2 ce be 7a 6f 91 bd 5e 67 9f be b5 2c c3 be
       -0.40358436 -0.071013406 -0.3113355 -0.38120046
0000e0 3f 9f 60 3e de 3f b1 be 36 91 b1 3f a5 6f 98 bd
       0.21935748 -0.3461904 1.387244 -0.074431695
0000f0 26 87 17 3f 1e b6 18 be 95 2a c4 be 09 d1 ae bd
       0.59190595 -0.14913222 -0.38313738 -0.08535964
000100 32 e0 18 3d a6 30 99 be 65 d0 95 be 3e 0f 6c 3f
       0.037323184 -0.29919928 -0.29260555 0.9221076
000110 0b d5 95 3e 10 04 78 3e 91 58 3c 3e 56 85 a6 3e
       0.292641 0.242203 0.1839316 0.32523602
000120 7a e3 22 3f e4 4f 3b 3e a0 b1 79 be 84 9c 42 3f
       0.6362835 0.18292195 -0.24384165 0.76020074
000130 21 cc c1 3d a7 91 2a be 78 22 1d 3f 1a 71 9b be
       0.094627626 -0.16657124 0.6138072 -0.30359727
000140 de 58 e1 be ae 02 04 3f 8d 74 59 be c5 a2 87 3e
       -0.44013113 0.5156659 -0.21235867 0.2649137
000150 7e ee cf 3e c4 15 87 3f e9 b5 3a 3d cf 17 95 3d
       0.40611643 1.0553517 0.04558364 0.07279932
000160 77 21 02 bf c8 78 51 3f 5b c7 13 3e e2 ef 2f 3f
       -0.50832313 0.8182492 0.14431517 0.6872541
000170 40 36 23 3f 11 d6 d6 be af 2a cd be 8a 0b ac 3e
       0.63754654 -0.41960195 -0.40071627 0.33602554
000180 b6 2b f1 bc 7d 6e b5 be 7f 43 f1 3e 49 8f 50 bf
       -0.029439788 -0.35435858 0.47121808 -0.81468636
000190 d5 57 e0 3d 2a ff 3c 3f f0 ea d5 bd bb 12 8b 3d
       0.10954253 0.7382685 -0.104452014 0.06790682
0001a0 cc 30 fb 3d bd 32 72 3f 11 88 f2 be 6f f8 09 bd
       0.12265167 0.9460867 -0.47369435 -0.03368419
0001b0 b0 f0 b4 bc d4 5a 1b be 6e 27 1d 3e 03 fc 51 bd
       -0.022087425 -0.15171367 0.15347072 -0.051265728
0001c0 2c 4f 6f 3f b9 df 22 bd 3d ed 01 3f e9 73 11 3e
       0.9348018 -0.03976414 0.5075262 0.14204372
0001d0 d8 b0 ac 3c 05 dc 33 bf 86 a6 21 bc da 45 35 be
       0.02108042 -0.702576 -0.009866362 -0.17702428
0001e0 69 af be 3e 47 86 36 3b b4 23 f5 bd
       0.37243202 0.0027851032 -0.119697005

_weights f4 [123]
000000 95 d6 9a 3f a0 ff 5e bb 00 a6 97 3e 15 58 09 bf
       1.2096735 -0.0034026876 0.29618835 -0.5365003
000010 b8 34 66 bd c7 f3 f7 be 22 b4 d8 be 74 8a f3 3d
       -0.05620262 -0.48428175 -0.4232493 0.11891642
000020 3a ed 38 be 8c 30 ac 3e a7 ba 92 3e f1 6c 8e be
       -0.18059245 0.33630788 0.2865803 -0.2781749
000030 9e fe 47 3e be d8 7b 3f df 36 40 be 8b b6 94 bf
       0.19530722 0.983776 -0.18770932 -1.1618208
000040 9d 19 49 3c 1c d4 ed 3d ad 06 c6 3e 63 2a b7 3e
       0.012274173 0.11612722 0.38676968 0.35774526
000050 a5 69 ff be 96 45 1a 3f a0 7a 47 3e 81 1c 29 3e
       -0.49885288 0.6026243 0.19480371 0.1651478
000060 ff e5 e7 bc 50 9d ee 3e 7f 25 ab bc f0 4a 67 3f
       -0.028307913 0.46604395 -0.020891903 0.9034872
000070 ca 3c ae 3e 95 60 4f 3e 09 f0 3b be 51 a6 73 3e
       0.34030753 0.20251687 -0.18353285 0.23793913
000080 3b 66 8c be 1d d9 ab 3e 44 92 38 bf 6d cd 82 bf
       -0.27421746 0.33564082 -0.72098184 -1.0218941
000090 8a 4a 69 3e 7e 5b 94 be 6a 45 1a 3f 20 50 4b bf
       0.2278234 -0.28976053 0.6026217 -0.79419136
0000a0 2d 01 f4 3e 43 fa 8a 3e ff f8 73 3e 6e 0d 8a be
       0.47657147 0.2714406 0.23825453 -0.2696337
0000b0 bd 99 bc 3e 67 ab ae be ec d2 b3 3d 3b 45 f4 be
       0.36836043 -0.34115145 0.087804645 -0.4770907
0000c0 e4 6a ce bc 76 b0 87 3f de c0 2d 3f c6 4f d5 3e
       -0.025197454 1.0600727 0.67872417 0.41662425
0000d0 9c a2 ce be 7a 6f 91 bd 5e 67 9f be b5 2c c3 be
       -0.40358436 -0.071013406 -0.3113355 -0.38120046
0000e0 3f 9f 60 3e de 3f b1 be 36 91 b1 3f a5 6f 98 bd
       0.21935748 -0.3461904 1.387244 -0.074431695
0000f0 26 87 17 3f 1e b6 18 be 95 2a c4 be 09 d1 ae bd
       0.59190595 -0.14913222 -0.38313738 -0.08535964
000100 32 e0 18 3d a6 30 99 be 65 d0 95 be 3e 0f 6c 3f
       0.037323184 -0.29919928 -0.29260555 0.9221076
000110 0b d5 95 3e 10 04 78 3e 91 58 3c 3e 56 85 a6 3e
       0.292641 0.242203 0.1839316 0.32523602
000120 7a e3 22 3f e4 4f 3b 3e a0 b1 79 be 84 9c 42 3f
       0.6362835 0.18292195 -0.24384165 0.76020074
000130 21 cc c1 3d a7 91 2a be 78 22 1d 3f 1a 71 9b be
       0.094627626 -0.16657124 0.6138072 -0.30359727
000140 de 58 e1 be ae 02 04 3f 8d 74 59 be c5 a2 87 3e
       -0.44013113 0.5156659 -0.21235867 0.2649137
000150 7e ee cf 3e c4 15 87 3f e9 b5 3a 3d cf 17 95 3d
       0.40611643 1.0553517 0.04558364 0.07279932
000160 77 21 02 bf c8 78 51 3f 5b c7 13 3e e2 ef 2f 3f
       -0.50832313 0.8182492 0.14431517 0.6872541
000170 40 36 23 3f 11 d6 d6 be af 2a cd be 8a 0b ac 3e
       0.63754654 -0.41960195 -0.40071627 0.33602554
000180 b6 2b f1 bc 7d 6e b5 be 7f 43 f1 3e 49 8f 50 bf
       -0.029439788 -0.35435858 0.47121808 -0.81468636
000190 d5 57 e0 3d 2a ff 3c 3f f0 ea d5 bd bb 12 8b 3d
       0.10954253 0.7382685 -0.104452014 0.06790682
0001a0 cc 30 fb 3d bd 32 72 3f 11 88 f2 be 6f f8 09 bd
       0.12265167 0.9460867 -0.47369435 -0.03368419
0001b0 b0 f0 b4 bc d4 5a 1b be 6e 27 1d 3e 03 fc 51 bd
       -0.022087425 -0.15171367 0.15347072 -0.051265728
0001c0 2c 4f 6f 3f b9 df 22 bd 3d ed 01 3f e9 73 11 3e
       0.9348018 -0.03976414 0.5075262 0.14204372
0001d0 d8 b0 ac 3c 05 dc 33 bf 86 a6 21 bc da 45 35 be
       0.02108042 -0.702576 -0.009866362 -0.17702428
0001e0 69 af be 3e 47 86 36 3b b4 23 f5 bd
       0.37243202 0.0027851032 -0.119697005

exp_avg f4 [123]
000000 b4 49 bc bc fa 50 08 bc ff 86 1e bc d2 40 eb 3a
       -0.022984363 -0.008320088 -0.00967574 0.0017948395
000010 95 de 35 3c ee 98 49 bc 19 b7 2a bb 6f 23 13 bc
       0.011100431 -0.012304528 -0.0026049076 -0.008980616
000020 c8 30 aa bc 78 bb 34 3c 33 26 a1 3c 85 d9 90 bb
       -0.020775214 0.011031024 0.019671535 -0.0044204616
000030 be 76 1c bb b6 1f aa bc 86 b5 ac 39 10 f3 9f 3c
       -0.0023874487 -0.020767074 0.00032941642 0.01952508
000040 9b 11 7d 3c 2d 2c 9d bb 48 e4 6d bc 62 ce 35 3b
       0.015446092 -0.004796526 -0.0145197585 0.0027741422
000050 a3 1f c9 3c ac aa 07 bd 55 a5 dd bc 0c 60 da 3b
       0.024551218 -0.03312175 -0.027056376 0.0066642817
000060 d6 1c ec 3b c8 e1 14 3c 47 51 39 bc 62 cf 75 bc
       0.007205586 0.009087034 -0.011310882 -0.015003057
000070 ed 1b fd ba fa 5c ff 3c fc ad 2a 3c 0d 4c 3a bb
       -0.0019310691 0.031172264 0.010417458 -0.0028426677
000080 b3 9a ee bb 93 0e 49 bc 3c 61 62 3d de 81 f2 3b
       -0.007281625 -0.012271541 0.05526851 0.0074007353
000090 2f bf 00 bd 77 23 73 3c 12 0d 6f 3c b9 cc eb 3b
       -0.031432327 0.014839998 0.014590519 0.0071960357
0000a0 6e e3 84 bc 18 5d f0 bc fd 1c 3d ba 15 90 cb 3b
       -0.016221728 -0.029341266 -0.00072140974 0.0062122443
0000b0 11 16 20 bc b0 6d 7a bc dc b3 a6 3c 31 e0 80 bb
       -0.009770886 -0.015284941 0.020349436 -0.0039329757
0000c0 47 c9 94 bb c5 02 b2 bb 48 23 bd bc 3b e7 33 3c
       -0.0045405957 -0.005432459 -0.023088112 0.010980423
0000d0 24 2e 95 bc fb b3 29 3b 36 b8 32 3c 13 23 30 3d
       -0.018210478 0.002589463 0.010908177 0.0430022
0000e0 c2 05 b4 3c ec dc 10 3d 2f 7a 13 3d 8d 92 cd bb
       0.021975402 0.035366938 0.036005195 -0.0062735737
0000f0 51 d7 86 3c e3 c6 b6 3b 4b 18 d8 bc 5e 49 bb 3a
       0.016460093 0.0055779084 -0.026378771 0.0014288833
000100 88 c3 af 3c de 84 1e bc 27 1c 61 3d f3 2f 28 bb
       0.021455541 -0.009675233 0.05495849 -0.0025663346
000110 cb 56 2b bc 73 ba 96 bc 22 c1 6f bb aa f5 54 3c
       -0.010457705 -0.018399453 -0.0036583622 0.012998024
000120 c9 00 c1 3b 07 74 aa bc d8 8b b7 bc 3c d1 b5 3b
       0.005889986 -0.02080728 -0.02240555 0.0055486243
000130 cd 83 04 bc c7 e7 bf 3c 00 ad 5d 3b 24 39 ce bb
       -0.008088064 0.02342595 0.003382504 -0.006293433
000140 84 51 a3 3c ea 91 19 bc 36 ab 41 3b ae c4 72 bc
       0.01993633 -0.0093731675 0.0029551513 -0.0148174
000150 f0 0a fd 3c 09 8e 57 bc 0e 8c 3a 3c 0e a7 d7 bb
       0.030889004 -0.013156422 0.011385931 -0.006581194
000160 c3 46 93 3c 57 bf 74 bb 3d 55 a4 bc 33 1b 0a bc
       0.017978078 -0.0037345493 -0.020060176 -0.008429336
000170 25 23 7e 3c 5a 55 82 3c 28 f5 0d bc ed 1c f2 3b
       0.015511309 0.01590984 -0.008664407 0.007388702
000180 a2 ec b8 3c 83 4e ea 3c c4 a6 ae bc 87 91 cf 39
       0.022573773 0.02860189 -0.021319754 0.00039590543
000190 e4 9d 72 bc 9d e6 32 bc 73 7d 99 bc 56 ba 1e bb
       -0.014808152 -0.01091924 -0.018736577 -0.0024219952
0001a0 57 e0 15 3c 48 79 5f bb 7a 47 1a 3d 7c c7 00 bc
       0.009147725 -0.003409939 0.03766582 -0.007860061
0001b0 83 af cf 3a 40 c2 30 bd c0 d3 7b 3c 0b bd d8 bc
       0.0015845153 -0.043154 0.015370309 -0.02645733
0001c0 44 de bc 3a 0f 23 03 3d 28 37 35 bc fc 9e 6b bb
       0.0014409502 0.032015856 -0.011060514 -0.0035952916
0001d0 2d 4a 6f bc 91 82 c9 ba 79 49 34 bc 38 da df 3b
       -0.014605087 -0.0015373995 -0.011003845 0.0068314336
0001e0 ac af cf 3b fd cd 4c 3c 92 93 d9 bc
       0.0063380804 0.012500283 -0.026559625

exp_avg_sq f4 [123]
000000 3b 4c 2c 3a ae 1e 0b 3a 3c a2 cd 39 3b 42 2d 3a
       0.00065726385 0.0005307001 0.0003922152 0.00066092954
000010 73 07 39 3a 30 bf 1d 3a e6 32 0e 3a bd 18 2b 3a
       0.00070583 0.0006017564 0.00054244546 0.00065268186
000020 83 c1 0b 3a a4 7b 1c 3a 12 9d 15 3a e5 25 15 3a
       0.00053312647 0.00059693516 0.0005707304 0.00056895457
000030 4c da 00 3a c7 71 0b 3a 04 ef e6 39 55 36 00 3a
       0.0004915341 0.00053193833 0.000440471 0.00048909086
000040 c9 f3 11 3a be 0c 06 3a 03 c0 18 3a 95 dc 07 3a
       0.0005567638 0.0005113593 0.0005826952 0.00051827106
000050 08 92 21 3a c4 32 f0 39 b0 fd e1 39 fd cb 14 3a
       0.0006163423 0.0004581419 0.00043104356 0.00056761486
000060 ce 7c 05 3a ad 44 1c 3a e6 6a 29 3a bb 52 11 3a
       0.0005092145 0.0005961161 0.00064627675 0.0005543639
000070 e0 88 25 3a 03 42 29 3a 0d 81 2a 3a 16 47 13 3a
       0.00063146465 0.0006456675 0.00065042154 0.00056181976
000080 26 61 09 3a 4b 58 15 3a fa 83 02 3a a3 22 f6 39
       0.00052406115 0.00056970556 0.00049787725 0.00046946583
000090 e6 ee 1a 3a 74 4a 0c 3a 2b bd 27 3a 99 80 0f 3a
       0.00059102324 0.00053516706 0.00063987327 0.00054741796
0000a0 7a 0a e4 39 f0 e9 15 3a 5d 38 11 3a 46 90 15 3a
       0.00043495354 0.00057187583 0.000553971 0.00057053973
0000b0 08 ce df 39 d8 2a 1c 3a 24 3d 1f 3a 86 c2 06 3a
       0.0004268738 0.0005957312 0.00060744793 0.00051406806
0000c0 b1 b8 02 3a 5a e2 35 3a f6 e9 26 3a bf 2a 0f 3a
       0.00049866276 0.0006938331 0.00063672604 0.0005461387
0000d0 08 0b 1e 3a fc 94 1c 3a 56 c2 19 3a c6 0f 50 3a
       0.00060288655 0.0005973128 0.0005865445 0.0007936921
0000e0 6c a9 20 3a 19 be 1e 3a e6 41 14 3a ff 66 ff 39
       0.00061287615 0.00060555484 0.00056555716 0.00048714128
0000f0 2d dd 13 3a 14 f1 1a 3a 11 fb 1b 3a 64 46 0e 3a
       0.0005640563 0.0005910557 0.00059501926 0.0005427359
000100 c5 0b 05 3a cc 50 1b 3a 9a a3 2a 3a 0d c7 28 3a
       0.0005075301 0.00059248204 0.0006509364 0.0006438352
000110 da db 06 3a c5 60 21 3a 04 52 e9 39 a0 7c 21 3a
       0.0005144455 0.00061560824 0.0004450233 0.0006160233
000120 30 c9 14 3a 24 4f 2c 3a d3 81 14 3a 07 5f 10 3a
       0.0005675731 0.0006573072 0.0005665097 0.0005507324
000130 ea 2b 03 3a eb c4 0f 3a 78 75 16 3a c2 4f 27 3a
       0.0005003797 0.000548436 0.000573955 0.0006382429
000140 c3 d5 32 3a 99 3e 26 3a c8 59 2c 3a c5 fa f5 39
       0.0006822014 0.0006341725 0.0006574658 0.0004691688
000150 c4 bb 01 3a 6d e8 2f 3a 21 8d 26 3a 93 a2 18 3a
       0.0004948939 0.00067103544 0.00063534273 0.0005822565
000160 32 44 27 3a 48 e4 0c 3a 26 10 20 3a f1 3a 3a 3a
       0.00063807063 0.0005374593 0.0006105922 0.000710412
000170 2a f1 fe 39 38 dd 2a 3a 41 71 21 3a 5f c6 17 3a
       0.00048626337 0.00065179495 0.0006158539 0.00057897525
000180 e0 18 d3 39 9a 01 0a 3a 99 74 17 3a 86 7f 2a 3a
       0.0004026359 0.0005264521 0.0005777567 0.0006503988
000190 39 c6 f2 39 2e 09 16 3a e5 e6 30 3a 26 3c 28 3a
       0.00046305524 0.0005723414 0.0006748273 0.0006417654
0001a0 7c 9d 1a 3a 5e 0e 03 3a 31 e5 e0 39 6f a0 03 3a
       0.0005898101 0.00049993943 0.0004289537 0.000502116
0001b0 28 1b 21 3a 65 9b 1f 3a 26 2c 36 3a 0d c1 20 3a
       0.0006145709 0.0006088524 0.00069493277 0.00061322824
0001c0 66 4a 07 3a 59 74 29 3a 28 0a fa 39 ee fb 1d 3a
       0.00051609275 0.00064641755 0.00047691283 0.0006026615
0001d0 23 55 20 3a 1c 7c ff 39 2a 14 1a 3a cf b0 18 3a
       0.0006116202 0.0004872986 0.00058776385 0.00058246864
0001e0 43 bc 30 3a a5 96 38 3a 75 bf 1c 3a
       0.00067419204 0.0007041491 0.0005979457
