output/train_angle_pca16_20260205_065944/model/train_angle_pca16_20260205_065944_trained_qcnn.pth (torch, 2618 bytes, 2 tensors)

weight f4 [123]
0	0x3d83238d	0.06403265
1	0x3ecedec5	0.40404335
2	0x3f2c0531	0.6719542
3	0xbde1d58f	-0.11027061
4	0x3ea39155	0.31946817
5	0x3d842f9b	0.064543925
6	0x3e031cd7	0.1280397
7	0xbe8e5fc7	-0.27807447
8	0x3f01a835	0.5064729
9	0xbe89afa6	-0.26891822
10	0xbe4ea820	-0.20181322
11	0x3ed227e5	0.41046062
12	0xbe038b5d	-0.12846132
13	0x3e816c8f	0.25278136
14	0xbdf494c4	-0.11942437
15	0xbe2d3fcc	-0.16918868
16	0x3e6578fd	0.22409435
17	0x3e87fd79	0.26560572
18	0xbeb3580e	-0.35028118
19	0x3dcc60f2	0.09979428
20	0xbe4b3aff	-0.19846724
21	0x3e0e6e25	0.13909204
22	0xbe6ff2cc	-0.23432463
23	0xbe952fe2	-0.29138094
24	0x3e79af54	0.24383289
25	0xbf056b82	-0.5211717
26	0x3f171a93	0.59024924
27	0x3eb0ded9	0.3454502
28	0xbd84732c	-0.0646728
29	0xbc2a7468	-0.01040373
30	0xbe9d4aef	-0.30721232
31	0xbe093892	-0.13400486
32	0xbed7da95	-0.42158952
33	0xbdea395f	-0.11436724
34	0xbea14982	-0.31501395
35	0x3c7e86af	0.015535041
36	0xbdc1b9b2	-0.09459247
37	0xbe8da33f	-0.2766361
38	0xbc90ca74	-0.017674662
39	0x3e85f564	0.2616378
40	0xbd8c6ad6	-0.06856315
41	0x3e8c583d	0.2741107
42	0xbecabd3e	-0.39597505
43	0x3e259618	0.16170537
44	0x3eb78203	0.3584138
45	0xbaf98544	-0.0019036909
46	0x3ea452e4	0.3209449
47	0x3e5ea738	0.21743476
48	0x3d06e1e0	0.032930255
49	0xbecca7f9	-0.39971903
50	0x3e8d1e72	0.2756229
51	0xbeadbeb7	-0.33934566
52	0x3f0dfff2	0.55468667
53	0x3efab090	0.48962831
54	0xbe6f9924	-0.23398262
55	0x3e120fdb	0.14263861
56	0xbe926f36	-0.28600472
57	0x3e45b4dc	0.19307274
58	0x3e2d6b21	0.16935398
59	0x3e646bbf	0.22306727
60	0xbddf0069	-0.1088875
61	0xbd221072	-0.039566465
62	0x3e81586e	0.2526278
63	0x3e1694fa	0.14705268
64	0x3e57c006	0.21069345
65	0x3e68020d	0.22657032
66	0x3d3c198a	0.045922793
67	0x3d472ef4	0.048628762
68	0xbe9915a6	-0.2989933
69	0x3ec7b192	0.39002663
70	0x3f346b73	0.70476454
71	0x3ee9c6ef	0.45659587
72	0x3ec88058	0.3916042
73	0x3dda6ecd	0.10665665
74	0xbdc47dfd	-0.09594343
75	0xbe302c50	-0.17204404
76	0xbdbb5b01	-0.09148217
77	0xbebb85d2	-0.36625534
78	0x3eaff343	0.3436528
79	0xbe45f3ff	-0.19331358
80	0x3e3c28e6	0.18374977
81	0x3e991e29	0.29905823
82	0xbdc0a435	-0.0940632
83	0x3dcad4de	0.099038824
84	0x3bd843fe	0.006599902
85	0x3f01c65a	0.50693285
86	0x3e0345fe	0.12819669
87	0x3d271c01	0.04079819
88	0x3d5851e5	0.052812476
89	0x3ecba569	0.39774635
90	0xbcfbfe5e	-0.03076094
91	0xbf312551	-0.69197565
92	0x3f332e6e	0.6999272
93	0x3dcd305d	0.1001899
94	0x3df76f87	0.12081819
95	0x3cafb48f	0.021448402
96	0x3eb4200d	0.35180703
97	0xbe924020	-0.28564548
98	0x3e886ed1	0.26647046
99	0xbeb4266a	-0.35185558
100	0x3e0d8838	0.13821495
101	0x3e062cb8	0.13102996
102	0xbddb6292	-0.1071216
103	0xbea0dc2b	-0.31417975
104	0x3e1f96b0	0.15584826
105	0xbed7766f	-0.42082545
106	0x3cd52a3b	0.026021114
107	0xbebd2950	-0.3694558
108	0xbe0ac40e	-0.13551351
109	0x3f1d98ca	0.6156126
110	0x3cac4a93	0.021031654
111	0xbe10d176	-0.14142403
112	0xbc0a6fc9	-0.008449503
113	0xbd91fccf	-0.071282975
114	0x3e709611	0.23494746
115	0x3f20c160	0.62795067
116	0x3e258df5	0.16167434
117	0xbd45ec73	-0.0483212
118	0x3e519c47	0.20469771
119	0xbf415c69	-0.7553163
120	0xbe03935f	-0.12849186
121	0x3f556c10	0.83368015
122	0xbf31162f	-0.69174474

_weights f4 [123]
0	0x3d83238d	0.06403265
1	0x3ecedec5	0.40404335
2	0x3f2c0531	0.6719542
3	0xbde1d58f	-0.11027061
4	0x3ea39155	0.31946817
5	0x3d842f9b	0.064543925
6	0x3e031cd7	0.1280397
7	0xbe8e5fc7	-0.27807447
8	0x3f01a835	0.5064729
9	0xbe89afa6	-0.26891822
10	0xbe4ea820	-0.20181322
11	0x3ed227e5	0.41046062
12	0xbe038b5d	-0.12846132
13	0x3e816c8f	0.25278136
14	0xbdf494c4	-0.11942437
15	0xbe2d3fcc	-0.16918868
16	0x3e6578fd	0.22409435
17	0x3e87fd79	0.26560572
18	0xbeb3580e	-0.35028118
19	0x3dcc60f2	0.09979428
20	0xbe4b3aff	-0.19846724
21	0x3e0e6e25	0.13909204
22	0xbe6ff2cc	-0.23432463
23	0xbe952fe2	-0.29138094
24	0x3e79af54	0.24383289
25	0xbf056b82	-0.5211717
26	0x3f171a93	0.59024924
27	0x3eb0ded9	0.3454502
28	0xbd84732c	-0.0646728
29	0xbc2a7468	-0.01040373
30	0xbe9d4aef	-0.30721232
31	0xbe093892	-0.13400486
32	0xbed7da95	-0.42158952
33	0xbdea395f	-0.11436724
34	0xbea14982	-0.31501395
35	0x3c7e86af	0.015535041
36	0xbdc1b9b2	-0.09459247
37	0xbe8da33f	-0.2766361
38	0xbc90ca74	-0.017674662
39	0x3e85f564	0.2616378
40	0xbd8c6ad6	-0.06856315
41	0x3e8c583d	0.2741107
42	0xbecabd3e	-0.39597505
43	0x3e259618	0.16170537
44	0x3eb78203	0.3584138
45	0xbaf98544	-0.0019036909
46	0x3ea452e4	0.3209449
47	0x3e5ea738	0.21743476
48	0x3d06e1e0	0.032930255
49	0xbecca7f9	-0.39971903
50	0x3e8d1e72	0.2756229
51	0xbeadbeb7	-0.33934566
52	0x3f0dfff2	0.55468667
53	0x3efab090	0.48962831
54	0xbe6f9924	-0.23398262
55	0x3e120fdb	0.14263861
56	0xbe926f36	-0.28600472
57	0x3e45b4dc	0.19307274
58	0x3e2d6b21	0.16935398
59	0x3e646bbf	0.22306727
60	0xbddf0069	-0.1088875
61	0xbd221072	-0.039566465
62	0x3e81586e	0.2526278
63	0x3e1694fa	0.14705268
64	0x3e57c006	0.21069345
65	0x3e68020d	0.22657032
66	0x3d3c198a	0.045922793
67	0x3d472ef4	0.048628762
68	0xbe9915a6	-0.2989933
69	0x3ec7b192	0.39002663
70	0x3f346b73	0.70476454
71	0x3ee9c6ef	0.45659587
72	0x3ec88058	0.3916042
73	0x3dda6ecd	0.10665665
74	0xbdc47dfd	-0.09594343
75	0xbe302c50	-0.17204404
76	0xbdbb5b01	-0.09148217
77	0xbebb85d2	-0.36625534
78	0x3eaff343	0.3436528
79	0xbe45f3ff	-0.19331358
80	0x3e3c28e6	0.18374977
81	0x3e991e29	0.29905823
82	0xbdc0a435	-0.0940632
83	0x3dcad4de	0.099038824
84	0x3bd843fe	0.006599902
85	0x3f01c65a	0.50693285
86	0x3e0345fe	0.12819669
87	0x3d271c01	0.04079819
88	0x3d5851e5	0.052812476
89	0x3ecba569	0.39774635
90	0xbcfbfe5e	-0.03076094
91	0xbf312551	-0.69197565
92	0x3f332e6e	0.6999272
93	0x3dcd305d	0.1001899
94	0x3df76f87	0.12081819
95	0x3cafb48f	0.021448402
96	0x3eb4200d	0.35180703
97	0xbe924020	-0.28564548
98	0x3e886ed1	0.26647046
99	0xbeb4266a	-0.35185558
100	0x3e0d8838	0.13821495
101	0x3e062cb8	0.13102996
102	0xbddb6292	-0.1071216
103	0xbea0dc2b	-0.31417975
104	0x3e1f96b0	0.15584826
105	0xbed7766f	-0.42082545
106	0x3cd52a3b	0.026021114
107	0xbebd2950	-0.3694558
108	0xbe0ac40e	-0.13551351
109	0x3f1d98ca	0.6156126
110	0x3cac4a93	0.021031654
111	0xbe10d176	-0.14142403
112	0xbc0a6fc9	-0.008449503
113	0xbd91fccf	-0.071282975
114	0x3e709611	0.23494746
115	0x3f20c160	0.62795067
116	0x3e258df5	0.16167434
117	0xbd45ec73	-0.0483212
118	0x3e519c47	0.20469771
119	0xbf415c69	-0.7553163
120	0xbe03935f	-0.12849186
121	0x3f556c10	0.83368015
122	0xbf31162f	-0.69174474
