output/train_angle_autoencoder16_20260210_081235/checkpoints/train_angle_autoencoder16_20260210_081235_checkpoint.pth.tar (torch, 6535 bytes, 4 tensors)

weight f4 [123]
0.2099499 0.36371163 0.049315285 -0.0813704 -0.40135616 -0.18709853 -0.13036971 0.2811715
0.45307112 0.08961741 -0.19298294 0.3988676 -0.017282335 0.39265475 0.07075379 -0.06686901
-0.5066933 -0.12657206 0.010527394 0.08656847 -0.029647125 0.11385962 0.36041066 0.3268468
-0.11911868 0.35225666 0.29748675 0.210052 -0.4970611 0.41810602 -0.003077478 0.43896726
0.030455803 -0.0050466424 0.48520842 -0.188108 0.033050414 0.23932418 -0.031945515 -0.08267573
-0.41367304 -0.22535506 0.3845016 -0.4102223 0.22588389 -0.39614147 -0.17895524 0.12507486
0.030638909 0.4464299 -0.1891649 -0.45459825 -0.02353963 0.32244775 0.41211146 -0.29069057
-0.3475113 -0.32285634 0.11999407 0.03834018 0.44146538 -0.121662416 -0.09915383 0.15655687
0.38411564 -0.31473643 -0.10445962 0.34818485 -0.04491232 0.4647938 -0.42259893 -0.48569816
-0.029519679 -0.49315786 0.15465967 0.38413015 -0.3561609 -0.24906212 -0.3320408 -0.3784375
-0.1499376 0.30946228 0.17886631 -0.077085726 0.4639659 0.05216367 -0.3451183 -0.35266125
0.24015264 -0.16820696 0.44863597 -0.06006508 0.04287736 0.3355778 0.42724925 -0.38865945
0.17587204 0.49222618 0.07183734 -0.13468716 -0.2405518 -0.15952049 -0.46608302 0.29009435
-0.39600825 0.29699567 -0.1411542 0.32833582 -0.28257313 -0.21973106 -0.24351542 0.39536968
-0.15907878 0.33416775 0.2696516 -0.39962372 -0.4181813 0.092645 0.45879003 0.086932704
0.48713633 0.42086348 -0.4932357
00000000: 1bfd 563e 6938 ba3e d3fe 493d 86a5 a6bd
00000010: 8e7e cdbe c296 3fbe a37f 05be b6f5 8f3e
00000020: f0f8 e73e 5589 b73d 529d 45be 6038 cc3e
00000030: af93 8dbc 0b0a c93e 5de7 903d 9ff2 88bd
00000040: a7b6 01bf 1b9c 01be 177b 2c3c cf4a b13d
00000050: 87de f2bc 3c2f e93d bf87 b83e 7758 a73e
00000060: 7ff4 f3bd fc5a b43e 2f50 983e df17 573e
00000070: cb7e febe fe11 d63e 83af 49bb 51c0 e03e
00000080: 737e f93c 4e5e a5bb 3d6d f83e 629f 40be
00000090: df5f 073d 6611 753e 4dd9 02bd e551 a9bd
000000a0: f4cc d3be 7ac3 66be 65dd c43e a808 d2be
000000b0: 1b4e 673e 0ed3 cabe 0b40 37be a013 003e
000000c0: 73fe fa3c 7692 e43e 72b4 41be 1ac1 e8be
000000d0: 2fd6 c0bc df17 a53e 4600 d33e 65d5 94be
000000e0: 00ed b1be 6d4d a5be 73bf f53d 980a 1d3d
000000f0: c007 e23e 252a f9bd 2a11 cbbd 7250 203e
00000100: ceaa c43e 2225 a1be edee d5bd 4945 b23e
00000110: fbf5 37bd 74f9 ed3e e35e d8be 6ead f8be
00000120: 41d3 f1bc 307f fcbe 1b5f 1e3e b5ac c43e
00000130: b95a b6be 240a 7fbe 4001 aabe 8fc2 c1be
00000140: 3e89 19be d771 9e3e bb28 373e 1fdf 9dbd
00000150: f08c ed3e 93a9 553d 59b3 b0be 0490 b4be
00000160: 93ea 753e 723e 2cbe 9db3 e53e cd06 76bd
00000170: 2ca0 2f3d dad0 ab3e 6ac0 da3e 5ffe c6be
00000180: cd17 343e 1205 fc3e 751f 933d 6eeb 09be
00000190: 3653 76be 5759 23be 6fa2 eebe 3f87 943e
000001a0: 98c1 cabe d10f 983e ba8a 10be a21b a83e
000001b0: 6dad 90be 2e01 61be 1b5c 79be e56d ca3e
000001c0: 8ce5 22be 0918 ab3e c60f 8a3e 7b9b ccbe
000001d0: dc1b d6be a9bc bd3d 87e6 ea3e c609 b23d
000001e0: ef69 f93e 6b7b d73e 6489 fcbe

_weights f4 [123]
0.2099499 0.36371163 0.049315285 -0.0813704 -0.40135616 -0.18709853 -0.13036971 0.2811715
0.45307112 0.08961741 -0.19298294 0.3988676 -0.017282335 0.39265475 0.07075379 -0.06686901
-0.5066933 -0.12657206 0.010527394 0.08656847 -0.029647125 0.11385962 0.36041066 0.3268468
-0.11911868 0.35225666 0.29748675 0.210052 -0.4970611 0.41810602 -0.003077478 0.43896726
0.030455803 -0.0050466424 0.48520842 -0.188108 0.033050414 0.23932418 -0.031945515 -0.08267573
-0.41367304 -0.22535506 0.3845016 -0.4102223 0.22588389 -0.39614147 -0.17895524 0.12507486
0.030638909 0.4464299 -0.1891649 -0.45459825 -0.02353963 0.32244775 0.41211146 -0.29069057
-0.3475113 -0.32285634 0.11999407 0.03834018 0.44146538 -0.121662416 -0.09915383 0.15655687
0.38411564 -0.31473643 -0.10445962 0.34818485 -0.04491232 0.4647938 -0.42259893 -0.48569816
-0.029519679 -0.49315786 0.15465967 0.38413015 -0.3561609 -0.24906212 -0.3320408 -0.3784375
-0.1499376 0.30946228 0.17886631 -0.077085726 0.4639659 0.05216367 -0.3451183 -0.35266125
0.24015264 -0.16820696 0.44863597 -0.06006508 0.04287736 0.3355778 0.42724925 -0.38865945
0.17587204 0.49222618 0.07183734 -0.13468716 -0.2405518 -0.15952049 -0.46608302 0.29009435
-0.39600825 0.29699567 -0.1411542 0.32833582 -0.28257313 -0.21973106 -0.24351542 0.39536968
-0.15907878 0.33416775 0.2696516 -0.39962372 -0.4181813 0.092645 0.45879003 0.086932704
0.48713633 0.42086348 -0.4932357
00000000: 1bfd 563e 6938 ba3e d3fe 493d 86a5 a6bd
00000010: 8e7e cdbe c296 3fbe a37f 05be b6f5 8f3e
00000020: f0f8 e73e 5589 b73d 529d 45be 6038 cc3e
00000030: af93 8dbc 0b0a c93e 5de7 903d 9ff2 88bd
00000040: a7b6 01bf 1b9c 01be 177b 2c3c cf4a b13d
00000050: 87de f2bc 3c2f e93d bf87 b83e 7758 a73e
00000060: 7ff4 f3bd fc5a b43e 2f50 983e df17 573e
00000070: cb7e febe fe11 d63e 83af 49bb 51c0 e03e
00000080: 737e f93c 4e5e a5bb 3d6d f83e 629f 40be
00000090: df5f 073d 6611 753e 4dd9 02bd e551 a9bd
000000a0: f4cc d3be 7ac3 66be 65dd c43e a808 d2be
000000b0: 1b4e 673e 0ed3 cabe 0b40 37be a013 003e
000000c0: 73fe fa3c 7692 e43e 72b4 41be 1ac1 e8be
000000d0: 2fd6 c0bc df17 a53e 4600 d33e 65d5 94be
000000e0: 00ed b1be 6d4d a5be 73bf f53d 980a 1d3d
000000f0: c007 e23e 252a f9bd 2a11 cbbd 7250 203e
00000100: ceaa c43e 2225 a1be edee d5bd 4945 b23e
00000110: fbf5 37bd 74f9 ed3e e35e d8be 6ead f8be
00000120: 41d3 f1bc 307f fcbe 1b5f 1e3e b5ac c43e
00000130: b95a b6be 240a 7fbe 4001 aabe 8fc2 c1be
00000140: 3e89 19be d771 9e3e bb28 373e 1fdf 9dbd
00000150: f08c ed3e 93a9 553d 59b3 b0be 0490 b4be
00000160: 93ea 753e 723e 2cbe 9db3 e53e cd06 76bd
00000170: 2ca0 2f3d dad0 ab3e 6ac0 da3e 5ffe c6be
00000180: cd17 343e 1205 fc3e 751f 933d 6eeb 09be
00000190: 3653 76be 5759 23be 6fa2 eebe 3f87 943e
000001a0: 98c1 cabe d10f 983e ba8a 10be a21b a83e
000001b0: 6dad 90be 2e01 61be 1b5c 79be e56d ca3e
000001c0: 8ce5 22be 0918 ab3e c60f 8a3e 7b9b ccbe
000001d0: dc1b d6be a9bc bd3d 87e6 ea3e c609 b23d
000001e0: ef69 f93e 6b7b d73e 6489 fcbe

exp_avg f4 [123]
-0.041826464 -0.0073953406 0.0022399102 -0.00012339768 -0.026677994 0.028750505 -0.008254784 0.01394971
0.0039855004 -0.007683282 -0.030707723 0.0073420075 0.023098823 0.0006454562 0.04370641 0.010699316
0.006952311 -0.01944723 0.017550476 0.00060652755 0.0063258307 -0.009974415 -0.0035046535 0.0104659125
-0.024869649 -0.034438614 -0.00855803 -0.004660771 0.019230144 0.0014483625 0.022630854 -0.013976229
0.029638782 0.015547623 -0.0053604916 -0.0046642623 -0.0019098514 0.013512005 0.014575765 0.019522602
-0.02630077 -0.011294416 0.0042093196 -0.02061624 -0.017890323 -0.014101745 -0.024548627 -0.05985209
-0.017357597 -0.04542942 0.026741624 -0.05958519 -0.0053993426 -0.006684705 -0.013139624 0.0039855097
0.016697211 0.023719275 0.0023926804 -0.013669039 -0.014129329 -0.011749151 0.014652349 -0.009701028
-0.01862098 0.0035215826 0.032153852 0.00012671939 0.026866822 -0.006319595 -0.03785961 0.010372823
-0.008799192 -0.014957608 0.029969105 0.03920425 -0.005767928 0.024493804 -4.5183173e-05 -0.0021781079
0.017679987 -0.018312225 -0.04401508 -0.011877517 0.029361403 0.023285627 -0.021061491 -0.016066963
-0.008318309 -0.009006755 0.027732603 -0.021592325 -0.019866822 0.006342257 -0.0053232457 0.025254384
-0.027239032 0.027592184 0.023083169 0.005982643 -0.011675001 -0.0074562724 0.0020562906 -0.011533027
0.05099194 -0.010172131 0.0010894405 -0.02181613 0.012942199 0.028020518 0.012299837 0.018467586
-0.041977327 0.0125064105 -0.010500416 0.057965696 0.03424993 -0.0060027437 -0.022959018 0.10364624
0.005841602 -0.035817966 0.100597315
00000000: 3a52 2bbd 9d54 f2bb 75cb 123b 5064 01b9
00000010: cf8b dabc 2e86 eb3c 133f 07bc 538d 643c
00000020: cd98 823b 0ac4 fbbb c38e fbbc 3995 f03b
00000030: be39 bd3c d533 293a 7e05 333d 2f4c 2f3c
00000040: 36d0 e33b cc4f 9fbc 04c6 8f3c 60ff 1e3a
00000050: ea48 cf3b bb6b 23bc 54ae 65bb 3879 2b3c
00000060: 6fbb cbbc 810f 0dbd fb36 0cbc 62b9 98bb
00000070: 8988 9d3c fbd6 bd3a 5764 b93c 8efc 64bc
00000080: 08cd f23c 75bb 7e3c 10a7 afbb abd6 98bb
00000090: fb53 faba 7561 5d3c 30cf 6e3c dded 9f3c
000000a0: b674 d7bc 370c 39bc 55ee 893b 64e3 a8bc
000000b0: ba8e 92bc 010b 67bc 341a c9bc 7727 75bd
000000c0: 8531 8ebc 3314 3abd 4011 db3c 9a0f 74bd
000000d0: f8ec b0bb 5f0b dbbb 9447 57bc e198 823b
000000e0: 97c8 883c ed4e c23c 84ce 1c3b 1bf4 5fbc
000000f0: b37e 67bc 837f 40bc 6810 703c 0ff1 1ebc
00000100: 078b 98bc 5aca 663b c2b3 033d fadf 0439
00000110: cf17 dc3c 9b14 cfbb ae12 1bbd c6f2 293c
00000120: 7c2a 10bc c110 75bc c581 f53c a394 203d
00000130: e300 bdbb 3ba7 c83c 1083 3db8 96be 0ebb
00000140: 9fd5 903c 8503 96bc 2849 34bd eb99 42bc
00000150: 5387 f03c 80c1 be3c 2689 acbc dd9e 83bc
00000160: 8449 08bc 1291 13bc 7c2f e33c 63e2 b0bc
00000170: bfbf a2bc b5d2 cf3b 9f6e aebb 48e2 ce3c
00000180: 6424 dfbc 0109 e23c ea18 bd3c 0c0a c43b
00000190: 8148 3fbc bf53 f4bb d5c2 063b 05f5 3cbc
000001a0: eddc 503d 02a9 26bc 8fcb 8e3a beb7 b2bc
000001b0: 840b 543c 498b e53c 4185 493c 5649 973c
000001c0: 6bf0 2bbd b0e7 4c3c f009 2cbc 706d 6d3d
000001d0: a849 0c3d aab2 c4bb 8d14 bcbc 7b44 d43d
000001e0: e96a bf3b dcb5 12bd f705 ce3d

exp_avg_sq f4 [123]
0.00018006137 0.00021507479 0.00018278793 0.00022766503 0.00016845578 0.00022031841 0.00012184129 0.00016110502
0.00016017738 0.00013347669 0.00023295917 0.00013837549 0.00012655638 0.00014254861 0.00023289445 0.00013202695
0.0001839555 0.0001484659 0.000116295334 0.00010523518 0.00014385855 0.00016892946 0.00010746682 9.9337085e-05
0.00011605002 0.00019993074 6.490839e-05 9.707918e-05 0.00017477392 0.00016280064 0.00022790286 0.0002784083
0.00020306873 0.00021251479 0.00018453575 0.00015774915 0.00014294489 0.00016727218 0.000104795094 8.248212e-05
0.00017015087 0.00010780326 0.0001438768 0.00020352038 0.00014218548 0.000162486 0.00019869876 0.0002847139
0.00014542171 0.00021212653 0.00017196177 0.00019355949 0.00013149221 0.00015805871 0.00024810864 0.000115106166
0.00016241545 0.00020263006 0.00011079259 0.00013813887 0.00016876153 0.00017807064 0.00017808579 0.00022029506
0.00013636099 0.00015434883 0.00015611341 0.00017629795 0.00013094064 0.00016022554 0.00027589832 0.00017889631
0.00017129886 0.0001444042 0.00016292527 0.00032677036 0.00017417358 0.00019557733 0.0001932821 0.00012932593
0.00015432699 0.000105936044 0.00018299556 0.00016843024 0.00012649795 0.00019908574 9.09573e-05 0.00012693755
0.00019156633 0.00018218673 0.00016424427 0.0001144389 0.0002311059 0.00019388917 0.00013208236 0.00011080187
0.000110684596 0.00011033251 0.00014034503 0.00013928085 0.00023207962 0.00022916595 0.00017659865 0.00014788176
0.00022936362 9.030324e-05 0.00019050235 0.00022940476 0.000110138004 0.00015757869 0.00018766265 0.00015679425
0.00020281666 0.00023655966 0.00010242558 0.00016049566 0.00018916937 0.00016835824 0.00013651609 0.0005604325
0.0002021165 0.00012582565 0.00039695002
00000000: dbce 3c39 b385 6139 c3aa 3f39 5eb9 6e39
00000010: 81a3 3039 4605 6739 0b85 ff38 4dee 2839
00000020: 4af5 2739 e0f5 0b39 8046 7439 e318 1139
00000030: 38b4 0439 1a79 1539 2135 7439 b770 0a39
00000040: 2ee4 4039 83ad 1b39 95e3 f338 b5b1 dc38
00000050: bcd8 1639 a822 3139 cf5f e138 3153 d038
00000060: e15f f338 80a4 5139 6d1f 8838 fd96 cb38
00000070: 8443 3739 77b5 2a39 35f9 6e39 54f7 9139
00000080: d9ee 5439 81d6 5e39 f07f 4139 7769 2539
00000090: 7ae3 1539 c965 2f39 70c5 db38 40fa ac38
000000a0: 876a 3239 6f14 e238 a2dd 1639 1668 5539
000000b0: a017 1539 0161 2a39 cb59 5039 a745 9539
000000c0: 587c 1839 486e 5e39 a350 3439 3bf6 4a39
000000d0: 2ce1 0939 90bc 2539 9414 8239 2765 f138
000000e0: 114e 2a39 1879 5439 5259 e838 5fd9 1039
000000f0: 94f5 3039 79b8 3a39 8abc 3a39 01ff 6639
00000100: 20fc 0e39 b3d8 2139 60b2 2339 9fdc 3839
00000110: 1c4d 0939 3702 2839 72a6 9039 1d96 3b39
00000120: b09e 3339 356b 1739 ebd6 2a39 6052 ab39
00000130: 5da2 3639 e413 4d39 c5ab 4a39 aa9b 0739
00000140: d6d2 2139 fb29 de38 7fe2 3f39 a69c 3039
00000150: 89a4 0439 acc1 5039 54c0 be38 8a1a 0539
00000160: 32df 4839 6109 3f39 fc38 2c39 ebfe ef38
00000170: 0555 7239 ba4e 4b39 977f 0a39 4d5e e838
00000180: 571f e838 5162 e738 9529 1339 eb0b 1239
00000190: 665a 7339 444c 7039 572d 3939 b510 1b39
000001a0: 5481 7039 2f61 bd38 96c1 4739 5f8c 7039
000001b0: e4f9 e638 b53b 2539 4fc7 4439 2369 2439
000001c0: 2fab 5439 000d 7839 51cd d638 ba4a 2839
000001d0: c45b 4639 5289 3039 c225 0f39 fde9 123a
000001e0: 3cef 5339 11f0 0339 bb1d d039
