output/train_angle_raw_20260210_143448/model/train_angle_raw_20260210_143448_hybrid_e2e.pth (torch, 840277 bytes, 20 tensors)

encoder.0.weight f4 [16, 1, 3, 3]
-0.18926343 -0.00273184 0.28162515 -0.28021348 0.28033623 0.18694898 -0.09308593 0.23215911
0.23208885 0.07873567 0.12032871 0.24253826 0.16875784 0.19823241 -0.05189387 -0.15318565
-0.15958032 0.12469523 0.13741764 0.20002267 -0.15254073 -0.046099663 -0.3028565 -0.21081695
0.23136036 0.07461338 -0.18239653 0.16281562 -0.30050716 -0.17017488 0.0070454283 0.049086254
-0.2646304 -0.12409501 -0.059212886 0.15089314 -0.11135332 0.31536716 0.16135399 -0.23690102
0.26338106 0.12486812 -0.009547512 -0.23951873 0.23077342 -0.019141197 0.313147 -0.3018788
-0.14867744 -0.23998103 0.072071716 -0.103608415 0.14118955 -0.27547252 0.251198 -0.19410741
0.25494784 -0.054444157 -0.22068548 0.15064725 0.13501 -0.081002794 0.2766022 0.2514534
0.13173799 0.15353589 -0.19186863 -0.038196526 0.04275521 -0.2723088 0.23108546 -0.26467496
-0.17370038 0.32093883 0.1300333 0.071030065 0.16313899 -0.28457534 0.13399026 0.24658132
-0.1524092 -0.290662 0.060895085 -0.3126163 0.0643245 0.281345 0.0036890905 0.21262965
-0.3208613 0.13895702 -0.12839727 0.16889378 -0.063636385 0.12446173 0.059914272 -0.31858343
0.06629467 -0.28408462 0.27231738 0.19171214 -0.13305807 0.16377434 0.02446723 -0.25382847
-0.29687816 -0.16221397 -0.20865476 0.23991053 -0.14843845 -0.31074 0.13368678 0.1340332
0.08765054 -0.03146593 0.1379298 0.0029948156 0.14186144 -0.18986842 -0.25694156 0.2610855
0.21487789 -0.23009627 0.29331148 -0.060665965 0.28454643 -0.2576167 -0.30467707 0.014415225
0.19365852 0.05763813 -0.27655768 0.3172984 0.074803114 -0.17658524 0.30960795 0.29012808
-0.30085894 -0.062207542 0.19067685 -0.02452914 0.28014183 -0.26299238 0.051304184 0.33138224
00000000: 46ce 41be ab08 33bb 2c31 903e 2478 8fbe
00000010: 3b88 8f3e 8e6f 3f3e d6a3 bebd 1ebb 6d3e
00000020: b3a8 6d3e 2b40 a13d e66e f63d f35b 783e
00000030: dbce 2c3e 70fd 4a3e ab8e 54bd b3dc 1cbe
00000040: 0669 23be 3660 ff3d 36b7 0c3e bed2 4c3e
00000050: a333 1cbe 00d3 3cbd 0210 9bbe 66e0 57be
00000060: bbe9 6c3e e6ce 983d 28c6 3abe 23b9 263e
00000070: 13dc 99be 5342 2ebe 56dd e63b ab0e 493d
00000080: a37d 87be 8625 febd 3689 72bd bb83 1a3e
00000090: 360d e4bd ce77 a13e fb39 253e 2e96 72be
000000a0: e2d9 863e dbba ff3d 2b6d 1cbc 6644 75be
000000b0: de4f 6c3e 00ce 9cbc ce54 a03e dc8f 9abe
000000c0: e63e 18be 96bd 75be 569a 933d a630 d4bd
000000d0: fe93 103e bc0a 8dbe 069d 803e 18c4 46be
000000e0: 8688 823e d600 5fbd 60fb 61be 4643 1a3e
000000f0: 1040 0a3e cbe4 a5bd ce9e 8d3e 80be 803e
00000100: 53e6 063e 8338 1d3e 3679 44be f673 1cbd
00000110: 1620 2f3d 0f6c 8bbe aba1 6c3e 7a83 87be
00000120: 83de 31be 1852 a43e 7327 053e 3678 913d
00000130: e80d 273e dcb3 91be be34 093e d07f 7c3e
00000140: 2811 1cbe a6d1 94be 206d 793d 3e0f a0be
00000150: 90bc 833d 740c 903e abc4 713b 96bb 593e
00000160: ef47 a4be c04a 0e3e 937a 03be 7ef2 2c3e
00000170: cb53 82bd cbe5 fe3d ab68 753d 5e1d a3be
00000180: 80c5 873d 8a73 91be 2f6d 8b3e 3050 443e
00000190: 6040 08be 76b4 273e 806f c83c cef5 81be
000001a0: 6a00 98be 6b1b 26be 98a9 55be 1bab 753e
000001b0: 4000 18be 5019 9fbe 30e5 083e 0040 093e
000001c0: 2082 b33d 6be2 00bd 783d 0d3e ab44 443b
000001d0: 2044 113e de6c 42be d88d 83be 00ad 853e
000001e0: f308 5c3e 5b9e 6bbe ec2c 963e e07c 78bd
000001f0: 12b0 913e 56e6 83be a2fe 9bbe d62d 6c3c
00000200: 6b4e 463e f615 6c3d f898 8dbe f074 a23e
00000210: 6032 993d c3d2 34be ef84 9e3e ab8b 943e
00000220: 2f0a 9abe 56cd 7ebd cb40 433e 56f1 c8bc
00000230: c06e 8f3e f0a6 86be 5624 523d efaa a93e

encoder.0.bias f4 [16]
-0.2956841 0.11301832 -0.18424925 0.2324216 -0.2846297 0.15309489 0.31268582 -0.19933629
-0.060736578 0.16306016 0.29398105 0.21439052 0.13805708 0.17426924 -0.060281318 -0.0982879
00000000: e863 97be 2676 e73d d6ab 3cbe eeff 6d3e
00000010: fcba 91be e8c4 1c3e 5b18 a03e d01e 4cbe
00000020: ebc6 78bd 3ef9 263e af84 963e 3089 5b3e
00000030: d65e 0d3e a373 323e 8be9 76bd 2b4b c9bd

encoder.1.weight f4 [16]
1.0 1.0 1.0 1.0 1.0 1.0 1.0 1.0
1.0 1.0 1.0 1.0 1.0 1.0 1.0 1.0
00000000: 0000 803f 0000 803f 0000 803f 0000 803f
00000010: 0000 803f 0000 803f 0000 803f 0000 803f
00000020: 0000 803f 0000 803f 0000 803f 0000 803f
00000030: 0000 803f 0000 803f 0000 803f 0000 803f

encoder.1.bias f4 [16]
0.0 0.0 0.0 0.0 0.0 0.0 0.0 0.0
0.0 0.0 0.0 0.0 0.0 0.0 0.0 0.0
00000000: 0000 0000 0000 0000 0000 0000 0000 0000
00000010: 0000 0000 0000 0000 0000 0000 0000 0000
00000020: 0000 0000 0000 0000 0000 0000 0000 0000
00000030: 0000 0000 0000 0000 0000 0000 0000 0000

encoder.1.running_mean f4 [16]
-0.0692925 0.3084886 -0.2740421 0.042810284 -0.11312617 -0.044354904 0.49210194 -0.18905719
0.0960915 0.11090365 0.2581723 0.060235742 0.19289735 0.19653638 0.014402319 0.07550023
00000000: 3ae9 8dbd 38f2 9d3e 3f4f 8cbe d659 2f3d
00000010: b2ae e7bd 7dad 35bd c9f4 fb3e 3598 41be
00000020: 9fcb c43d 7421 e33d 292f 843e c1b9 763d
00000030: e286 453e d540 493e b4f7 6b3c dd9f 9a3d

encoder.1.running_var f4 [16]
0.07289078 0.038360413 0.0214443 0.035339024 0.042280305 0.03426516 0.033444487 0.008712348
0.03261417 0.007500009 0.0036560746 0.027904397 0.0068188766 0.0064823623 0.026437938 0.031829294
00000000: c347 953d cf1f 1d3d f5ab af3c a7bf 103d
00000010: 1d2e 2d3d a059 0c3d 16fd 083d 3cbe 0e3c
00000020: 7096 053d a3c2 f53b c19a 6f3b c397 e43c
00000030: e270 df3b ff69 d43b 6094 d83c 6f5f 023d

encoder.3.weight f4 [32, 16, 3, 3]
-0.02105422 0.045901053 0.018358907 0.0043792827 -0.018327892 0.07721101 0.03685742 -0.07738052
0.044730436 -0.07581422 0.006683211 0.028856844 0.025836766 -0.056129813 -0.04507832 -0.031567793
-0.028954199 0.014127622 -0.0149144735 -0.036369316 0.005411486 0.0006605188 -0.030477464 -0.059583556
0.074513994 0.010875772 0.005115996 -0.004145801 0.049931884 0.02081455 -0.05208687 -0.03358727
0.08139449 -0.077236205 -0.076799445 -0.08328271 0.02616949 0.083022654 -8.29498e-06 -0.05192105
-0.012445888 -0.06533998 -0.07801971 -0.06072378 0.058462553 -0.035909176 -0.05156986 -0.04291016
0.05024634 -0.047297478 0.047947608 0.05788242 0.07279226 0.075324565 0.07058549 -0.061831824
-0.0031694374 -0.037543565 0.007360339 0.020701628 0.034427404 -0.075054854 0.021685382 0.077252954
-0.06988931 0.036864202 -0.07480206 0.0031377375 0.051531225 -0.03160597 0.024477094 -0.064850144
0.04627785 -0.0592902 -0.07310201 -0.074237905 0.020293515 -0.07621842 0.020028174 -0.06982969
-0.047834955 -0.025891822 0.008676152 0.05366103 -0.03286458 0.062064063 -0.04368984 -0.026230147
0.011363715 0.05619493 0.07828197 0.07509261 -0.07431575 -0.016017467 0.045467377 -0.007691761
0.04057964 -0.04752311 0.044064313 -0.036415618 0.016242575 0.02722624 -0.00050936145 -0.07351491
0.07111775 0.05643165 -0.007941842 0.03354008 -0.014069527 0.070011154 -0.041454427 0.026746523
-0.051174175 0.04061812 0.0565949 -0.022005837 -0.017508686 0.061277926 0.024797391 0.060040902
0.06546317 -0.04603096 -0.035703383 0.08153411 -0.006133884 0.048692297 -0.02015255 -0.060761046
0.012291402 -0.041564763 0.08308099 -0.031671595 -0.0012687247 -0.045202196 -0.06274526 -0.0029562912
0.025176268 0.054763578 0.025300017 0.051937055 -0.03798328 0.02584213 0.0068928003 -0.0755372
0.038137905 0.037682436 -0.010831734 0.07008651 0.061373066 0.013985625 0.015504539 -0.059966873
0.05208146 0.07684352 0.03356009 -0.06422284 0.07591968 -0.03249514 0.052367233 -0.0061133606
0.08133206 -0.054791413 0.018269688 0.060859155 0.044315003 -0.023168366 0.05206915 0.044929843
-0.0002022485 0.06963359 0.021858186 0.056087077 0.071777545 -0.053486686 0.051799905 0.011995107
0.030008227 0.03751731 0.041554682 -0.034231238 0.07678863 0.021024456 0.07513975 -0.06859672
0.040261947 -0.0611853 -0.055704575 -0.069764785 0.072988585 -0.023528695 0.060211234 0.04106941
-0.038547616 0.008152476 0.08099769 0.025291553 -0.08069305 0.037989985 0.06392988 0.036768716
-0.024799338 0.030881604 0.048690975 0.0791729 -0.056584697 -0.05657568 0.01907304 -0.049141914
-0.03960393 -0.0029510162 0.0077797472 -0.043145113 -0.070342064 -0.042329907 -0.0010096531 -0.06966119
-0.041519713 -0.04995052 0.035212815 -0.062444024 0.01044929 0.018939933 -0.041760366 -0.03533731
0.03563721 0.026679527 -0.034565084 -0.026983928 0.050859094 0.048257194 -0.06999087 -0.01890119
0.0650612 0.044335138 0.05565114 0.011254838 -0.04561194 -0.015443733 -0.024383705 -0.065201424
0.07914668 -0.010360032 0.045787387 0.025527408 -0.009024928 0.038724028 0.004114618 -0.010592898
0.017554333 -0.0023095708 0.029025685 0.04207366 0.033678405 -0.0754945 -0.031018239 -0.04033517
00000000: e679 acbc be02 3c3d 6b65 963c 1680 8f3b
00000010: 6024 96bc ce20 9e3d cef7 163d ae79 9ebd
00000020: 4337 373d 7c44 9bbd d6fe da3b 3065 ec3c
00000030: a0a7 d33c 60e8 65bd 0ba4 38bd 3b4d 01bd
00000040: 5b31 edbc 8b77 673c d65b 74bc fef7 14bd
00000050: d652 b13b ab26 2d3a e0ab f9bc e30d 74bd
00000060: cb9a 983d 4b30 323c 16a4 a73b 80d9 87bb
00000070: 6085 4c3d 4683 aa3c 0b59 55bd ce92 09bd
00000080: 28b2 a63d 042e 9ebd 0749 9dbd 2090 aabd
00000090: 6661 d63c c807 aa3d ab2a 0bb7 2bab 54bd
000000a0: d6e9 4bbc f8d0 85bd ccc8 9fbd 80b9 78bd
000000b0: 6e76 6f3d 8015 13bd eb3a 53bd 90c2 2fbd
000000c0: 1bcf 4d3d 00bb 41bd b664 443d 1e16 6d3d
000000d0: 1c14 953d c443 9a3d 208f 903d 5e43 7dbd
000000e0: 56b6 4fbb 48c7 19bd 002f f13b 7696 a93c
000000f0: c003 0d3d 5cb6 99bd 8ba5 b13c cc36 9e3d
00000100: 2022 8fbd ebfe 163d d331 99bd 80a2 4d3b
00000110: 6812 533d 4375 01bd 3084 c83c 27d0 84bd
00000120: d88d 3d3d 48da 72bd 82b6 95bd 0b0a 98bd
00000130: 963e a63c 6718 9cbd 2012 a43c de02 8fbd
00000140: 96ee 43bd 161b d4bc 6b26 0e3c abcb 5b3d
00000150: 039d 06bd e336 7e3d 1ef4 32bd 9be0 d6bc
00000160: e02e 3a3c a82c 663d 4c52 a03d 28ca 993d
00000170: db32 98bd 1037 83bc 003c 3a3d 2b0b fcbb
00000180: d636 263d 98a7 42bd c87c 343d 8b28 15bd
00000190: 260f 853c 9009 df3c ab86 05ba fc8e 96bd
000001a0: 2fa6 913d e024 673d 801e 02bc 5361 093d
000001b0: e083 66bc 0262 8f3d 1ecc 29bd 861b db3c
000001c0: 039c 51bd 305f 263d 0ed0 673d 9645 b4bc
000001d0: 606e 8fbc 90fe 7a3d e623 cb3c 73ed 753d
000001e0: 8e11 863d f68a 3cbd b63d 12bd 5bfb a63d
000001f0: c0fe c8bb 9371 473d f616 a5bc 93e0 78bd
00000200: e061 493c d03f 2abd 5e26 aa3d 13ba 01bd
00000210: 564b a6ba f025 39bd 9680 80bd 56be 41bb
00000220: 763e ce3c c64f 603d fb41 cf3c f3bb 543d
00000230: 5b94 1bbd e0b2 d33c 00dd e13b 3fb3 9abd
00000240: 7e36 1c3d e658 1a3d 9677 31bc 8489 8f3d
00000250: 5362 7b3d f623 653c c006 7e3c d39f 75bd
00000260: 5e53 553d 2360 9d3d 4e76 093d 4487 83bd
00000270: c77b 9b3d a019 05bd 067f 563d 9652 c8bb
00000280: 6c91 a63d f66c 60bd 50aa 953c 7347 793d
00000290: a683 353d 96cb bdbc 7646 553d 5b08 383d
000002a0: ab12 54b9 0e9c 8e3d f00f b33c 90bb 653d
000002b0: 1b00 933d db14 5bbd 232c 543d 2087 443c
000002c0: d0d3 f53c c0ab 193d 3e35 2a3d 0e36 0cbd
000002d0: 5b43 9d3d 7b3b ac3c dfe2 993d 707c 8cbd
000002e0: b6e9 243d 709d 7abd 7b2a 64bd d7e0 8ebd
000002f0: 0a7b 953d 40bf c0bc 0ea0 763d 6638 283d
00000300: 1be4 1dbd f691 053c 1ee2 a53d 3b30 cf3c
00000310: 6642 a5bd 639b 1b3d abed 823d cb9a 163d
00000320: fb27 cbbc 6bfb fc3c 3070 473d 6725 a23d
00000330: 5bc5 67bd e6bb 67bd 103f 9c3c 0849 49bd
00000340: bb37 22bd d665 41bb 40ed fe3b eeb8 30bd
00000350: 800f 90bd 2062 2dbd 5656 84ba 87aa 8ebd
00000360: 9310 2abd eb98 4cbd 503b 103d 4ec5 7fbd
00000370: 8033 2b3c eb27 9b3c eb0c 2bbd dbbd 10bd
00000380: 53f8 113d 068f da3c 1e94 0dbd 660d ddbc
00000390: a051 503d 56a9 453d 6057 8fbd abd6 9abc
000003a0: ce3e 853d c398 353d 73f2 633d 3666 383c
000003b0: 96d3 3abd b607 7dbc 56c0 c7bc 5388 85bd
000003c0: a817 a23d 20bd 29bc 8e8b 3b3d db1e d13c
000003d0: 4bdd 13bc 169d 1e3d ebd3 863b d68d 2dbc
000003e0: 1bce 8f3c 2b5c 17bb 46c7 ed3c 6e55 2c3d
000003f0: 5ef2 093d dc9c 9abd f619 febc 7e36 25bd

encoder.3.bias f4 [32]
-0.04301582 0.0091905 -0.046895765 -0.05098368 0.030020913 -0.017381271 0.0010636449 -0.07359362
0.076918274 0.07861096 -0.018777808 0.05498463 -0.0658664 0.0629863 -0.010241221 0.054614644
-0.026056072 -0.04637897 -0.04141017 0.032117724 0.01745702 -0.045972597 -0.07427477 -0.058031887
-0.022586584 -0.049116563 0.014648329 0.04707867 -0.011614194 0.034093253 -0.05364428 -0.007244875
00000000: 5b31 30bd c093 163c c615 40bd 43d4 50bd
00000010: 6bee f53c 2b63 8ebc 006a 8b3a 40b8 96bd
00000020: 5487 9d3d c8fe a03d ebd3 99bc 9037 613d
00000030: f7e4 86bd f6fe 803d cbca 27bc 9bb3 5f3d
00000040: 8b73 d5bc e0f7 3dbd b69d 29bd e08d 033d
00000050: 0602 8f3c c34d 3cbd 5f1d 98bd d8b2 6dbd
00000060: 8007 b9bc 732e 49bd 8bff 6f3c 90d5 403d
00000070: 7649 3ebc 5ea5 0b3d 1bba 5bbd 6b66 edbb

encoder.4.weight f4 [32]
1.0 1.0 1.0 1.0 1.0 1.0 1.0 1.0
1.0 1.0 1.0 1.0 1.0 1.0 1.0 1.0
1.0 1.0 1.0 1.0 1.0 1.0 1.0 1.0
1.0 1.0 1.0 1.0 1.0 1.0 1.0 1.0
00000000: 0000 803f 0000 803f 0000 803f 0000 803f
00000010: 0000 803f 0000 803f 0000 803f 0000 803f
00000020: 0000 803f 0000 803f 0000 803f 0000 803f
00000030: 0000 803f 0000 803f 0000 803f 0000 803f
00000040: 0000 803f 0000 803f 0000 803f 0000 803f
00000050: 0000 803f 0000 803f 0000 803f 0000 803f
00000060: 0000 803f 0000 803f 0000 803f 0000 803f
00000070: 0000 803f 0000 803f 0000 803f 0000 803f

encoder.4.bias f4 [32]
0.0 0.0 0.0 0.0 0.0 0.0 0.0 0.0
0.0 0.0 0.0 0.0 0.0 0.0 0.0 0.0
0.0 0.0 0.0 0.0 0.0 0.0 0.0 0.0
0.0 0.0 0.0 0.0 0.0 0.0 0.0 0.0
00000000: 0000 0000 0000 0000 0000 0000 0000 0000
00000010: 0000 0000 0000 0000 0000 0000 0000 0000
00000020: 0000 0000 0000 0000 0000 0000 0000 0000
00000030: 0000 0000 0000 0000 0000 0000 0000 0000
00000040: 0000 0000 0000 0000 0000 0000 0000 0000
00000050: 0000 0000 0000 0000 0000 0000 0000 0000
00000060: 0000 0000 0000 0000 0000 0000 0000 0000
00000070: 0000 0000 0000 0000 0000 0000 0000 0000

encoder.4.running_mean f4 [32]
-0.12694766 0.3443413 -0.21423166 0.019273076 0.011448225 -0.34481904 -0.16423124 -0.14797854
0.030782588 0.2871358 -0.056750167 -0.25532794 0.18848023 0.19577521 -0.016676094 -0.02971364
0.050011307 -0.17774871 -0.005637098 0.116056085 0.044326395 0.056874037 0.025776662 0.2637631
0.13684204 0.031150576 0.2736991 0.29173723 0.119738765 -0.03116081 -0.1574261 -0.026752966
00000000: 91fe 01be 814d b03e 8b5f 5bbe 92e2 9d3c
00000010: 5691 3b3c 1f8c b0be 3c2c 28be b087 17be
00000020: c42b fc3c 7703 933e dd72 68bd 58ba 82be
00000030: f600 413e 4c79 483e 4e9c 88bc 056a f3bc
00000040: a8d8 4c3d c203 36be 68b7 b8bb d0ae ed3d
00000050: 988f 353d c0f4 683d 9429 d33c f50b 873e
00000060: 5220 0c3e 7e2f ff3c 4a22 8c3e 955e 953e
00000070: 9939 f53d f444 ffbc 4f34 21be 0929 dbbc

encoder.4.running_var f4 [32]
0.11937465 0.07527147 0.20035736 0.08002403 0.1190915 0.08162728 0.13827227 0.10972676
0.05814448 0.072775505 0.1015378 0.3255157 0.11645222 0.13495699 0.15073931 0.09280819
0.20343465 0.1037857 0.11197402 0.06770772 0.05684724 0.10727191 0.110020846 0.09897872
0.34795833 0.13101138 0.11291646 0.15479045 0.08160246 0.13042164 0.04894537 0.05549142
00000000: b27a f43d ee27 9a3d 7b2a 4d3e a3e3 a33d
00000010: 3fe6 f33d 342c a73d 3f97 0d3e 6cb8 e03d
00000020: e828 6e3d 530b 953d 0df3 cf3d fea9 a63e
00000030: 807e ee3d 2a32 0a3e 685b 1a3e 3812 be3d
00000040: 2c51 503e 998d d43d a352 e53d 58aa 8a3d
00000050: a7d8 683d 60b1 db3d 9c52 e13d 5bb5 ca3d
00000060: 9827 b23e d927 063e bf40 e73d 6381 1e3e
00000070: 311f a73d 408d 053e f17a 483d f94a 633d

encoder.7.weight f4 [128, 1568]
0.0049743545 0.021238405 -0.018887972 -0.019324167 0.023508841 0.020551998 -0.007486858 0.024727574
0.022381777 0.011656416 0.00800801 0.02009388 -0.0057484056 0.00955911 0.0152068995 0.008225014
-0.00081183563 -0.00058956817 -0.0004198368 -0.02233615 0.0014931214 0.008593704 0.0068734344 0.024524303
0.003132393 0.003012419 -0.009991425 -0.02354217 0.0048046475 -0.01929123 -0.0028908825 -0.0015725952
0.010340178 -0.0012081184 0.00083569676 -0.0006040908 -0.013641966 0.0056774905 0.011907599 -0.015029259
-0.023208512 0.012058758 -0.017507358 -0.0026660983 -0.00672826 0.00028564123 -0.006126264 0.0034126726
0.005411767 -0.021958565 -0.013391444 0.008586926 0.006575014 0.006947553 0.014782856 0.007364984
-0.024272291 0.0012807343 -0.0062859226 -0.022431519 0.02061276 0.0012794549 0.013442608 0.016951784
0.0011622054 0.004095647 -0.008672837 -0.005588335 -0.020050848 -0.0024499753 0.018445494 0.012007393
0.004141298 0.014285166 0.008675194 -0.016244154 -0.024933154 -0.024056958 0.021106675 0.001175593
0.024303267 -0.012731033 -0.009399939 -0.01613622 -0.022121815 0.011639942 -0.018936118 -0.024323966
-0.0044791233 -0.018923165 -0.022315774 0.002437858 -0.006131653 -0.02116761 0.013369507 -0.009334618
0.008073313 0.014877738 0.006022249 -0.02121729 0.002066201 -0.004054235 0.002637342 0.0066137435
0.013200309 0.0072022914 0.011336671 -0.018324254 -0.0040379693 -0.005109068 0.020312225 -0.007240338
-0.023733107 -0.011856769 0.019209718 -0.013993907 0.010790725 -0.017298259 -0.023906698 0.017044848
0.012608016 0.009106501 0.017267384 0.005314754 0.020079967 -0.010090437 0.01725331 -0.02431523
-0.019257536 -0.009802252 -0.017905658 0.013603934 0.02300119 0.008687155 0.0042398344 -0.007222296
0.0035590334 -0.02516265 -0.022839257 0.013244135 0.012129689 0.008933816 0.0052495464 -0.014551594
0.0027272052 -0.020173823 -0.015471873 0.023205917 0.00810166 0.000121166166 -0.010626379 -0.024012309
-0.010187616 0.015231434 -0.021961818 0.010655205 -0.023409296 0.023649892 0.020586707 0.0026044284
0.017069688 0.0047254353 0.019848209 0.013112285 0.025143834 0.0041419696 -0.0027514847 -0.015386866
0.0016252788 0.010085048 0.01803566 -0.008401285 0.01627742 -0.022705277 -0.017992537 -0.019660205
0.012541728 0.020148605 -0.0066806306 -0.021228839 0.00052110065 0.007847951 0.012389858 -0.0014248315
0.018018486 0.010272848 0.012360455 0.010404305 -0.0017044547 -0.0010804676 -0.021611411 -0.012320357
0.004103631 0.022983681 0.0177188 -0.024461176 0.017635768 0.014628976 -0.019319769 -0.02452468
0.0109369205 0.015771275 -0.008239763 0.010036727 -0.022580978 0.010041667 -0.009556987 -0.0035607375
-0.0037324135 0.0020212515 0.0012956272 -0.018999664 0.019859595 0.009299425 0.012421263 -0.013913638
-0.01737497 -0.012834956 -0.0015935543 0.009111486 0.025080573 0.008696677 -0.004013575 0.019978534
0.017883128 -0.0015399435 -0.016830694 -0.0035079154 0.009102344 0.0244765 0.021090055 -0.022181366
-0.013699003 0.023774784 0.0029762238 -0.00054616295 0.021702053 -0.01250752 -0.023941355 0.0034861586
0.0071389806 -0.0071027675 0.01786155 -0.014919153 -0.0012553318 0.004765237 0.015623798 -0.00034658558
-0.0012743672 -0.02231017 -0.008783846 0.008456705 -0.010912436 0.010689344 -0.014621904 0.007430911
00000000: e9ff a23b 2afc ad3c f3ba 9abc b74d 9ebc
00000010: 9d95 c03c aa5c a83c 5154 f5bb 7b91 ca3c
00000020: fd59 b73c 8dfa 3e3c 0734 033c ec9b a43c
00000030: 1f5d bcbb d09d 1c3c 5c26 793c 36c2 063c
00000040: 5ed1 54ba 408d 1aba 8b1d dcb9 4dfa b6bc
00000050: d7b4 c33a 9bcc 0c3c 8c3a e13b 31e7 c83c
00000060: d548 4d3b 016c 453b 13b3 23bc 82db c0bc
00000070: 4e70 9d3b a408 9ebc f674 3dbb 8a1f ceba
00000080: da69 293c ba59 9eba a912 5b3a d95b 1eba
00000090: 8d82 5fbc 3e0a ba3b 1718 433c 483d 76bc
000000a0: c71f bebc 1992 453c 976b 8fbc b5b9 2ebb
000000b0: bc78 dcbb 1ec2 9539 d4be c8bb 25a7 5f3b
000000c0: 3155 b13b 73e2 b3bc ca67 5bbc 2eb0 0c3c
000000d0: 3773 d73b 4ca8 e33b cb33 723c f755 f13b
000000e0: afd6 c6bc 50de a73a 24fa cdbb 4ec2 b7bc
000000f0: 17dc a83c 62b3 a73a 623e 5c3c 78de 8a3c
00000100: 2455 983a c734 863b 8418 0ebc 5a1e b7bb
00000110: ad41 a4bc c48f 20bb 011b 973c a8ba 443c
00000120: bab3 873b 540c 6a3c 6722 0e3c 7612 85bc
00000130: 9d40 ccbc 1913 c5bc e8e7 ac3c 5b16 9a3a
00000140: a517 c73c d395 50bc 3402 1abc 1b30 84bc
00000150: cf38 b5bc 75b5 3e3c eb1f 9bbc 0e43 c7bc
00000160: 9cc5 92bb c104 9bbc 92cf b6bc 78c4 1f3b
00000170: 09ec c8bb b267 adbc c70b 5b3c 3af0 18bc
00000180: ee45 043c c2c1 733c 4956 c53b e2cf adbc
00000190: 1a69 073b 63d9 84bb 42d7 2c3b 1ab8 d83b
000001a0: 1c46 583c 3301 ec3b 72bd 393c bf1c 96bc
000001b0: f150 84bb f869 a7bb d365 a63c 5b40 edbb
000001c0: ef6b c2bc e542 42bc b35d 9d3c b346 65bc
000001d0: 95cb 303c 14b5 8dbc fbd7 c3bc a3a1 8b3c
000001e0: da91 4e3c 6f33 153c 5474 8d3c 6327 ae3b
000001f0: be7e a43c 5c52 25bc d056 8d3c bc30 c7bc
00000200: fbc1 9dbc a099 20bc e3ae 92bc 09e3 5e3c
00000210: fe6c bc3c 9254 0e3c 4fee 8a3b 03a9 ecbb
00000220: ac3e 693b e721 cebc 6519 bbbc eefd 583c
00000230: 9abb 463c 245f 123c 6304 ac3b cf69 6ebc
00000240: e9ba 323b 9343 a5bc bd7d 7dbc 561a be3c
00000250: d3bc 043c 971a fe38 441a 2ebc 76b5 c4bc
00000260: f5e9 26bc 448d 793c 45e9 b3bc 2b93 2e3c
00000270: dac4 bfbc 6bbd c13c 74a5 a83c 0faf 2a3b
00000280: bbd5 8b3c d3d7 9a3b b698 a23c e9d4 563c
00000290: 71fa cd3c 5cb9 873b 4152 34bb 3219 7cbc
000002a0: 4f07 d53a c23b 253c 85bf 933c 8ba5 09bc
000002b0: 3958 853c 6b00 babc 1665 93bc 700e a1bc
000002c0: d27b 4d3c b00e a53c 31e9 dabb 1ae8 adbc
000002d0: 799a 083a b194 003c d5fe 4a3c 69c1 baba
000002e0: 819b 933c 734f 283c 8183 4a3c d176 2a3c
000002f0: 0268 dfba 7a9e 8dba 6a0a b1bc 53db 49bc
00000300: c077 863b 4648 bc3c 0427 913c ce62 c8bc
00000310: e378 903c 5fae 6f3c 7e44 9ebc fbe7 c8bc
00000320: c530 333c c332 813c 1200 07bc 1671 243c
00000330: befb b8bc ce85 243c e994 1cbc 435b 69bb
00000340: 829b 74bb f976 043b 09d2 a93a 2fa5 9bbc
00000350: 97b0 a23c 9e5c 183c 8e82 4b3c 07f6 63bc
00000360: f455 8ebc b549 52bc cfde d0ba 5848 153c
00000370: c675 cd3c 827c 0e3c 4f84 83bb 06aa a33c
00000380: a37f 923c eed7 c9ba 86e0 89bc 0ee5 65bb
00000390: ff21 153c f182 c83c 0dc5 ac3c b2b5 b5bc
000003a0: c871 60bc 56c3 c23c c00c 433b 602c 0fba
000003b0: 81c8 b13c 57ec 4cbc a920 c4bc 0978 643b
000003c0: 1cee e93b 55be e8bb 6352 923c 776f 74bc
000003d0: f289 a4ba b525 9c3b f5fa 7f3c eeb5 b5b9
000003e0: ab08 a7ba d1c3 b6bc 1fea 0fbc fe8d 0a3c
000003f0: 13ca 32bc 5c22 2f3c b690 6fbc 007f f33b

encoder.7.bias f4 [128]
0.0033653807 0.018773621 -0.0014412988 -0.017327413 0.009749722 0.010289138 -0.022152241 -0.0071710455
-0.008685849 0.013605231 0.0036668752 -0.020634456 0.019245528 -0.02513909 -0.0082217455 -0.00091249734
-0.004544514 -0.009228353 0.006930893 0.006546598 -0.0040018884 -0.016916908 -0.0044462034 -0.0029613308
-0.022316149 0.010735772 -0.007953667 0.011987316 0.005503972 -0.019005062 0.01800024 -0.021916717
-0.0042486824 0.020804817 -0.012249072 -0.009776085 0.0021702738 -0.00867085 -0.015105879 0.019163279
-0.017467106 0.0232633 -0.0039206836 0.01751828 -0.007024477 -0.0055890754 0.0239676 0.0016409724
-0.017874597 0.0018465739 0.007659967 -0.012856219 -0.017927201 0.007919565 0.0142530855 -0.008679559
-0.019748354 0.014261392 0.0006363783 0.003750052 -0.0018211955 0.022729708 0.008746431 0.0050345254
-0.009543603 0.021385318 -0.024925772 -0.02133191 -0.024379637 0.016702946 0.009484019 0.014608925
0.01926798 0.0013304405 -0.012635279 -0.0165531 -0.016763546 0.01936633 -0.020074286 -0.022903211
-0.016505027 0.015363134 0.0019077229 0.020205254 -0.021336343 -0.019108629 0.018023709 -0.015274054
0.006183662 0.010321011 0.011434365 0.0022741326 0.0067123463 -0.018731749 0.011819587 -0.018297415
0.020968555 -0.014188153 0.016542125 0.013147957 -0.022882795 -0.015640458 -0.008583338 0.002445077
-0.018300153 0.0096458215 -0.008278234 0.025077555 -0.024679458 -0.006629287 0.0023751976 0.023599325
-0.024791613 -0.017904604 -0.0019748118 -0.014322775 -0.015996147 0.022553613 0.0063995835 -0.0017898864
-0.017799318 -0.017558513 0.011491814 -0.0061542224 0.011138548 -0.0032138447 0.009750246 0.015641088
00000000: b88d 5c3b 23cb 993c f6e9 bcba 38f2 8dbc
00000010: 4cbd 1f3c c693 283c 9e78 b5bc 17fb eabb
00000020: 174f 0ebc 7ae8 5e3c f54f 703b 9709 a9bc
00000030: cca8 9d3c 7ef0 cdbc 80b4 06bc a934 6fba
00000040: 26ea 94bb 8532 17bc 8b1c e33b d884 d63b
00000050: 4622 83bb 5495 8abc 75b1 91bb e312 42bb
00000060: 5bd0 b6bc 17e5 2f3c 1950 02bc 7366 443c
00000070: aa5a b43b 81b0 9bbc 3d75 933c b08a b3bc
00000080: 8838 8bbb dd6e aa3c 55b0 48bc df2b 20bc
00000090: 273b 0e3b 2e10 0ebc a67e 77bc 4ffc 9c3c
000000a0: 2d17 8fbc ad92 be3c 1479 80bb 7f82 8f3c
000000b0: 952d e6bb 9024 b7bb b357 c43c e615 d73a
000000c0: bf6d 92bc bd08 f23a 7600 fb3b e4a2 52bc
000000d0: 11dc 92bc 10c1 013c c685 693c b634 0ebc
000000e0: 4dc7 a1bc 9da8 693c a0d2 263a 6fc3 753b
000000f0: 2eb5 eeba a733 ba3c 314d 0f3c a9f8 a43b
00000100: c65c 1cbc 4330 af3c 2231 ccbc 42c0 aebc
00000110: ceb7 c7bc 9ed4 883c dc62 1b3c 465a 6f3c
00000120: e2d7 9d3c 2d62 ae3a 3404 4fbc 5e9a 87bc
00000130: b453 89bc 23a6 9e3c d472 a4bc 849f bbbc
00000140: 8d35 87bc a8b5 7b3c 8f0c fa3a 7d85 a53c
00000150: 8ec9 aebc b389 9cbc 75a6 933c 0740 7abc
00000160: 51a0 ca3b 7519 293c 3457 3b3c 9d09 153b
00000170: 3ef3 db3b 5373 99bc f1a6 413c 76e4 95bc
00000180: 3fc6 ab3c 6d75 68bc 5a83 873c 876a 573c
00000190: b374 bbbc 6b20 80bc 21a1 0cbc 963d 203b
000001a0: 34ea 95bc 8209 1e3c 6ea1 07bc 726f cd3c
000001b0: 932c cabc 7d3a d9bb 34a9 1b3b 5f53 c13c
000001c0: c817 cbbc adac 92bc d86b 01bb 13aa 6abc
000001d0: 5a0a 83bc 5bc2 b83c 99b3 d13b 9f9a eaba
000001e0: e0cf 91bc dfd6 8fbc 2948 3c3c 5ca9 c9bb
000001f0: 757e 363c 5e9f 52bb 7fbf 1f3c bd21 803c

encoder.9.weight f4 [16, 128]
-0.0016281328 0.07468017 -0.023937387 0.06359266 -0.08590373 -0.03434263 -0.035814863 0.0537221
0.044004682 -0.081795454 0.087278746 0.017959025 0.048404455 -0.016484158 0.067264006 0.07537397
0.050251804 0.073582835 -0.06738335 0.019272374 0.02539983 0.054646812 0.06969988 0.03448568
0.074822605 0.032643028 -0.05983726 0.007964996 -0.028857736 -0.02100995 0.06565055 -0.04129246
-0.045112785 -0.015360893 0.04062679 0.052464638 0.057286005 0.028267553 0.06868321 0.0008301875
0.08681339 0.078818865 0.06780031 -0.0005994441 0.00091224746 -0.07956778 0.02194579 0.039844733
0.02683473 -0.035894375 -0.037625723 -0.0400078 0.007208723 -0.021461122 0.011536657 0.058048483
-0.026343992 0.054253973 -0.024293486 0.036196504 0.0014668683 -0.076651976 -0.021181889 -0.015777556
0.03626413 0.016937638 0.011443238 -0.0029538618 -0.04435447 0.066961266 -0.049411047 -0.050602213
0.07130885 0.05644875 -0.016264163 -0.0703041 -0.031535316 -0.026188882 -0.06309631 -0.0011080933
0.06542617 0.010247743 -0.023032863 0.04736135 0.06991763 -0.074208684 0.07381479 0.022836996
-0.07898396 0.027369456 0.07326926 0.06948348 -0.018813225 0.07647966 0.07213491 0.018150466
-0.07841111 -0.0023997256 -0.04739922 -0.040921185 -0.050235882 -0.02969769 0.015845876 0.02407448
-0.034583405 0.0052668913 0.04434878 0.06573498 -0.028468372 0.080450736 0.07367373 -0.04849565
0.041104387 0.044822857 -0.06145452 0.08262122 0.07507388 -0.06530292 0.041158713 0.020892678
-0.0370277 0.070718914 0.039906047 0.072314695 -0.05806566 0.027676698 -0.054029528 -0.07092926
-0.034491505 0.0027272066 -0.07194767 0.08299593 -0.030434491 0.029812625 0.059097752 -0.048160266
0.038290884 0.041154817 -0.0044272523 -0.070712805 0.088069186 -0.033595074 0.00206744 0.047036737
-0.0024355503 0.042308543 -0.056098666 -0.002346199 0.017839981 0.041737065 0.05083656 -0.020381246
0.07705069 -0.022714484 -0.073593065 0.02324896 0.010011151 -0.06733723 -0.005048307 0.0852148
0.0073757404 0.012681038 0.027145963 0.017901842 0.018359683 0.0712982 -0.00030006448 -0.040716793
0.037001528 -0.068384714 0.032847956 0.05212073 -0.049792506 0.04714475 -0.035814136 -0.0067147515
0.061544966 0.0040010004 -0.031206738 0.0010494144 -0.06947968 -0.00907233 0.0022178092 -0.03950423
0.014315293 0.007934881 -0.05159068 -0.008350271 0.006593885 -0.02169824 -0.002987337 -0.008574039
0.011208417 -0.04691058 -0.022785945 0.028746078 -0.06775454 0.07560218 -0.019019198 0.013624685
0.011703811 0.024578324 -0.059972037 -0.033278223 0.04358468 0.06632464 -0.077886626 0.029767329
0.026235243 -0.0260595 0.06093425 0.009871898 -0.0078809755 -0.016917523 -0.041275356 -0.020327698
0.066939265 0.00024414615 -0.011019051 0.016034905 0.028429987 -0.026837785 -0.059237447 0.014438014
0.06384538 -0.06747688 0.047927804 -0.0378373 -0.023568729 -0.07620047 0.07126637 0.024946636
-0.04179627 0.048313163 0.036843807 -0.08534218 -0.023692735 0.08316674 -0.047828548 -0.056550227
0.04190858 -0.057325836 0.041238878 -0.023289485 0.018054519 -0.026231218 -0.015659608 0.01832075
-0.054919187 -0.0011267433 0.05101467 0.07358068 -0.010266161 0.037861094 -0.026292216 -0.05496594
00000000: 1267 d5ba ebf1 983d 5718 c4bc de3c 823d
00000010: 4bee afbd dcaa 0cbd 9bb2 12bd b40b 5c3d
00000020: 413e 343d 6084 a7bd 33bf b23d ce1e 933c
00000030: c043 463d c909 87bc b6c1 893d ab5d 9a3d
00000040: d6d4 4d3d 99b2 963d 4800 8abd 19e1 9d3c
00000050: 4e13 d03c 56d5 5f3d d0be 8e3d db40 0d3d
00000060: 983c 993d b2b4 053d ea17 75bd 9d7f 023c
00000070: 0f67 ecbc 0f1d acbc cc73 863d 4822 29bd
00000080: 2fc8 38bd 41ac 7bbc 4768 263d 29e5 563d
00000090: bba4 6a3d 5b91 e73c c8a9 8c3d f1a0 593a
000000a0: 38cb b13d c96b a13d e4da 8a3d 0324 1dba
000000b0: e423 6f3a 6ff4 a2bd a8c7 b33c 3b34 233d
000000c0: 82d4 db3c fb05 13bd 6e1d 1abd 38df 23bd
000000d0: 2737 ec3b 3ccf afbc 3f04 3d3c 3fc4 6d3d
000000e0: 5bcf d7bc 6a39 5e3d 2203 c7bc c942 143d
000000f0: ef43 c03a b6fb 9cbd a485 adbc ef3f 81bc
00000100: b289 143d cdc0 8a3c 6b7c 3b3c 9495 41bb
00000110: 08ad 35bd fd22 893d 3d63 4abd 4444 4fbd
00000120: 600a 923d ce36 673d 6c3c 85bc 99fb 8fbd
00000130: 2d2b 01bd 118a d6bc a338 81bd 713d 91ba
00000140: 28fe 853d 26e6 273c 6aaf bcbc fafd 413d
00000150: f930 8f3d b9fa 97bd 352c 973d a714 bb3c
00000160: 58c2 a1bd e935 e03c 320e 963d 5b4d 8e3d
00000170: 311e 9abc 5ea1 9c3d 78bb 933d 49b0 943c
00000180: 0196 a0bd b744 1dbb af25 42bd f99c 27bd
00000190: 24c4 4dbd 9248 f3bc 36cf 813c d837 c53c
000001a0: 54a7 0dbd e395 ac3b 11a7 353d 10a0 863d
000001b0: 8136 e9bc 5bc3 a43d 41e2 963d 60a3 46bd
000001c0: 135d 283d 2c98 373d bcb7 7bbd 5035 a93d
000001d0: 56c0 993d 8abd 85bd 0a96 283d 1f27 ab3c
000001e0: 5caa 17bd 14d5 903d 8674 233d ba19 943d
000001f0: 42d6 6dbd 3eba e23c 114e 5dbd 5c43 91bd
00000200: f746 0dbd efba 323b 4d59 93bd c5f9 a93d
00000210: c151 f9bc 9b39 f43c 7c10 723d b343 45bd
00000220: e7d6 1c3d f491 283d 7c12 91bb e0d1 90bd
00000230: 9e5d b43d fd9a 09bd e37d 073b 98a9 403d
00000240: c19d 1fbb b94b 2d3d b7c7 65bd b0c2 19bb
00000250: 2725 923c 7cf4 2a3d ff39 503d 92f6 a6bc
00000260: c1cc 9d3d ba13 babc f6b7 96bd 9a74 be3c
00000270: d005 243c 1ae8 89bd 456c a5bb 1985 ae3d
00000280: 32b0 f13b 21c4 4f3c 3661 de3c e2a6 923c
00000290: 0c67 963c ca04 923d f951 9db9 a7c6 26bd
000002a0: ea8e 173d 490d 8cbd 948b 063d 8c7c 553d
000002b0: 3af3 4bbd da1a 413d d8b1 12bd 6b07 dcbb
000002c0: 9316 7c3d d31a 833b 46a5 ffbc 818c 893a
000002d0: 5d4b 8ebd 1ca4 14bc aa58 113b 30cf 21bd
000002e0: b18a 6a3c 4e01 023c c050 53bd 93cf 08bc
000002f0: 8411 d83b 82c0 b1bc 33c7 43bb 207a 0cbc
00000300: 82a3 373c 4f25 40bd 97a9 babc e57c eb3c
00000310: e4c2 8abd 51d5 9a3d 26ce 9bbc 123a 5f3c
00000320: 57c1 3f3c 7b58 c93c 3da5 75bd bf4e 08bd
00000330: d985 323d 36d5 873d 0683 9fbd 9dda f33c
00000340: 4beb d63c bc7a d5bc 3196 793d bebd 213c
00000350: 351f 01bc 9e96 8abc 5910 29bd 4686 a6bc
00000360: 7417 893d be00 8039 4089 34bc a25b 833c
00000370: 01e6 e83c eada dbbc f7a2 72bd 6b8d 6c3c
00000380: 5ec1 823d 5231 8abd f24f 443d 49fb 1abd
00000390: 3513 c1bc fe0e 9cbd 1af4 913d e35c cc3c
000003a0: 9132 2bbd 06e4 453d 88e9 163d e2c7 aebd
000003b0: 4417 c2bc 5353 aa3d dee7 43bd 36a1 67bd
000003c0: 55a8 2b3d 7fce 6abd 19ea 283d 97c9 bebc
000003d0: 12e7 933c dae2 d6bc 9448 80bc 6615 963c
000003e0: f1f2 60bd 3baf 93ba c2f4 503d 78b1 963d
000003f0: 6633 28bc 3c14 1b3d c662 d7bc f723 61bd

encoder.9.bias f4 [16]
0.007194646 -0.086248614 0.079507194 -0.05785028 -0.030880226 -0.057441697 0.06883372 0.06351402
-0.0007586327 0.03572335 -0.0059986766 0.024713289 0.07791425 0.023680123 0.050641228 0.023033569
00000000: 11c1 eb3b 1da3 b0bd abd4 a23d 6af4 6cbd
00000010: 87f8 fcbc fc47 6bbd b2f8 8c3d a313 823d
00000020: fbde 46ba a652 123d 8c90 c4bb 8673 ca3c
00000030: 8291 9f3d d1fc c13c 2d6d 4f3d e5b0 bc3c

projection.weight f4 [4, 16]
0.12478542 0.15998363 0.13728774 -0.090305746 -0.16781485 -0.22710195 -0.0046643913 0.18454933
-0.20409915 -0.17932847 0.14274016 -0.13814983 -0.23343557 0.050026387 -0.033189714 -0.055874527
-0.01834488 -0.22792166 0.10783452 -0.20412183 0.052431732 0.16577652 -0.15635493 -0.106348455
0.13394883 0.17929652 -0.1349017 -0.07481259 0.1757237 0.0033347607 0.13309127 -0.15941009
0.0892221 0.17195523 -0.07626295 -0.08605793 0.059797227 -0.093364716 0.055147886 -0.06021306
0.021315217 0.057258278 0.031396806 -0.082173854 -0.15434715 -0.0040438473 0.024395943 -0.24887201
-0.11662993 0.14789674 -0.10054037 0.20605308 0.102350146 -0.1952683 -0.20360589 -0.014563024
0.01230365 0.045786053 -0.02148366 -0.22326991 0.16393834 -0.16743326 0.22589502 -0.11991769
00000000: 808f ff3d c0d2 233e 2895 0c3e 38f2 b8bd
00000010: a8d7 2bbe 6a8d 68be c0d7 98bb 80fa 3c3e
00000020: 5eff 50be e2a1 37be 7a2a 123e 2677 0dbe
00000030: bc09 6fbe 78e8 4c3d f0f1 07bd b0dc 64bd
00000040: 0048 96bc 4c64 69be 58d8 dc3d 5005 51be
00000050: a8c2 563d 52c1 293e 821b 20be 38cd d9bd
00000060: e229 093e 8299 373e ac23 0abe 5837 99bd
00000070: eaf0 333e 008c 5a3b 1449 083e 663c 23be
00000080: 14ba b63d 0815 303e c02f 9cbd 243f b0bd
00000090: f0ed 743d 0036 bfbd c0e2 613d f8a1 76bd
000000a0: 409d ae3c a887 6a3d f099 003d c44a a8bd
000000b0: 2e0d 1ebe 4082 84bb 00da c73c 4ed8 7ebe
000000c0: acdb eebd 3e72 173e 1ce8 cdbd 94ff 523e
000000d0: f49c d13d 6af4 47be 107e 50be c099 6ebc
000000e0: 4095 493c 288a 3b3d 80fe afbc dea0 64be
000000f0: 74df 273e a073 2bbe 0651 673e 6897 f5bd

projection.bias f4 [4]
-0.2025775 -0.04092443 0.18013293 0.03472358
00000000: 7a70 4fbe 60a0 27bd c474 383e 503a 0e3d

quantum_layer.weight f4 [21]
-0.8268523 0.20631833 0.9058052 -0.9857275 0.44385234 -0.35272542 -0.9051061 -0.8157898
0.70974606 0.85076106 0.4749295 0.66581815 -0.5868355 0.094835825 0.8945107 0.902112
1.1212718 -0.1433737 0.8663151 0.10579703 0.25438333
00000000: 98ac 53bf 1d45 533e d9e2 673f a358 7cbf
00000010: 9d40 e33e 6d98 b4be 09b5 67bf 9ad7 50bf
00000020: ebb1 353f 7acb 593f f629 f33e 0f73 2a3f
00000030: da3a 16bf 4939 c23d a7fe 643f d0f0 663f
00000040: d685 8f3f 8ed0 12be d4c6 5d3f 1dac d83d
00000050: 883e 823e

quantum_layer._weights f4 [21]
-0.8268523 0.20631833 0.9058052 -0.9857275 0.44385234 -0.35272542 -0.9051061 -0.8157898
0.70974606 0.85076106 0.4749295 0.66581815 -0.5868355 0.094835825 0.8945107 0.902112
1.1212718 -0.1433737 0.8663151 0.10579703 0.25438333
00000000: 98ac 53bf 1d45 533e d9e2 673f a358 7cbf
00000010: 9d40 e33e 6d98 b4be 09b5 67bf 9ad7 50bf
00000020: ebb1 353f 7acb 593f f629 f33e 0f73 2a3f
00000030: da3a 16bf 4939 c23d a7fe 643f d0f0 663f
00000040: d685 8f3f 8ed0 12be d4c6 5d3f 1dac d83d
00000050: 883e 823e
