output/train_angle_autoencoder16_20260207_103540/checkpoints/train_angle_autoencoder16_20260207_103540_checkpoint.pth.tar (torch, 9095 bytes, 4 tensors)

weight f4 [123]
0	0x3ed4fa70	0.4159732
1	0xbf205577	-0.6263041
2	0x3e8dd09e	0.27698225
3	0xbf269403	-0.650696
4	0x3e8b2221	0.27174476
5	0x3e96895d	0.29401675
6	0x3eaf4818	0.3423469
7	0xbd312e27	-0.043256905
8	0xbebc0dd5	-0.36729303
9	0xbf120f7a	-0.57054865
10	0x3eac2e15	0.33628908
11	0xbeb5d03a	-0.35510427
12	0x3c22c468	0.009934522
13	0x3d61973b	0.055075865
14	0x3b288370	0.0025713108
15	0xbf2adf4f	-0.6674699
16	0x3d990ced	0.074731685
17	0xbedd200d	-0.43188515
18	0x3efc6c0b	0.4930118
19	0xbf00f3c4	-0.50371957
20	0xbdd2e61b	-0.102977954
21	0xbf2b19f1	-0.6683646
22	0x3a376728	0.00069962675
23	0x3e4ec746	0.20193204
24	0xbe8bb8f1	-0.27289537
25	0x3ca40e35	0.020026306
26	0xbf1e1c4c	-0.6176193
27	0xbecee4c4	-0.4040891
28	0xbdbe6b11	-0.09297765
29	0xbef726fa	-0.48271924
30	0x3ea839fa	0.32856733
31	0x3ec8cdd7	0.39219543
32	0x3f0917c0	0.53551865
33	0xbf14c3be	-0.5811118
34	0xbe53b9a6	-0.20676288
35	0x3c2f13a9	0.01068584
36	0xbda43599	-0.080180354
37	0xbe88005b	-0.2656277
38	0xbf2e9711	-0.6819926
39	0x3e33305b	0.17498915
40	0x3e1b7fc6	0.1518546
41	0x3e01345f	0.12617634
42	0xbe1366cd	-0.14394684
43	0xbecfa814	-0.4055792
44	0xbe36b6d3	-0.1784318
45	0xbf3176d9	-0.6932197
46	0x3f41c173	0.75685805
47	0xbeef06a4	-0.46684754
48	0x3f1e1834	0.6175568
49	0xbf8b5f3b	-1.0888437
50	0x3e472fa0	0.19451761
51	0xbe3e2144	-0.18567377
52	0xbf04757b	-0.5174176
53	0xbef4224d	-0.4768242
54	0xbdae62c3	-0.08514931
55	0x3e878d19	0.26474836
56	0xbce156cd	-0.02750721
57	0x3ea810e5	0.3282539
58	0x3f3e96fa	0.7444912
59	0xbe8aa906	-0.2708208
60	0xbf1f90a1	-0.6233006
61	0x3eec4004	0.4614259
62	0xbf0ac822	-0.5421163
63	0x3da5bc05	0.080925025
64	0x3e8c4b84	0.27401364
65	0xbdf0e89a	-0.11763115
66	0x3e8ab7e7	0.2709343
67	0xbe721406	-0.23640451
68	0x3f645bb9	0.8920246
69	0x3f1140c5	0.56739455
70	0xbe02ac4f	-0.12761043
71	0xbee39ccb	-0.4445556
72	0x3e70a65d	0.23500963
73	0xbdf722a7	-0.12067156
74	0x3d8b9a84	0.06816581
75	0xbf39b038	-0.72534513
76	0x3eca4b3e	0.3951053
77	0xbe880b65	-0.26571193
78	0xbe1da8f1	-0.15396477
79	0x3e2700e6	0.16308936
80	0x3e0dd73d	0.13851638
81	0xbc66ce2e	-0.014087243
82	0x3e80bfd4	0.25146353
83	0xbf1230ca	-0.57105696
84	0x3eede0af	0.46460482
85	0xbe9e997e	-0.3097648
86	0xbef0b46c	-0.4701265
87	0x3e48e09c	0.19616932
88	0xbee1bcc8	-0.4408934
89	0x3e0d1397	0.13777004
90	0x3fd195e5	1.6373869
91	0xbf9db990	-1.2322254
92	0xbfb1b9e8	-1.3884859
93	0x3f0ca38f	0.5493707
94	0x3dc6663d	0.09687469
95	0x3f44a350	0.76811695
96	0xbed29ad9	-0.41133764
97	0x3f59f6a8	0.8514199
98	0x3f413ce0	0.7548351
99	0xbe8918c9	-0.26776722
100	0x3e19b943	0.15012078
101	0x3f5c9831	0.86169726
102	0x3e402e54	0.18767673
103	0x3d1fd28c	0.039019153
104	0x3c9de227	0.019272877
105	0xbd19b71a	-0.037528135
106	0xbf1befad	-0.6091259
107	0xbee6d3dc	-0.4508351
108	0x3cb7acb9	0.022421228
109	0xbd6ceb80	-0.057841778
110	0x3e75c56e	0.24001095
111	0x3d01170b	0.031516116
112	0xbe75778a	-0.23971382
113	0x3e0ac31e	0.13550994
114	0xbefefc6a	-0.49801952
115	0xbebbe186	-0.36695498
116	0x3d33b9cf	0.043878373
117	0x3c5c2688	0.013436921
118	0xbe9a1f32	-0.30101925
119	0x3f0e60b3	0.556163
120	0xbf07b249	-0.53006417
121	0x3e9a9125	0.3018886
122	0xbef4edc6	-0.47837657

_weights f4 [123]
0	0x3ed4fa70	0.4159732
1	0xbf205577	-0.6263041
2	0x3e8dd09e	0.27698225
3	0xbf269403	-0.650696
4	0x3e8b2221	0.27174476
5	0x3e96895d	0.29401675
6	0x3eaf4818	0.3423469
7	0xbd312e27	-0.043256905
8	0xbebc0dd5	-0.36729303
9	0xbf120f7a	-0.57054865
10	0x3eac2e15	0.33628908
11	0xbeb5d03a	-0.35510427
12	0x3c22c468	0.009934522
13	0x3d61973b	0.055075865
14	0x3b288370	0.0025713108
15	0xbf2adf4f	-0.6674699
16	0x3d990ced	0.074731685
17	0xbedd200d	-0.43188515
18	0x3efc6c0b	0.4930118
19	0xbf00f3c4	-0.50371957
20	0xbdd2e61b	-0.102977954
21	0xbf2b19f1	-0.6683646
22	0x3a376728	0.00069962675
23	0x3e4ec746	0.20193204
24	0xbe8bb8f1	-0.27289537
25	0x3ca40e35	0.020026306
26	0xbf1e1c4c	-0.6176193
27	0xbecee4c4	-0.4040891
28	0xbdbe6b11	-0.09297765
29	0xbef726fa	-0.48271924
30	0x3ea839fa	0.32856733
31	0x3ec8cdd7	0.39219543
32	0x3f0917c0	0.53551865
33	0xbf14c3be	-0.5811118
34	0xbe53b9a6	-0.20676288
35	0x3c2f13a9	0.01068584
36	0xbda43599	-0.080180354
37	0xbe88005b	-0.2656277
38	0xbf2e9711	-0.6819926
39	0x3e33305b	0.17498915
40	0x3e1b7fc6	0.1518546
41	0x3e01345f	0.12617634
42	0xbe1366cd	-0.14394684
43	0xbecfa814	-0.4055792
44	0xbe36b6d3	-0.1784318
45	0xbf3176d9	-0.6932197
46	0x3f41c173	0.75685805
47	0xbeef06a4	-0.46684754
48	0x3f1e1834	0.6175568
49	0xbf8b5f3b	-1.0888437
50	0x3e472fa0	0.19451761
51	0xbe3e2144	-0.18567377
52	0xbf04757b	-0.5174176
53	0xbef4224d	-0.4768242
54	0xbdae62c3	-0.08514931
55	0x3e878d19	0.26474836
56	0xbce156cd	-0.02750721
57	0x3ea810e5	0.3282539
58	0x3f3e96fa	0.7444912
59	0xbe8aa906	-0.2708208
60	0xbf1f90a1	-0.6233006
61	0x3eec4004	0.4614259
62	0xbf0ac822	-0.5421163
63	0x3da5bc05	0.080925025
64	0x3e8c4b84	0.27401364
65	0xbdf0e89a	-0.11763115
66	0x3e8ab7e7	0.2709343
67	0xbe721406	-0.23640451
68	0x3f645bb9	0.8920246
69	0x3f1140c5	0.56739455
70	0xbe02ac4f	-0.12761043
71	0xbee39ccb	-0.4445556
72	0x3e70a65d	0.23500963
73	0xbdf722a7	-0.12067156
74	0x3d8b9a84	0.06816581
75	0xbf39b038	-0.72534513
76	0x3eca4b3e	0.3951053
77	0xbe880b65	-0.26571193
78	0xbe1da8f1	-0.15396477
79	0x3e2700e6	0.16308936
80	0x3e0dd73d	0.13851638
81	0xbc66ce2e	-0.014087243
82	0x3e80bfd4	0.25146353
83	0xbf1230ca	-0.57105696
84	0x3eede0af	0.46460482
85	0xbe9e997e	-0.3097648
86	0xbef0b46c	-0.4701265
87	0x3e48e09c	0.19616932
88	0xbee1bcc8	-0.4408934
89	0x3e0d1397	0.13777004
90	0x3fd195e5	1.6373869
91	0xbf9db990	-1.2322254
92	0xbfb1b9e8	-1.3884859
93	0x3f0ca38f	0.5493707
94	0x3dc6663d	0.09687469
95	0x3f44a350	0.76811695
96	0xbed29ad9	-0.41133764
97	0x3f59f6a8	0.8514199
98	0x3f413ce0	0.7548351
99	0xbe8918c9	-0.26776722
100	0x3e19b943	0.15012078
101	0x3f5c9831	0.86169726
102	0x3e402e54	0.18767673
103	0x3d1fd28c	0.039019153
104	0x3c9de227	0.019272877
105	0xbd19b71a	-0.037528135
106	0xbf1befad	-0.6091259
107	0xbee6d3dc	-0.4508351
108	0x3cb7acb9	0.022421228
109	0xbd6ceb80	-0.057841778
110	0x3e75c56e	0.24001095
111	0x3d01170b	0.031516116
112	0xbe75778a	-0.23971382
113	0x3e0ac31e	0.13550994
114	0xbefefc6a	-0.49801952
115	0xbebbe186	-0.36695498
116	0x3d33b9cf	0.043878373
117	0x3c5c2688	0.013436921
118	0xbe9a1f32	-0.30101925
119	0x3f0e60b3	0.556163
120	0xbf07b249	-0.53006417
121	0x3e9a9125	0.3018886
122	0xbef4edc6	-0.47837657

exp_avg f4 [123]
0	0xba4f8f5d	-0.0007917786
1	0x3d263d05	0.040585537
2	0x3bca4e3b	0.0061738766
3	0xbc121fe3	-0.008918735
4	0xbc86bc87	-0.016447319
5	0xbc84af07	-0.01619674
6	0xbc81b703	-0.015834337
7	0x3ca75ad8	0.02042906
8	0x3b98b1a4	0.0046598483
9	0x3c4a7437	0.012356809
10	0xbc73a552	-0.014870958
11	0xbbd3e5c3	-0.0064665987
12	0xbcdd41dc	-0.027008943
13	0xbc9ddc19	-0.01926999
14	0x3ca96676	0.02067874
15	0xbbe1720d	-0.006880051
16	0x3c42ac2f	0.011881872
17	0x3c9726b3	0.01845107
18	0x3c95177b	0.018199673
19	0x3c8d0bda	0.017217565
20	0xbcea6c11	-0.028615983
21	0xbcd4ce81	-0.025977375
22	0x3d6c4c21	0.05768979
23	0xbcf3a35a	-0.029740978
24	0xbcbea441	-0.023271682
25	0xbcfc6dfb	-0.030814162
26	0x3d12fa81	0.03588343
27	0x3c9c4e4b	0.019080302
28	0xbcc99538	-0.024607286
29	0xbc7a66fc	-0.015283342
30	0x3d29e45b	0.041477542
31	0xbd058184	-0.03259422
32	0x3d2654f7	0.040608373
33	0x3d182437	0.037143912
34	0xbc7d4a8b	-0.015459667
35	0x3c48d9ee	0.01225899
36	0x3d8ca663	0.06867673
37	0x3c42d75a	0.011892164
38	0xbcffc420	-0.03122145
39	0x3b57919c	0.0032893186
40	0xbd4ec469	-0.05048028
41	0x3c34340a	0.010998735
42	0x3c16a37a	0.009194249
43	0xbd39b8f8	-0.045342416
44	0xbc4a6056	-0.01235207
45	0x3c2329a4	0.009958658
46	0xbc82e05e	-0.015976127
47	0xbc67e13e	-0.014152823
48	0xbcfd4ac5	-0.030919442
49	0x3b1ccf4b	0.0023927267
50	0x3af8c415	0.0018979335
51	0x3d456faa	0.048202194
52	0xbcdcdcdd	-0.026960785
53	0x3c11cd02	0.008898975
54	0x3ce47625	0.027888367
55	0xbc58fa50	-0.013243273
56	0x3c9bfb6f	0.019040791
57	0xbb6f3559	-0.0036500304
58	0x3cca8b3d	0.024724597
59	0xbc0bc3d3	-0.008530575
60	0xbb70e451	-0.003675718
61	0x3c391578	0.011296622
62	0x3d1b62dd	0.03793608
63	0x3cd84bdb	0.026403358
64	0xbc8bd71e	-0.01707035
65	0xbd579c08	-0.052639037
66	0x3cfc0de4	0.030768342
67	0xbcf9c048	-0.030487195
68	0xbca70ecb	-0.020392796
69	0xbd2ca987	-0.04215386
70	0x3c23c92a	0.009996692
71	0x3be0b10b	0.0068570427
72	0xbb4aec5b	-0.0030963633
73	0x3c8b9627	0.017039372
74	0xbcc019f3	-0.023449874
75	0xbba07557	-0.0048968005
76	0x3cc72755	0.024310747
77	0xbd356152	-0.044282265
78	0xbc0ac544	-0.008469883
79	0x3c0e8f47	0.008701152
80	0x3cd3830e	0.025819328
81	0xbd066f9a	-0.032821275
82	0x3c767544	0.015042607
83	0xbcfb76a8	-0.030696228
84	0x3da0c929	0.07850868
85	0x3be6dadd	0.0070451335
86	0xbbc55a33	-0.0060227155
87	0xbd302b8f	-0.04301029
88	0x3c967c2f	0.018369762
89	0x3cfc5de8	0.030806497
90	0xbbf56c9f	-0.0074897553
91	0xbb8c4202	-0.0042803297
92	0x3d0300e9	0.03198329
93	0x3c8b3f1c	0.016997866
94	0xbc7f32a9	-0.015576043
95	0xbc67870f	-0.014131322
96	0x3c6de764	0.0145205
97	0x3c7a5b02	0.015280487
98	0xbcd602cb	-0.026124379
99	0xbc2123db	-0.009835209
100	0xbb9d8a58	-0.0048077516
101	0x3c19e308	0.009392507
102	0x3cdae70d	0.026721502
103	0x3c09a9a8	0.008402266
104	0x3c9d58e9	0.019207435
105	0x3bc88525	0.0061193877
106	0x3be56e92	0.0070017064
107	0xbc4bf5c7	-0.012448735
108	0x3c3a7a51	0.011381702
109	0x3af7c7cf	0.0018904152
110	0x3cadaaac	0.021199547
111	0x3d1f53d4	0.038898304
112	0x3cc4bee8	0.024016812
113	0x3be81ffd	0.0070838914
114	0xbd41bb2b	-0.047297638
115	0xbd649281	-0.05580378
116	0xbb8a3335	-0.00421753
117	0xbd29d1fb	-0.04146002
118	0xbcd51f58	-0.026015922
119	0x3d520934	0.051278308
120	0xbd24e4d8	-0.040257305
121	0x3ad7cf2e	0.0016464943
122	0x3c9f3bd7	0.019437714

exp_avg_sq f4 [123]
0	0x3a2ff8dc	0.0006712803
1	0x3a55ab9c	0.0008150877
2	0x3a6c656e	0.00090178
3	0x3a16613e	0.0005736536
4	0x3a3686b6	0.00069628225
5	0x3a696bcb	0.0008904307
6	0x3a5d8bb2	0.0008451297
7	0x3a2e7825	0.0006655476
8	0x3a35e232	0.0006938308
9	0x3a1eefd8	0.0006062961
10	0x3a3ba5a1	0.00071581645
11	0x3a386892	0.0007034625
12	0x3a1ce079	0.0005984377
13	0x3a2bcd04	0.0006553682
14	0x3a725fa1	0.0009245817
15	0x3a445991	0.0007490153
16	0x3a5b39b2	0.0008362784
17	0x3a36b191	0.00069692085
18	0x3a399732	0.000707972
19	0x3a6600eb	0.00087739405
20	0x3a21eedf	0.0006177257
21	0x3a2eab63	0.0006663112
22	0x3a4b8e97	0.0007765083
23	0x3a47f930	0.00076283794
24	0x3a2b924f	0.0006544934
25	0x3a282f17	0.00064157083
26	0x3a823233	0.0009933173
27	0x3a1fe9a8	0.0006100186
28	0x3a782820	0.00094664283
29	0x3a42af76	0.00074266584
30	0x3a887cee	0.0010413209
31	0x3a31dab7	0.0006784605
32	0x3a3d2c9d	0.0007216426
33	0x3a6093b4	0.00085669314
34	0x3a47d0c6	0.0007622357
35	0x3a20dcb2	0.0006136402
36	0x3a69ceeb	0.0008919078
37	0x3a34ad55	0.00068922836
38	0x3a37e319	0.0007014736
39	0x3a3e4807	0.0007258658
40	0x3a5f8585	0.0008526671
41	0x3a16add8	0.00057479506
42	0x3a4a1638	0.00077089993
43	0x3a541705	0.00080905884
44	0x3a2f7668	0.0006693364
45	0x3a38cad1	0.0007049265
46	0x3a3d985b	0.00072324806
47	0x3a3f8a42	0.0007306674
48	0x3a5ce344	0.0008426199
49	0x3a1b770a	0.0005930519
50	0x3a1335bb	0.00056156114
51	0x3a40e0fd	0.00073577446
52	0x3a8b7e9e	0.0010642593
53	0x3a6c3204	0.00090101385
54	0x3a2dadda	0.0006625332
55	0x3a401a8f	0.0007328176
56	0x3a4dac5c	0.0007845813
57	0x3a1f8dbb	0.0006086488
58	0x3a561e60	0.00081679784
59	0x3a375ebd	0.0006995013
60	0x3a58d77a	0.00082718546
61	0x3a38610d	0.00070335047
62	0x3a204ede	0.0006115268
63	0x3a2240d8	0.0006189472
64	0x3a2f5045	0.00066876813
65	0x3a494ebe	0.0007679275
66	0x3a3feade	0.000732107
67	0x3a479f43	0.00076149794
68	0x3a4ddc0b	0.00078529184
69	0x3a36c0c3	0.0006971473
70	0x3a263fc7	0.0006341901
71	0x3a77b648	0.0009449464
72	0x3a2bec3a	0.0006558333
73	0x3a48bf11	0.00076578656
74	0x3a451bf6	0.000751912
75	0x3a400d49	0.00073261984
76	0x3a684478	0.00088603003
77	0x3a607947	0.00085629936
78	0x3a62f3d3	0.00086575485
79	0x3a45ca84	0.0007545131
80	0x3a26f30e	0.00063686154
81	0x3a5e24ed	0.00084741303
82	0x3a30bb52	0.000674178
83	0x3a38824d	0.00070384593
84	0x3a54876c	0.00081073376
85	0x3a3d77c7	0.0007227626
86	0x3a13b58f	0.00056346593
87	0x3a39800d	0.0007076271
88	0x3a2d3001	0.00066065794
89	0x3a5b2965	0.0008360355
90	0x3a384c55	0.00070304173
91	0x3a2a4bba	0.00064962695
92	0x3a5a8885	0.0008336383
93	0x3a32bb84	0.0006818103
94	0x3a40855f	0.00073440926
95	0x3a47eea5	0.00076268084
96	0x3a25898d	0.0006314747
97	0x3a342cb9	0.0006873119
98	0x3a5a4fa9	0.00083279103
99	0x3a3e535b	0.0007260346
100	0x3a2e1a86	0.00066415255
101	0x3a48bc71	0.00076574745
102	0x3a4727d8	0.0007597185
103	0x3a549cdc	0.0008110532
104	0x3a18a646	0.00058231165
105	0x3a484199	0.00076391693
106	0x3a25b280	0.0006320849
107	0x3a4e8ff5	0.00078797276
108	0x3a466aed	0.0007569034
109	0x3a3ceb58	0.00072067
110	0x3a42fb1d	0.00074379315
111	0x3a21ab19	0.0006167158
112	0x3a6aaff9	0.00089526136
113	0x3a422fb3	0.00074076204
114	0x3a477025	0.00076079584
115	0x3a342a8b	0.00068727945
116	0x3a53f8d1	0.0008086088
117	0x3a48c2ea	0.0007658439
118	0x3a88b317	0.001042935
119	0x3a4da70b	0.0007845021
120	0x3a6c31fc	0.0009010134
121	0x3a58a0e9	0.00082637236
122	0x3a6d11ff	0.0009043514
