output/mnist_38_pca_train_angle_pca16_20260203_225412/model/train_angle_pca16_20260203_225412_trained_qcnn.pth (torch, 2618 bytes, 2 tensors)

weight f4 [123]
0.28337082 -0.07368476 -0.17733029 -0.24750884 0.21588379 -0.14932233 -0.48462942 -0.92679536
0.015911436 -1.1569055 -0.38565466 -0.27020425 -0.2779406 0.4719568 -0.13995707 0.17922276
0.84157777 0.25340316 0.24204488 0.6539001 0.82913107 0.6698184 0.5415365 -0.57302445
0.28896937 0.12021711 -0.1019526 -0.23895873 0.89962035 -0.011058809 0.41559044 0.58717585
0.15908743 -0.680225 -0.57564616 0.027065119 0.34644747 -0.12746342 0.8252892 0.32635108
0.15328932 0.55110276 0.07564054 -0.28397062 0.0986338 -0.2853448 0.019558238 -0.35640398
-0.094328865 -0.13141596 0.10276514 0.7022715 0.58096856 0.091337204 -0.04368182 -0.3584206
0.6685716 -0.58509064 -0.40574375 0.015016412 -0.048600096 0.10821558 0.062137358 0.21620344
0.3629924 -0.10272983 -0.3484037 0.78917634 0.4330737 0.64169073 0.1829216 0.0663254
-0.68973035 0.18051706 0.71930087 -1.0286126 0.29677194 0.26835045 -0.061733175 -0.18827692
0.21429153 -0.53175443 -0.30775294 0.086466864 0.04535823 0.030854935 -0.7018518 0.22664845
0.9511374 0.3187982 0.21177892 0.04478421 0.21145709 -0.049330972 0.39633688 0.4605528
0.014209237 -0.4998728 0.16276646 0.006785674 -0.062659934 -0.024154345 0.46780375 -1.1130795
-0.9162314 0.64461684 0.68224704 0.9745573 0.11908117 1.0758771 -0.5695555 0.41742292
0.4154839 0.07323883 0.4490815 0.9033019 -0.35775918 0.12090059 -0.79551893 0.71948636
0.36247882 -0.9421013 0.709991
00000000: fb15 913e 09e8 96bd 1296 35be f572 7dbe
00000010: a410 5d3e f4e7 18be 5921 f8be 7642 6dbf
00000020: b358 823c 7b15 94bf 8774 c5be 3658 8abe
00000030: 3b4e 8ebe 52a4 f13e e850 0fbe 2c86 373e
00000040: a471 573f 0fbe 813e 9dda 773e ff65 273f
00000050: ef41 543f 3879 2b3f 23a2 0a3f bbb1 12bf
00000060: cbf3 933e 6334 f63d 86cc d0bd 99b1 74be
00000070: 854d 663f 0230 35bc 45c8 d43e 2851 163f
00000080: d1e7 223e 3a23 2ebf 8c5d 13bf abb7 dd3c
00000090: 9061 b13e c585 02be 2746 533f 7d17 a73e
000000a0: e0f7 1c3e 1215 0d3f 6de9 9a3d 9964 91be
000000b0: 8500 ca3d b718 92be 9938 a03c 957a b6be
000000c0: 7e2f c1bd e891 06be 8876 d23d 11c8 333f
000000d0: 5bba 143f 000f bb3d b5eb 32bd e882 b7be
000000e0: 8227 2b3f 80c8 15bf a5bd cfbe 6607 763c
000000f0: e510 47bd 21a0 dd3d be83 7e3d 6f64 5d3e
00000100: 24da b93e 0464 d2bd f861 b2be 7607 4a3f
00000110: d6bb dd3e d845 243f cd4f 3b3e 9cd5 873d
00000120: 2b92 30bf 77d9 383e 1a24 383f 94a9 83bf
00000130: 7ef2 973e 3b65 893e eddb 7cbd aacb 40be
00000140: 3d6f 5b3e 0f21 08bf cb91 9dbe 8a15 b13d
00000150: 8dc9 393d 7dc3 fc3c 8fac 33bf 8816 683e
00000160: be7d 733f 8539 a33e 93dc 583e a66f 373d
00000170: 3588 583e 460f 4abd abec ca3e 94cd eb3e
00000180: dccd 683c 54ef ffbe 40ac 263e 5c5a de3b
00000190: da53 80bd 55df c5bc f983 ef3e 6479 8ebf
000001a0: 248e 6abf 9c05 253f bea7 2e3f 967c 793f
000001b0: d4e0 f33d 57b6 893f 64ce 11bf 75b8 d53e
000001c0: 4eba d43e 3dfe 953d 03ee e53e cb3e 673f
000001d0: 362c b7be bb9a f73d 21a7 4bbf 4230 383f
000001e0: d396 b93e 8d2d 71bf f8c1 353f

_weights f4 [123]
0.28337082 -0.07368476 -0.17733029 -0.24750884 0.21588379 -0.14932233 -0.48462942 -0.92679536
0.015911436 -1.1569055 -0.38565466 -0.27020425 -0.2779406 0.4719568 -0.13995707 0.17922276
0.84157777 0.25340316 0.24204488 0.6539001 0.82913107 0.6698184 0.5415365 -0.57302445
0.28896937 0.12021711 -0.1019526 -0.23895873 0.89962035 -0.011058809 0.41559044 0.58717585
0.15908743 -0.680225 -0.57564616 0.027065119 0.34644747 -0.12746342 0.8252892 0.32635108
0.15328932 0.55110276 0.07564054 -0.28397062 0.0986338 -0.2853448 0.019558238 -0.35640398
-0.094328865 -0.13141596 0.10276514 0.7022715 0.58096856 0.091337204 -0.04368182 -0.3584206
0.6685716 -0.58509064 -0.40574375 0.015016412 -0.048600096 0.10821558 0.062137358 0.21620344
0.3629924 -0.10272983 -0.3484037 0.78917634 0.4330737 0.64169073 0.1829216 0.0663254
-0.68973035 0.18051706 0.71930087 -1.0286126 0.29677194 0.26835045 -0.061733175 -0.18827692
0.21429153 -0.53175443 -0.30775294 0.086466864 0.04535823 0.030854935 -0.7018518 0.22664845
0.9511374 0.3187982 0.21177892 0.04478421 0.21145709 -0.049330972 0.39633688 0.4605528
0.014209237 -0.4998728 0.16276646 0.006785674 -0.062659934 -0.024154345 0.46780375 -1.1130795
-0.9162314 0.64461684 0.68224704 0.9745573 0.11908117 1.0758771 -0.5695555 0.41742292
0.4154839 0.07323883 0.4490815 0.9033019 -0.35775918 0.12090059 -0.79551893 0.71948636
0.36247882 -0.9421013 0.709991
00000000: fb15 913e 09e8 96bd 1296 35be f572 7dbe
00000010: a410 5d3e f4e7 18be 5921 f8be 7642 6dbf
00000020: b358 823c 7b15 94bf 8774 c5be 3658 8abe
00000030: 3b4e 8ebe 52a4 f13e e850 0fbe 2c86 373e
00000040: a471 573f 0fbe 813e 9dda 773e ff65 273f
00000050: ef41 543f 3879 2b3f 23a2 0a3f bbb1 12bf
00000060: cbf3 933e 6334 f63d 86cc d0bd 99b1 74be
00000070: 854d 663f 0230 35bc 45c8 d43e 2851 163f
00000080: d1e7 223e 3a23 2ebf 8c5d 13bf abb7 dd3c
00000090: 9061 b13e c585 02be 2746 533f 7d17 a73e
000000a0: e0f7 1c3e 1215 0d3f 6de9 9a3d 9964 91be
000000b0: 8500 ca3d b718 92be 9938 a03c 957a b6be
000000c0: 7e2f c1bd e891 06be 8876 d23d 11c8 333f
000000d0: 5bba 143f 000f bb3d b5eb 32bd e882 b7be
000000e0: 8227 2b3f 80c8 15bf a5bd cfbe 6607 763c
000000f0: e510 47bd 21a0 dd3d be83 7e3d 6f64 5d3e
00000100: 24da b93e 0464 d2bd f861 b2be 7607 4a3f
00000110: d6bb dd3e d845 243f cd4f 3b3e 9cd5 873d
00000120: 2b92 30bf 77d9 383e 1a24 383f 94a9 83bf
00000130: 7ef2 973e 3b65 893e eddb 7cbd aacb 40be
00000140: 3d6f 5b3e 0f21 08bf cb91 9dbe 8a15 b13d
00000150: 8dc9 393d 7dc3 fc3c 8fac 33bf 8816 683e
00000160: be7d 733f 8539 a33e 93dc 583e a66f 373d
00000170: 3588 583e 460f 4abd abec ca3e 94cd eb3e
00000180: dccd 683c 54ef ffbe 40ac 263e 5c5a de3b
00000190: da53 80bd 55df c5bc f983 ef3e 6479 8ebf
000001a0: 248e 6abf 9c05 253f bea7 2e3f 967c 793f
000001b0: d4e0 f33d 57b6 893f 64ce 11bf 75b8 d53e
000001c0: 4eba d43e 3dfe 953d 03ee e53e cb3e 673f
000001d0: 362c b7be bb9a f73d 21a7 4bbf 4230 383f
000001e0: d396 b93e 8d2d 71bf f8c1 353f
